{"format": "graph-model", "generatedBy": "2.19.0", "convertedBy": "TensorFlow.js Converter v4.22.0", "signature": {"inputs": {"keras_tensor_68": {"name": "keras_tensor_68:0", "dtype": "DT_FLOAT", "tensorShape": {"dim": [{"size": "-1"}, {"size": "8"}, {"size": "8"}, {"size": "2"}]}}}, "outputs": {"output_0": {"name": "Identity:0", "dtype": "DT_FLOAT", "tensorShape": {"dim": [{"size": "-1"}, {"size": "64"}]}}, "output_1": {"name": "Identity_1:0", "dtype": "DT_FLOAT", "tensorShape": {"dim": [{"size": "-1"}, {"size": "1"}]}}}}, "modelTopology": {"node": [{"name": "StatefulPartitionedCall/functional_16_1/policy_logits_1/Cast/ReadVariableOp", "op": "Const", "attr": {"dtype": {"type": "DT_FLOAT"}, "value": {"tensor": {"dtype": "DT_FLOAT", "tensorShape": {"dim": [{"size": "256"}, {"size": "1"}]}}}}}, {"name": "StatefulPartitionedCall/functional_16_1/policy_logits_1/Add/ReadVariableOp", "op": "Const", "attr": {"dtype": {"type": "DT_FLOAT"}, "value": {"tensor": {"dtype": "DT_FLOAT", "tensorShape": {"dim": [{"size": "1"}]}}}}}, {"name": "StatefulPartitionedCall/functional_16_1/reshape_1_2/strided_slice/stack", "op": "Const", "attr": {"dtype": {"type": "DT_INT32"}, "value": {"tensor": {"dtype": "DT_INT32", "tensorShape": {"dim": [{"size": "1"}]}}}}}, {"name": "StatefulPartitionedCall/functional_16_1/reshape_1_2/strided_slice/stack_1", "op": "Const", "attr": {"dtype": {"type": "DT_INT32"}, "value": {"tensor": {"dtype": "DT_INT32", "tensorShape": {"dim": [{"size": "1"}]}}}}}, {"name": "StatefulPartitionedCall/functional_16_1/reshape_1_2/strided_slice/stack_2", "op": "Const", "attr": {"dtype": {"type": "DT_INT32"}, "value": {"tensor": {"dtype": "DT_INT32", "tensorShape": {"dim": [{"size": "1"}]}}}}}, {"name": "StatefulPartitionedCall/functional_16_1/reshape_1_2/Reshape/shape/1", "op": "Const", "attr": {"dtype": {"type": "DT_INT32"}, "value": {"tensor": {"dtype": "DT_INT32", "tensorShape": {}}}}}, {"name": "StatefulPartitionedCall/functional_16_1/value_1/mul_1/x", "op": "Const", "attr": {"dtype": {"type": "DT_FLOAT"}, "value": {"tensor": {"dtype": "DT_FLOAT", "tensorShape": {}}}}}, {"name": "StatefulPartitionedCall/functional_16_1/value_1/mul/x", "op": "Const", "attr": {"dtype": {"type": "DT_FLOAT"}, "value": {"tensor": {"dtype": "DT_FLOAT", "tensorShape": {}}}}}, {"name": "StatefulPartitionedCall/functional_16_1/transformer_block_7_1/sequential_15_1/dense_31_1/mul_1/x", "op": "Const", "attr": {"dtype": {"type": "DT_FLOAT"}, "value": {"tensor": {"dtype": "DT_FLOAT", "tensorShape": {}}}}}, {"name": "StatefulPartitionedCall/functional_16_1/transformer_block_7_1/sequential_15_1/dense_31_1/mul/x", "op": "Const", "attr": {"dtype": {"type": "DT_FLOAT"}, "value": {"tensor": {"dtype": "DT_FLOAT", "tensorShape": {}}}}}, {"name": "StatefulPartitionedCall/functional_16_1/transformer_block_7_1/layer_normalization_31_1/Reshape_1", "op": "Const", "attr": {"dtype": {"type": "DT_FLOAT"}, "value": {"tensor": {"dtype": "DT_FLOAT", "tensorShape": {"dim": [{"size": "1"}, {"size": "1"}, {"size": "256"}]}}}}}, {"name": "StatefulPartitionedCall/functional_16_1/transformer_block_7_1/multi_head_attention_15_1/query_1/Reshape", "op": "Const", "attr": {"dtype": {"type": "DT_FLOAT"}, "value": {"tensor": {"dtype": "DT_FLOAT", "tensorShape": {"dim": [{"size": "256"}, {"size": "256"}]}}}}}, {"name": "StatefulPartitionedCall/functional_16_1/transformer_block_7_1/multi_head_attention_15_1/query_1/Reshape_1/shape", "op": "Const", "attr": {"dtype": {"type": "DT_INT32"}, "value": {"tensor": {"dtype": "DT_INT32", "tensorShape": {"dim": [{"size": "4"}]}}}}}, {"name": "StatefulPartitionedCall/functional_16_1/transformer_block_7_1/multi_head_attention_15_1/query_1/Add/ReadVariableOp", "op": "Const", "attr": {"dtype": {"type": "DT_FLOAT"}, "value": {"tensor": {"dtype": "DT_FLOAT", "tensorShape": {"dim": [{"size": "8"}, {"size": "32"}]}}}}}, {"name": "StatefulPartitionedCall/functional_16_1/transformer_block_7_1/multi_head_attention_15_1/key_1/Reshape", "op": "Const", "attr": {"dtype": {"type": "DT_FLOAT"}, "value": {"tensor": {"dtype": "DT_FLOAT", "tensorShape": {"dim": [{"size": "256"}, {"size": "256"}]}}}}}, {"name": "StatefulPartitionedCall/functional_16_1/transformer_block_7_1/multi_head_attention_15_1/key_1/Reshape_1/shape", "op": "Const", "attr": {"dtype": {"type": "DT_INT32"}, "value": {"tensor": {"dtype": "DT_INT32", "tensorShape": {"dim": [{"size": "4"}]}}}}}, {"name": "StatefulPartitionedCall/functional_16_1/transformer_block_7_1/multi_head_attention_15_1/key_1/Add/ReadVariableOp", "op": "Const", "attr": {"dtype": {"type": "DT_FLOAT"}, "value": {"tensor": {"dtype": "DT_FLOAT", "tensorShape": {"dim": [{"size": "8"}, {"size": "32"}]}}}}}, {"name": "StatefulPartitionedCall/functional_16_1/transformer_block_7_1/multi_head_attention_15_1/Cast/x", "op": "Const", "attr": {"dtype": {"type": "DT_FLOAT"}, "value": {"tensor": {"dtype": "DT_FLOAT", "tensorShape": {}}}}}, {"name": "StatefulPartitionedCall/functional_16_1/transformer_block_7_1/layer_normalization_30_1/Reshape_1", "op": "Const", "attr": {"dtype": {"type": "DT_FLOAT"}, "value": {"tensor": {"dtype": "DT_FLOAT", "tensorShape": {"dim": [{"size": "1"}, {"size": "1"}, {"size": "256"}]}}}}}, {"name": "StatefulPartitionedCall/functional_16_1/transformer_block_6_1/sequential_14_1/dense_29_1/mul_1/x", "op": "Const", "attr": {"dtype": {"type": "DT_FLOAT"}, "value": {"tensor": {"dtype": "DT_FLOAT", "tensorShape": {}}}}}, {"name": "StatefulPartitionedCall/functional_16_1/transformer_block_6_1/sequential_14_1/dense_29_1/mul/x", "op": "Const", "attr": {"dtype": {"type": "DT_FLOAT"}, "value": {"tensor": {"dtype": "DT_FLOAT", "tensorShape": {}}}}}, {"name": "StatefulPartitionedCall/functional_16_1/transformer_block_6_1/layer_normalization_29_1/Reshape_1", "op": "Const", "attr": {"dtype": {"type": "DT_FLOAT"}, "value": {"tensor": {"dtype": "DT_FLOAT", "tensorShape": {"dim": [{"size": "1"}, {"size": "1"}, {"size": "256"}]}}}}}, {"name": "StatefulPartitionedCall/functional_16_1/transformer_block_6_1/multi_head_attention_14_1/query_1/Reshape", "op": "Const", "attr": {"dtype": {"type": "DT_FLOAT"}, "value": {"tensor": {"dtype": "DT_FLOAT", "tensorShape": {"dim": [{"size": "256"}, {"size": "256"}]}}}}}, {"name": "StatefulPartitionedCall/functional_16_1/transformer_block_6_1/multi_head_attention_14_1/query_1/Reshape_1/shape", "op": "Const", "attr": {"dtype": {"type": "DT_INT32"}, "value": {"tensor": {"dtype": "DT_INT32", "tensorShape": {"dim": [{"size": "4"}]}}}}}, {"name": "StatefulPartitionedCall/functional_16_1/transformer_block_6_1/multi_head_attention_14_1/query_1/Add/ReadVariableOp", "op": "Const", "attr": {"dtype": {"type": "DT_FLOAT"}, "value": {"tensor": {"dtype": "DT_FLOAT", "tensorShape": {"dim": [{"size": "8"}, {"size": "32"}]}}}}}, {"name": "StatefulPartitionedCall/functional_16_1/transformer_block_6_1/multi_head_attention_14_1/key_1/Reshape", "op": "Const", "attr": {"dtype": {"type": "DT_FLOAT"}, "value": {"tensor": {"dtype": "DT_FLOAT", "tensorShape": {"dim": [{"size": "256"}, {"size": "256"}]}}}}}, {"name": "StatefulPartitionedCall/functional_16_1/transformer_block_6_1/multi_head_attention_14_1/key_1/Reshape_1/shape", "op": "Const", "attr": {"dtype": {"type": "DT_INT32"}, "value": {"tensor": {"dtype": "DT_INT32", "tensorShape": {"dim": [{"size": "4"}]}}}}}, {"name": "StatefulPartitionedCall/functional_16_1/transformer_block_6_1/multi_head_attention_14_1/key_1/Add/ReadVariableOp", "op": "Const", "attr": {"dtype": {"type": "DT_FLOAT"}, "value": {"tensor": {"dtype": "DT_FLOAT", "tensorShape": {"dim": [{"size": "8"}, {"size": "32"}]}}}}}, {"name": "StatefulPartitionedCall/functional_16_1/transformer_block_6_1/multi_head_attention_14_1/Cast/x", "op": "Const", "attr": {"dtype": {"type": "DT_FLOAT"}, "value": {"tensor": {"dtype": "DT_FLOAT", "tensorShape": {}}}}}, {"name": "StatefulPartitionedCall/functional_16_1/transformer_block_6_1/layer_normalization_28_1/Reshape_1", "op": "Const", "attr": {"dtype": {"type": "DT_FLOAT"}, "value": {"tensor": {"dtype": "DT_FLOAT", "tensorShape": {"dim": [{"size": "1"}, {"size": "1"}, {"size": "256"}]}}}}}, {"name": "StatefulPartitionedCall/functional_16_1/transformer_block_5_1/sequential_13_1/dense_27_1/mul_1/x", "op": "Const", "attr": {"dtype": {"type": "DT_FLOAT"}, "value": {"tensor": {"dtype": "DT_FLOAT", "tensorShape": {}}}}}, {"name": "StatefulPartitionedCall/functional_16_1/transformer_block_5_1/sequential_13_1/dense_27_1/mul/x", "op": "Const", "attr": {"dtype": {"type": "DT_FLOAT"}, "value": {"tensor": {"dtype": "DT_FLOAT", "tensorShape": {}}}}}, {"name": "StatefulPartitionedCall/functional_16_1/transformer_block_5_1/layer_normalization_27_1/Reshape_1", "op": "Const", "attr": {"dtype": {"type": "DT_FLOAT"}, "value": {"tensor": {"dtype": "DT_FLOAT", "tensorShape": {"dim": [{"size": "1"}, {"size": "1"}, {"size": "256"}]}}}}}, {"name": "StatefulPartitionedCall/functional_16_1/transformer_block_5_1/multi_head_attention_13_1/query_1/Reshape", "op": "Const", "attr": {"dtype": {"type": "DT_FLOAT"}, "value": {"tensor": {"dtype": "DT_FLOAT", "tensorShape": {"dim": [{"size": "256"}, {"size": "256"}]}}}}}, {"name": "StatefulPartitionedCall/functional_16_1/transformer_block_5_1/multi_head_attention_13_1/query_1/Reshape_1/shape", "op": "Const", "attr": {"dtype": {"type": "DT_INT32"}, "value": {"tensor": {"dtype": "DT_INT32", "tensorShape": {"dim": [{"size": "4"}]}}}}}, {"name": "StatefulPartitionedCall/functional_16_1/transformer_block_5_1/multi_head_attention_13_1/query_1/Add/ReadVariableOp", "op": "Const", "attr": {"dtype": {"type": "DT_FLOAT"}, "value": {"tensor": {"dtype": "DT_FLOAT", "tensorShape": {"dim": [{"size": "8"}, {"size": "32"}]}}}}}, {"name": "StatefulPartitionedCall/functional_16_1/transformer_block_5_1/multi_head_attention_13_1/key_1/Reshape", "op": "Const", "attr": {"dtype": {"type": "DT_FLOAT"}, "value": {"tensor": {"dtype": "DT_FLOAT", "tensorShape": {"dim": [{"size": "256"}, {"size": "256"}]}}}}}, {"name": "StatefulPartitionedCall/functional_16_1/transformer_block_5_1/multi_head_attention_13_1/key_1/Reshape_1/shape", "op": "Const", "attr": {"dtype": {"type": "DT_INT32"}, "value": {"tensor": {"dtype": "DT_INT32", "tensorShape": {"dim": [{"size": "4"}]}}}}}, {"name": "StatefulPartitionedCall/functional_16_1/transformer_block_5_1/multi_head_attention_13_1/key_1/Add/ReadVariableOp", "op": "Const", "attr": {"dtype": {"type": "DT_FLOAT"}, "value": {"tensor": {"dtype": "DT_FLOAT", "tensorShape": {"dim": [{"size": "8"}, {"size": "32"}]}}}}}, {"name": "StatefulPartitionedCall/functional_16_1/transformer_block_5_1/multi_head_attention_13_1/Cast/x", "op": "Const", "attr": {"dtype": {"type": "DT_FLOAT"}, "value": {"tensor": {"dtype": "DT_FLOAT", "tensorShape": {}}}}}, {"name": "StatefulPartitionedCall/functional_16_1/transformer_block_5_1/layer_normalization_26_1/Reshape_1", "op": "Const", "attr": {"dtype": {"type": "DT_FLOAT"}, "value": {"tensor": {"dtype": "DT_FLOAT", "tensorShape": {"dim": [{"size": "1"}, {"size": "1"}, {"size": "256"}]}}}}}, {"name": "StatefulPartitionedCall/functional_16_1/transformer_block_4_1/sequential_12_1/dense_25_1/mul_1/x", "op": "Const", "attr": {"dtype": {"type": "DT_FLOAT"}, "value": {"tensor": {"dtype": "DT_FLOAT", "tensorShape": {}}}}}, {"name": "StatefulPartitionedCall/functional_16_1/transformer_block_4_1/sequential_12_1/dense_25_1/mul/x", "op": "Const", "attr": {"dtype": {"type": "DT_FLOAT"}, "value": {"tensor": {"dtype": "DT_FLOAT", "tensorShape": {}}}}}, {"name": "StatefulPartitionedCall/functional_16_1/transformer_block_4_1/layer_normalization_25_1/Reshape_1", "op": "Const", "attr": {"dtype": {"type": "DT_FLOAT"}, "value": {"tensor": {"dtype": "DT_FLOAT", "tensorShape": {"dim": [{"size": "1"}, {"size": "1"}, {"size": "256"}]}}}}}, {"name": "StatefulPartitionedCall/functional_16_1/transformer_block_4_1/multi_head_attention_12_1/query_1/Reshape", "op": "Const", "attr": {"dtype": {"type": "DT_FLOAT"}, "value": {"tensor": {"dtype": "DT_FLOAT", "tensorShape": {"dim": [{"size": "256"}, {"size": "256"}]}}}}}, {"name": "StatefulPartitionedCall/functional_16_1/transformer_block_4_1/multi_head_attention_12_1/query_1/Reshape_1/shape", "op": "Const", "attr": {"dtype": {"type": "DT_INT32"}, "value": {"tensor": {"dtype": "DT_INT32", "tensorShape": {"dim": [{"size": "4"}]}}}}}, {"name": "StatefulPartitionedCall/functional_16_1/transformer_block_4_1/multi_head_attention_12_1/query_1/Add/ReadVariableOp", "op": "Const", "attr": {"dtype": {"type": "DT_FLOAT"}, "value": {"tensor": {"dtype": "DT_FLOAT", "tensorShape": {"dim": [{"size": "8"}, {"size": "32"}]}}}}}, {"name": "StatefulPartitionedCall/functional_16_1/transformer_block_4_1/multi_head_attention_12_1/key_1/Reshape", "op": "Const", "attr": {"dtype": {"type": "DT_FLOAT"}, "value": {"tensor": {"dtype": "DT_FLOAT", "tensorShape": {"dim": [{"size": "256"}, {"size": "256"}]}}}}}, {"name": "StatefulPartitionedCall/functional_16_1/transformer_block_4_1/multi_head_attention_12_1/key_1/Reshape_1/shape", "op": "Const", "attr": {"dtype": {"type": "DT_INT32"}, "value": {"tensor": {"dtype": "DT_INT32", "tensorShape": {"dim": [{"size": "4"}]}}}}}, {"name": "StatefulPartitionedCall/functional_16_1/transformer_block_4_1/multi_head_attention_12_1/key_1/Add/ReadVariableOp", "op": "Const", "attr": {"dtype": {"type": "DT_FLOAT"}, "value": {"tensor": {"dtype": "DT_FLOAT", "tensorShape": {"dim": [{"size": "8"}, {"size": "32"}]}}}}}, {"name": "StatefulPartitionedCall/functional_16_1/transformer_block_4_1/multi_head_attention_12_1/Cast/x", "op": "Const", "attr": {"dtype": {"type": "DT_FLOAT"}, "value": {"tensor": {"dtype": "DT_FLOAT", "tensorShape": {}}}}}, {"name": "StatefulPartitionedCall/functional_16_1/transformer_block_4_1/layer_normalization_24_1/Reshape_1", "op": "Const", "attr": {"dtype": {"type": "DT_FLOAT"}, "value": {"tensor": {"dtype": "DT_FLOAT", "tensorShape": {"dim": [{"size": "1"}, {"size": "1"}, {"size": "256"}]}}}}}, {"name": "StatefulPartitionedCall/functional_16_1/transformer_block_3_1/sequential_11_1/dense_23_1/mul_1/x", "op": "Const", "attr": {"dtype": {"type": "DT_FLOAT"}, "value": {"tensor": {"dtype": "DT_FLOAT", "tensorShape": {}}}}}, {"name": "StatefulPartitionedCall/functional_16_1/transformer_block_3_1/sequential_11_1/dense_23_1/mul/x", "op": "Const", "attr": {"dtype": {"type": "DT_FLOAT"}, "value": {"tensor": {"dtype": "DT_FLOAT", "tensorShape": {}}}}}, {"name": "StatefulPartitionedCall/functional_16_1/transformer_block_3_1/layer_normalization_23_1/Reshape_1", "op": "Const", "attr": {"dtype": {"type": "DT_FLOAT"}, "value": {"tensor": {"dtype": "DT_FLOAT", "tensorShape": {"dim": [{"size": "1"}, {"size": "1"}, {"size": "256"}]}}}}}, {"name": "StatefulPartitionedCall/functional_16_1/transformer_block_3_1/multi_head_attention_11_1/query_1/Reshape", "op": "Const", "attr": {"dtype": {"type": "DT_FLOAT"}, "value": {"tensor": {"dtype": "DT_FLOAT", "tensorShape": {"dim": [{"size": "256"}, {"size": "256"}]}}}}}, {"name": "StatefulPartitionedCall/functional_16_1/transformer_block_3_1/multi_head_attention_11_1/query_1/Reshape_1/shape", "op": "Const", "attr": {"dtype": {"type": "DT_INT32"}, "value": {"tensor": {"dtype": "DT_INT32", "tensorShape": {"dim": [{"size": "4"}]}}}}}, {"name": "StatefulPartitionedCall/functional_16_1/transformer_block_3_1/multi_head_attention_11_1/query_1/Add/ReadVariableOp", "op": "Const", "attr": {"dtype": {"type": "DT_FLOAT"}, "value": {"tensor": {"dtype": "DT_FLOAT", "tensorShape": {"dim": [{"size": "8"}, {"size": "32"}]}}}}}, {"name": "StatefulPartitionedCall/functional_16_1/transformer_block_3_1/multi_head_attention_11_1/key_1/Reshape", "op": "Const", "attr": {"dtype": {"type": "DT_FLOAT"}, "value": {"tensor": {"dtype": "DT_FLOAT", "tensorShape": {"dim": [{"size": "256"}, {"size": "256"}]}}}}}, {"name": "StatefulPartitionedCall/functional_16_1/transformer_block_3_1/multi_head_attention_11_1/key_1/Reshape_1/shape", "op": "Const", "attr": {"dtype": {"type": "DT_INT32"}, "value": {"tensor": {"dtype": "DT_INT32", "tensorShape": {"dim": [{"size": "4"}]}}}}}, {"name": "StatefulPartitionedCall/functional_16_1/transformer_block_3_1/multi_head_attention_11_1/key_1/Add/ReadVariableOp", "op": "Const", "attr": {"dtype": {"type": "DT_FLOAT"}, "value": {"tensor": {"dtype": "DT_FLOAT", "tensorShape": {"dim": [{"size": "8"}, {"size": "32"}]}}}}}, {"name": "StatefulPartitionedCall/functional_16_1/transformer_block_3_1/multi_head_attention_11_1/Cast/x", "op": "Const", "attr": {"dtype": {"type": "DT_FLOAT"}, "value": {"tensor": {"dtype": "DT_FLOAT", "tensorShape": {}}}}}, {"name": "StatefulPartitionedCall/functional_16_1/transformer_block_3_1/layer_normalization_22_1/Reshape_1", "op": "Const", "attr": {"dtype": {"type": "DT_FLOAT"}, "value": {"tensor": {"dtype": "DT_FLOAT", "tensorShape": {"dim": [{"size": "1"}, {"size": "1"}, {"size": "256"}]}}}}}, {"name": "StatefulPartitionedCall/functional_16_1/transformer_block_2_1/sequential_10_1/dense_21_1/mul_1/x", "op": "Const", "attr": {"dtype": {"type": "DT_FLOAT"}, "value": {"tensor": {"dtype": "DT_FLOAT", "tensorShape": {}}}}}, {"name": "StatefulPartitionedCall/functional_16_1/transformer_block_2_1/sequential_10_1/dense_21_1/mul/x", "op": "Const", "attr": {"dtype": {"type": "DT_FLOAT"}, "value": {"tensor": {"dtype": "DT_FLOAT", "tensorShape": {}}}}}, {"name": "StatefulPartitionedCall/functional_16_1/transformer_block_2_1/layer_normalization_21_1/Reshape_1", "op": "Const", "attr": {"dtype": {"type": "DT_FLOAT"}, "value": {"tensor": {"dtype": "DT_FLOAT", "tensorShape": {"dim": [{"size": "1"}, {"size": "1"}, {"size": "256"}]}}}}}, {"name": "StatefulPartitionedCall/functional_16_1/transformer_block_2_1/multi_head_attention_10_1/query_1/Reshape", "op": "Const", "attr": {"dtype": {"type": "DT_FLOAT"}, "value": {"tensor": {"dtype": "DT_FLOAT", "tensorShape": {"dim": [{"size": "256"}, {"size": "256"}]}}}}}, {"name": "StatefulPartitionedCall/functional_16_1/transformer_block_2_1/multi_head_attention_10_1/query_1/Reshape_1/shape", "op": "Const", "attr": {"dtype": {"type": "DT_INT32"}, "value": {"tensor": {"dtype": "DT_INT32", "tensorShape": {"dim": [{"size": "4"}]}}}}}, {"name": "StatefulPartitionedCall/functional_16_1/transformer_block_2_1/multi_head_attention_10_1/query_1/Add/ReadVariableOp", "op": "Const", "attr": {"dtype": {"type": "DT_FLOAT"}, "value": {"tensor": {"dtype": "DT_FLOAT", "tensorShape": {"dim": [{"size": "8"}, {"size": "32"}]}}}}}, {"name": "StatefulPartitionedCall/functional_16_1/transformer_block_2_1/multi_head_attention_10_1/key_1/Reshape", "op": "Const", "attr": {"dtype": {"type": "DT_FLOAT"}, "value": {"tensor": {"dtype": "DT_FLOAT", "tensorShape": {"dim": [{"size": "256"}, {"size": "256"}]}}}}}, {"name": "StatefulPartitionedCall/functional_16_1/transformer_block_2_1/multi_head_attention_10_1/key_1/Reshape_1/shape", "op": "Const", "attr": {"dtype": {"type": "DT_INT32"}, "value": {"tensor": {"dtype": "DT_INT32", "tensorShape": {"dim": [{"size": "4"}]}}}}}, {"name": "StatefulPartitionedCall/functional_16_1/transformer_block_2_1/multi_head_attention_10_1/key_1/Add/ReadVariableOp", "op": "Const", "attr": {"dtype": {"type": "DT_FLOAT"}, "value": {"tensor": {"dtype": "DT_FLOAT", "tensorShape": {"dim": [{"size": "8"}, {"size": "32"}]}}}}}, {"name": "StatefulPartitionedCall/functional_16_1/transformer_block_2_1/multi_head_attention_10_1/Cast/x", "op": "Const", "attr": {"dtype": {"type": "DT_FLOAT"}, "value": {"tensor": {"dtype": "DT_FLOAT", "tensorShape": {}}}}}, {"name": "StatefulPartitionedCall/functional_16_1/transformer_block_2_1/layer_normalization_20_1/Reshape_1", "op": "Const", "attr": {"dtype": {"type": "DT_FLOAT"}, "value": {"tensor": {"dtype": "DT_FLOAT", "tensorShape": {"dim": [{"size": "1"}, {"size": "1"}, {"size": "256"}]}}}}}, {"name": "StatefulPartitionedCall/functional_16_1/transformer_block_1_2/sequential_9_1/dense_19_1/mul_1/x", "op": "Const", "attr": {"dtype": {"type": "DT_FLOAT"}, "value": {"tensor": {"dtype": "DT_FLOAT", "tensorShape": {}}}}}, {"name": "StatefulPartitionedCall/functional_16_1/transformer_block_1_2/sequential_9_1/dense_19_1/mul/x", "op": "Const", "attr": {"dtype": {"type": "DT_FLOAT"}, "value": {"tensor": {"dtype": "DT_FLOAT", "tensorShape": {}}}}}, {"name": "StatefulPartitionedCall/functional_16_1/transformer_block_1_2/layer_normalization_19_1/Reshape_1", "op": "Const", "attr": {"dtype": {"type": "DT_FLOAT"}, "value": {"tensor": {"dtype": "DT_FLOAT", "tensorShape": {"dim": [{"size": "1"}, {"size": "1"}, {"size": "256"}]}}}}}, {"name": "StatefulPartitionedCall/functional_16_1/transformer_block_1_2/multi_head_attention_9_1/query_1/Reshape", "op": "Const", "attr": {"dtype": {"type": "DT_FLOAT"}, "value": {"tensor": {"dtype": "DT_FLOAT", "tensorShape": {"dim": [{"size": "256"}, {"size": "256"}]}}}}}, {"name": "StatefulPartitionedCall/functional_16_1/transformer_block_1_2/multi_head_attention_9_1/query_1/Reshape_1/shape", "op": "Const", "attr": {"dtype": {"type": "DT_INT32"}, "value": {"tensor": {"dtype": "DT_INT32", "tensorShape": {"dim": [{"size": "4"}]}}}}}, {"name": "StatefulPartitionedCall/functional_16_1/transformer_block_1_2/multi_head_attention_9_1/query_1/Add/ReadVariableOp", "op": "Const", "attr": {"dtype": {"type": "DT_FLOAT"}, "value": {"tensor": {"dtype": "DT_FLOAT", "tensorShape": {"dim": [{"size": "8"}, {"size": "32"}]}}}}}, {"name": "StatefulPartitionedCall/functional_16_1/transformer_block_1_2/multi_head_attention_9_1/key_1/Reshape", "op": "Const", "attr": {"dtype": {"type": "DT_FLOAT"}, "value": {"tensor": {"dtype": "DT_FLOAT", "tensorShape": {"dim": [{"size": "256"}, {"size": "256"}]}}}}}, {"name": "StatefulPartitionedCall/functional_16_1/transformer_block_1_2/multi_head_attention_9_1/key_1/Reshape_1/shape", "op": "Const", "attr": {"dtype": {"type": "DT_INT32"}, "value": {"tensor": {"dtype": "DT_INT32", "tensorShape": {"dim": [{"size": "4"}]}}}}}, {"name": "StatefulPartitionedCall/functional_16_1/transformer_block_1_2/multi_head_attention_9_1/key_1/Add/ReadVariableOp", "op": "Const", "attr": {"dtype": {"type": "DT_FLOAT"}, "value": {"tensor": {"dtype": "DT_FLOAT", "tensorShape": {"dim": [{"size": "8"}, {"size": "32"}]}}}}}, {"name": "StatefulPartitionedCall/functional_16_1/transformer_block_1_2/multi_head_attention_9_1/Cast/x", "op": "Const", "attr": {"dtype": {"type": "DT_FLOAT"}, "value": {"tensor": {"dtype": "DT_FLOAT", "tensorShape": {}}}}}, {"name": "StatefulPartitionedCall/functional_16_1/transformer_block_1_2/layer_normalization_18_1/Reshape_1", "op": "Const", "attr": {"dtype": {"type": "DT_FLOAT"}, "value": {"tensor": {"dtype": "DT_FLOAT", "tensorShape": {"dim": [{"size": "1"}, {"size": "1"}, {"size": "256"}]}}}}}, {"name": "StatefulPartitionedCall/functional_16_1/transformer_block_1/sequential_8_1/dense_17_1/mul_1/x", "op": "Const", "attr": {"dtype": {"type": "DT_FLOAT"}, "value": {"tensor": {"dtype": "DT_FLOAT", "tensorShape": {}}}}}, {"name": "StatefulPartitionedCall/functional_16_1/transformer_block_1/sequential_8_1/dense_17_1/mul/x", "op": "Const", "attr": {"dtype": {"type": "DT_FLOAT"}, "value": {"tensor": {"dtype": "DT_FLOAT", "tensorShape": {}}}}}, {"name": "StatefulPartitionedCall/functional_16_1/transformer_block_1/layer_normalization_17_1/Reshape_1", "op": "Const", "attr": {"dtype": {"type": "DT_FLOAT"}, "value": {"tensor": {"dtype": "DT_FLOAT", "tensorShape": {"dim": [{"size": "1"}, {"size": "1"}, {"size": "256"}]}}}}}, {"name": "StatefulPartitionedCall/functional_16_1/transformer_block_1/multi_head_attention_8_1/query_1/Reshape", "op": "Const", "attr": {"dtype": {"type": "DT_FLOAT"}, "value": {"tensor": {"dtype": "DT_FLOAT", "tensorShape": {"dim": [{"size": "256"}, {"size": "256"}]}}}}}, {"name": "StatefulPartitionedCall/functional_16_1/transformer_block_1/multi_head_attention_8_1/query_1/Reshape_1/shape", "op": "Const", "attr": {"dtype": {"type": "DT_INT32"}, "value": {"tensor": {"dtype": "DT_INT32", "tensorShape": {"dim": [{"size": "4"}]}}}}}, {"name": "StatefulPartitionedCall/functional_16_1/transformer_block_1/multi_head_attention_8_1/query_1/Add/ReadVariableOp", "op": "Const", "attr": {"dtype": {"type": "DT_FLOAT"}, "value": {"tensor": {"dtype": "DT_FLOAT", "tensorShape": {"dim": [{"size": "8"}, {"size": "32"}]}}}}}, {"name": "StatefulPartitionedCall/functional_16_1/transformer_block_1/multi_head_attention_8_1/key_1/Reshape", "op": "Const", "attr": {"dtype": {"type": "DT_FLOAT"}, "value": {"tensor": {"dtype": "DT_FLOAT", "tensorShape": {"dim": [{"size": "256"}, {"size": "256"}]}}}}}, {"name": "StatefulPartitionedCall/functional_16_1/transformer_block_1/multi_head_attention_8_1/key_1/Reshape_1/shape", "op": "Const", "attr": {"dtype": {"type": "DT_INT32"}, "value": {"tensor": {"dtype": "DT_INT32", "tensorShape": {"dim": [{"size": "4"}]}}}}}, {"name": "StatefulPartitionedCall/functional_16_1/transformer_block_1/multi_head_attention_8_1/key_1/Add/ReadVariableOp", "op": "Const", "attr": {"dtype": {"type": "DT_FLOAT"}, "value": {"tensor": {"dtype": "DT_FLOAT", "tensorShape": {"dim": [{"size": "8"}, {"size": "32"}]}}}}}, {"name": "StatefulPartitionedCall/functional_16_1/transformer_block_1/multi_head_attention_8_1/Cast/x", "op": "Const", "attr": {"dtype": {"type": "DT_FLOAT"}, "value": {"tensor": {"dtype": "DT_FLOAT", "tensorShape": {}}}}}, {"name": "StatefulPartitionedCall/functional_16_1/transformer_block_1/layer_normalization_16_1/Reshape_1", "op": "Const", "attr": {"dtype": {"type": "DT_FLOAT"}, "value": {"tensor": {"dtype": "DT_FLOAT", "tensorShape": {"dim": [{"size": "1"}, {"size": "1"}, {"size": "256"}]}}}}}, {"name": "StatefulPartitionedCall/functional_16_1/reshape_1/strided_slice/stack", "op": "Const", "attr": {"dtype": {"type": "DT_INT32"}, "value": {"tensor": {"dtype": "DT_INT32", "tensorShape": {"dim": [{"size": "1"}]}}}}}, {"name": "StatefulPartitionedCall/functional_16_1/reshape_1/strided_slice/stack_1", "op": "Const", "attr": {"dtype": {"type": "DT_INT32"}, "value": {"tensor": {"dtype": "DT_INT32", "tensorShape": {"dim": [{"size": "1"}]}}}}}, {"name": "StatefulPartitionedCall/functional_16_1/reshape_1/strided_slice/stack_2", "op": "Const", "attr": {"dtype": {"type": "DT_INT32"}, "value": {"tensor": {"dtype": "DT_INT32", "tensorShape": {"dim": [{"size": "1"}]}}}}}, {"name": "StatefulPartitionedCall/functional_16_1/reshape_1/Reshape/shape/1", "op": "Const", "attr": {"dtype": {"type": "DT_INT32"}, "value": {"tensor": {"dtype": "DT_INT32", "tensorShape": {}}}}}, {"name": "StatefulPartitionedCall/functional_16_1/reshape_1/Reshape/shape/2", "op": "Const", "attr": {"dtype": {"type": "DT_INT32"}, "value": {"tensor": {"dtype": "DT_INT32", "tensorShape": {}}}}}, {"name": "StatefulPartitionedCall/functional_16_1/dense_16_1/Cast/ReadVariableOp", "op": "Const", "attr": {"dtype": {"type": "DT_FLOAT"}, "value": {"tensor": {"dtype": "DT_FLOAT", "tensorShape": {"dim": [{"size": "2"}, {"size": "256"}]}}}}}, {"name": "StatefulPartitionedCall/functional_16_1/dense_16_1/BiasAdd/ReadVariableOp", "op": "Const", "attr": {"dtype": {"type": "DT_FLOAT"}, "value": {"tensor": {"dtype": "DT_FLOAT", "tensorShape": {"dim": [{"size": "256"}]}}}}}, {"name": "StatefulPartitionedCall/functional_16_1/token_and_position_embedding_1/add", "op": "Const", "attr": {"dtype": {"type": "DT_FLOAT"}, "value": {"tensor": {"dtype": "DT_FLOAT", "tensorShape": {"dim": [{"size": "64"}, {"size": "256"}]}}}}}, {"name": "StatefulPartitionedCall/functional_16_1/transformer_block_1/layer_normalization_16_1/moments/mean/reduction_indices", "op": "Const", "attr": {"dtype": {"type": "DT_INT32"}, "value": {"tensor": {"dtype": "DT_INT32", "tensorShape": {"dim": [{"size": "1"}]}}}}}, {"name": "StatefulPartitionedCall/functional_16_1/transformer_block_1/layer_normalization_16_1/moments/variance/reduction_indices", "op": "Const", "attr": {"dtype": {"type": "DT_INT32"}, "value": {"tensor": {"dtype": "DT_INT32", "tensorShape": {"dim": [{"size": "1"}]}}}}}, {"name": "StatefulPartitionedCall/functional_16_1/transformer_block_1/layer_normalization_16_1/add/y", "op": "Const", "attr": {"dtype": {"type": "DT_FLOAT"}, "value": {"tensor": {"dtype": "DT_FLOAT", "tensorShape": {}}}}}, {"name": "StatefulPartitionedCall/functional_16_1/transformer_block_1/layer_normalization_16_1/Reshape", "op": "Const", "attr": {"dtype": {"type": "DT_FLOAT"}, "value": {"tensor": {"dtype": "DT_FLOAT", "tensorShape": {"dim": [{"size": "1"}, {"size": "1"}, {"size": "256"}]}}}}}, {"name": "StatefulPartitionedCall/functional_16_1/transformer_block_1/multi_head_attention_8_1/value_1/Reshape", "op": "Const", "attr": {"dtype": {"type": "DT_FLOAT"}, "value": {"tensor": {"dtype": "DT_FLOAT", "tensorShape": {"dim": [{"size": "256"}, {"size": "256"}]}}}}}, {"name": "StatefulPartitionedCall/functional_16_1/transformer_block_1/multi_head_attention_8_1/value_1/Reshape_1/shape", "op": "Const", "attr": {"dtype": {"type": "DT_INT32"}, "value": {"tensor": {"dtype": "DT_INT32", "tensorShape": {"dim": [{"size": "4"}]}}}}}, {"name": "StatefulPartitionedCall/functional_16_1/transformer_block_1/multi_head_attention_8_1/value_1/Add/ReadVariableOp", "op": "Const", "attr": {"dtype": {"type": "DT_FLOAT"}, "value": {"tensor": {"dtype": "DT_FLOAT", "tensorShape": {"dim": [{"size": "8"}, {"size": "32"}]}}}}}, {"name": "StatefulPartitionedCall/functional_16_1/transformer_block_1/multi_head_attention_8_1/attention_output_1/Reshape/shape", "op": "Const", "attr": {"dtype": {"type": "DT_INT32"}, "value": {"tensor": {"dtype": "DT_INT32", "tensorShape": {"dim": [{"size": "3"}]}}}}}, {"name": "StatefulPartitionedCall/functional_16_1/transformer_block_1/multi_head_attention_8_1/attention_output_1/Reshape_1", "op": "Const", "attr": {"dtype": {"type": "DT_FLOAT"}, "value": {"tensor": {"dtype": "DT_FLOAT", "tensorShape": {"dim": [{"size": "256"}, {"size": "256"}]}}}}}, {"name": "StatefulPartitionedCall/functional_16_1/transformer_block_1/multi_head_attention_8_1/attention_output_1/BiasAdd/ReadVariableOp", "op": "Const", "attr": {"dtype": {"type": "DT_FLOAT"}, "value": {"tensor": {"dtype": "DT_FLOAT", "tensorShape": {"dim": [{"size": "256"}]}}}}}, {"name": "StatefulPartitionedCall/functional_16_1/transformer_block_1/layer_normalization_17_1/moments/mean/reduction_indices", "op": "Const", "attr": {"dtype": {"type": "DT_INT32"}, "value": {"tensor": {"dtype": "DT_INT32", "tensorShape": {"dim": [{"size": "1"}]}}}}}, {"name": "StatefulPartitionedCall/functional_16_1/transformer_block_1/layer_normalization_17_1/moments/variance/reduction_indices", "op": "Const", "attr": {"dtype": {"type": "DT_INT32"}, "value": {"tensor": {"dtype": "DT_INT32", "tensorShape": {"dim": [{"size": "1"}]}}}}}, {"name": "StatefulPartitionedCall/functional_16_1/transformer_block_1/layer_normalization_17_1/add/y", "op": "Const", "attr": {"dtype": {"type": "DT_FLOAT"}, "value": {"tensor": {"dtype": "DT_FLOAT", "tensorShape": {}}}}}, {"name": "StatefulPartitionedCall/functional_16_1/transformer_block_1/layer_normalization_17_1/Reshape", "op": "Const", "attr": {"dtype": {"type": "DT_FLOAT"}, "value": {"tensor": {"dtype": "DT_FLOAT", "tensorShape": {"dim": [{"size": "1"}, {"size": "1"}, {"size": "256"}]}}}}}, {"name": "StatefulPartitionedCall/functional_16_1/transformer_block_1/sequential_8_1/dense_17_1/Cast/ReadVariableOp", "op": "Const", "attr": {"dtype": {"type": "DT_FLOAT"}, "value": {"tensor": {"dtype": "DT_FLOAT", "tensorShape": {"dim": [{"size": "256"}, {"size": "1024"}]}}}}}, {"name": "StatefulPartitionedCall/functional_16_1/transformer_block_1/sequential_8_1/dense_17_1/BiasAdd/ReadVariableOp", "op": "Const", "attr": {"dtype": {"type": "DT_FLOAT"}, "value": {"tensor": {"dtype": "DT_FLOAT", "tensorShape": {"dim": [{"size": "1024"}]}}}}}, {"name": "StatefulPartitionedCall/functional_16_1/transformer_block_1/sequential_8_1/dense_17_1/Pow/y", "op": "Const", "attr": {"dtype": {"type": "DT_FLOAT"}, "value": {"tensor": {"dtype": "DT_FLOAT", "tensorShape": {}}}}}, {"name": "StatefulPartitionedCall/functional_16_1/transformer_block_1/sequential_8_1/dense_18_1/Cast/ReadVariableOp", "op": "Const", "attr": {"dtype": {"type": "DT_FLOAT"}, "value": {"tensor": {"dtype": "DT_FLOAT", "tensorShape": {"dim": [{"size": "1024"}, {"size": "256"}]}}}}}, {"name": "StatefulPartitionedCall/functional_16_1/transformer_block_1/sequential_8_1/dense_18_1/BiasAdd/ReadVariableOp", "op": "Const", "attr": {"dtype": {"type": "DT_FLOAT"}, "value": {"tensor": {"dtype": "DT_FLOAT", "tensorShape": {"dim": [{"size": "256"}]}}}}}, {"name": "StatefulPartitionedCall/functional_16_1/transformer_block_1_2/layer_normalization_18_1/moments/mean/reduction_indices", "op": "Const", "attr": {"dtype": {"type": "DT_INT32"}, "value": {"tensor": {"dtype": "DT_INT32", "tensorShape": {"dim": [{"size": "1"}]}}}}}, {"name": "StatefulPartitionedCall/functional_16_1/transformer_block_1_2/layer_normalization_18_1/moments/variance/reduction_indices", "op": "Const", "attr": {"dtype": {"type": "DT_INT32"}, "value": {"tensor": {"dtype": "DT_INT32", "tensorShape": {"dim": [{"size": "1"}]}}}}}, {"name": "StatefulPartitionedCall/functional_16_1/transformer_block_1_2/layer_normalization_18_1/add/y", "op": "Const", "attr": {"dtype": {"type": "DT_FLOAT"}, "value": {"tensor": {"dtype": "DT_FLOAT", "tensorShape": {}}}}}, {"name": "StatefulPartitionedCall/functional_16_1/transformer_block_1_2/layer_normalization_18_1/Reshape", "op": "Const", "attr": {"dtype": {"type": "DT_FLOAT"}, "value": {"tensor": {"dtype": "DT_FLOAT", "tensorShape": {"dim": [{"size": "1"}, {"size": "1"}, {"size": "256"}]}}}}}, {"name": "StatefulPartitionedCall/functional_16_1/transformer_block_1_2/multi_head_attention_9_1/value_1/Reshape", "op": "Const", "attr": {"dtype": {"type": "DT_FLOAT"}, "value": {"tensor": {"dtype": "DT_FLOAT", "tensorShape": {"dim": [{"size": "256"}, {"size": "256"}]}}}}}, {"name": "StatefulPartitionedCall/functional_16_1/transformer_block_1_2/multi_head_attention_9_1/value_1/Reshape_1/shape", "op": "Const", "attr": {"dtype": {"type": "DT_INT32"}, "value": {"tensor": {"dtype": "DT_INT32", "tensorShape": {"dim": [{"size": "4"}]}}}}}, {"name": "StatefulPartitionedCall/functional_16_1/transformer_block_1_2/multi_head_attention_9_1/value_1/Add/ReadVariableOp", "op": "Const", "attr": {"dtype": {"type": "DT_FLOAT"}, "value": {"tensor": {"dtype": "DT_FLOAT", "tensorShape": {"dim": [{"size": "8"}, {"size": "32"}]}}}}}, {"name": "StatefulPartitionedCall/functional_16_1/transformer_block_1_2/multi_head_attention_9_1/attention_output_1/Reshape/shape", "op": "Const", "attr": {"dtype": {"type": "DT_INT32"}, "value": {"tensor": {"dtype": "DT_INT32", "tensorShape": {"dim": [{"size": "3"}]}}}}}, {"name": "StatefulPartitionedCall/functional_16_1/transformer_block_1_2/multi_head_attention_9_1/attention_output_1/Reshape_1", "op": "Const", "attr": {"dtype": {"type": "DT_FLOAT"}, "value": {"tensor": {"dtype": "DT_FLOAT", "tensorShape": {"dim": [{"size": "256"}, {"size": "256"}]}}}}}, {"name": "StatefulPartitionedCall/functional_16_1/transformer_block_1_2/multi_head_attention_9_1/attention_output_1/BiasAdd/ReadVariableOp", "op": "Const", "attr": {"dtype": {"type": "DT_FLOAT"}, "value": {"tensor": {"dtype": "DT_FLOAT", "tensorShape": {"dim": [{"size": "256"}]}}}}}, {"name": "StatefulPartitionedCall/functional_16_1/transformer_block_1_2/layer_normalization_19_1/moments/mean/reduction_indices", "op": "Const", "attr": {"dtype": {"type": "DT_INT32"}, "value": {"tensor": {"dtype": "DT_INT32", "tensorShape": {"dim": [{"size": "1"}]}}}}}, {"name": "StatefulPartitionedCall/functional_16_1/transformer_block_1_2/layer_normalization_19_1/moments/variance/reduction_indices", "op": "Const", "attr": {"dtype": {"type": "DT_INT32"}, "value": {"tensor": {"dtype": "DT_INT32", "tensorShape": {"dim": [{"size": "1"}]}}}}}, {"name": "StatefulPartitionedCall/functional_16_1/transformer_block_1_2/layer_normalization_19_1/add/y", "op": "Const", "attr": {"dtype": {"type": "DT_FLOAT"}, "value": {"tensor": {"dtype": "DT_FLOAT", "tensorShape": {}}}}}, {"name": "StatefulPartitionedCall/functional_16_1/transformer_block_1_2/layer_normalization_19_1/Reshape", "op": "Const", "attr": {"dtype": {"type": "DT_FLOAT"}, "value": {"tensor": {"dtype": "DT_FLOAT", "tensorShape": {"dim": [{"size": "1"}, {"size": "1"}, {"size": "256"}]}}}}}, {"name": "StatefulPartitionedCall/functional_16_1/transformer_block_1_2/sequential_9_1/dense_19_1/Cast/ReadVariableOp", "op": "Const", "attr": {"dtype": {"type": "DT_FLOAT"}, "value": {"tensor": {"dtype": "DT_FLOAT", "tensorShape": {"dim": [{"size": "256"}, {"size": "1024"}]}}}}}, {"name": "StatefulPartitionedCall/functional_16_1/transformer_block_1_2/sequential_9_1/dense_19_1/BiasAdd/ReadVariableOp", "op": "Const", "attr": {"dtype": {"type": "DT_FLOAT"}, "value": {"tensor": {"dtype": "DT_FLOAT", "tensorShape": {"dim": [{"size": "1024"}]}}}}}, {"name": "StatefulPartitionedCall/functional_16_1/transformer_block_1_2/sequential_9_1/dense_19_1/Pow/y", "op": "Const", "attr": {"dtype": {"type": "DT_FLOAT"}, "value": {"tensor": {"dtype": "DT_FLOAT", "tensorShape": {}}}}}, {"name": "StatefulPartitionedCall/functional_16_1/transformer_block_1_2/sequential_9_1/dense_20_1/Cast/ReadVariableOp", "op": "Const", "attr": {"dtype": {"type": "DT_FLOAT"}, "value": {"tensor": {"dtype": "DT_FLOAT", "tensorShape": {"dim": [{"size": "1024"}, {"size": "256"}]}}}}}, {"name": "StatefulPartitionedCall/functional_16_1/transformer_block_1_2/sequential_9_1/dense_20_1/BiasAdd/ReadVariableOp", "op": "Const", "attr": {"dtype": {"type": "DT_FLOAT"}, "value": {"tensor": {"dtype": "DT_FLOAT", "tensorShape": {"dim": [{"size": "256"}]}}}}}, {"name": "StatefulPartitionedCall/functional_16_1/transformer_block_2_1/layer_normalization_20_1/moments/mean/reduction_indices", "op": "Const", "attr": {"dtype": {"type": "DT_INT32"}, "value": {"tensor": {"dtype": "DT_INT32", "tensorShape": {"dim": [{"size": "1"}]}}}}}, {"name": "StatefulPartitionedCall/functional_16_1/transformer_block_2_1/layer_normalization_20_1/moments/variance/reduction_indices", "op": "Const", "attr": {"dtype": {"type": "DT_INT32"}, "value": {"tensor": {"dtype": "DT_INT32", "tensorShape": {"dim": [{"size": "1"}]}}}}}, {"name": "StatefulPartitionedCall/functional_16_1/transformer_block_2_1/layer_normalization_20_1/add/y", "op": "Const", "attr": {"dtype": {"type": "DT_FLOAT"}, "value": {"tensor": {"dtype": "DT_FLOAT", "tensorShape": {}}}}}, {"name": "StatefulPartitionedCall/functional_16_1/transformer_block_2_1/layer_normalization_20_1/Reshape", "op": "Const", "attr": {"dtype": {"type": "DT_FLOAT"}, "value": {"tensor": {"dtype": "DT_FLOAT", "tensorShape": {"dim": [{"size": "1"}, {"size": "1"}, {"size": "256"}]}}}}}, {"name": "StatefulPartitionedCall/functional_16_1/transformer_block_2_1/multi_head_attention_10_1/value_1/Reshape", "op": "Const", "attr": {"dtype": {"type": "DT_FLOAT"}, "value": {"tensor": {"dtype": "DT_FLOAT", "tensorShape": {"dim": [{"size": "256"}, {"size": "256"}]}}}}}, {"name": "StatefulPartitionedCall/functional_16_1/transformer_block_2_1/multi_head_attention_10_1/value_1/Reshape_1/shape", "op": "Const", "attr": {"dtype": {"type": "DT_INT32"}, "value": {"tensor": {"dtype": "DT_INT32", "tensorShape": {"dim": [{"size": "4"}]}}}}}, {"name": "StatefulPartitionedCall/functional_16_1/transformer_block_2_1/multi_head_attention_10_1/value_1/Add/ReadVariableOp", "op": "Const", "attr": {"dtype": {"type": "DT_FLOAT"}, "value": {"tensor": {"dtype": "DT_FLOAT", "tensorShape": {"dim": [{"size": "8"}, {"size": "32"}]}}}}}, {"name": "StatefulPartitionedCall/functional_16_1/transformer_block_2_1/multi_head_attention_10_1/attention_output_1/Reshape/shape", "op": "Const", "attr": {"dtype": {"type": "DT_INT32"}, "value": {"tensor": {"dtype": "DT_INT32", "tensorShape": {"dim": [{"size": "3"}]}}}}}, {"name": "StatefulPartitionedCall/functional_16_1/transformer_block_2_1/multi_head_attention_10_1/attention_output_1/Reshape_1", "op": "Const", "attr": {"dtype": {"type": "DT_FLOAT"}, "value": {"tensor": {"dtype": "DT_FLOAT", "tensorShape": {"dim": [{"size": "256"}, {"size": "256"}]}}}}}, {"name": "StatefulPartitionedCall/functional_16_1/transformer_block_2_1/multi_head_attention_10_1/attention_output_1/BiasAdd/ReadVariableOp", "op": "Const", "attr": {"dtype": {"type": "DT_FLOAT"}, "value": {"tensor": {"dtype": "DT_FLOAT", "tensorShape": {"dim": [{"size": "256"}]}}}}}, {"name": "StatefulPartitionedCall/functional_16_1/transformer_block_2_1/layer_normalization_21_1/moments/mean/reduction_indices", "op": "Const", "attr": {"dtype": {"type": "DT_INT32"}, "value": {"tensor": {"dtype": "DT_INT32", "tensorShape": {"dim": [{"size": "1"}]}}}}}, {"name": "StatefulPartitionedCall/functional_16_1/transformer_block_2_1/layer_normalization_21_1/moments/variance/reduction_indices", "op": "Const", "attr": {"dtype": {"type": "DT_INT32"}, "value": {"tensor": {"dtype": "DT_INT32", "tensorShape": {"dim": [{"size": "1"}]}}}}}, {"name": "StatefulPartitionedCall/functional_16_1/transformer_block_2_1/layer_normalization_21_1/add/y", "op": "Const", "attr": {"dtype": {"type": "DT_FLOAT"}, "value": {"tensor": {"dtype": "DT_FLOAT", "tensorShape": {}}}}}, {"name": "StatefulPartitionedCall/functional_16_1/transformer_block_2_1/layer_normalization_21_1/Reshape", "op": "Const", "attr": {"dtype": {"type": "DT_FLOAT"}, "value": {"tensor": {"dtype": "DT_FLOAT", "tensorShape": {"dim": [{"size": "1"}, {"size": "1"}, {"size": "256"}]}}}}}, {"name": "StatefulPartitionedCall/functional_16_1/transformer_block_2_1/sequential_10_1/dense_21_1/Cast/ReadVariableOp", "op": "Const", "attr": {"dtype": {"type": "DT_FLOAT"}, "value": {"tensor": {"dtype": "DT_FLOAT", "tensorShape": {"dim": [{"size": "256"}, {"size": "1024"}]}}}}}, {"name": "StatefulPartitionedCall/functional_16_1/transformer_block_2_1/sequential_10_1/dense_21_1/BiasAdd/ReadVariableOp", "op": "Const", "attr": {"dtype": {"type": "DT_FLOAT"}, "value": {"tensor": {"dtype": "DT_FLOAT", "tensorShape": {"dim": [{"size": "1024"}]}}}}}, {"name": "StatefulPartitionedCall/functional_16_1/transformer_block_2_1/sequential_10_1/dense_21_1/Pow/y", "op": "Const", "attr": {"dtype": {"type": "DT_FLOAT"}, "value": {"tensor": {"dtype": "DT_FLOAT", "tensorShape": {}}}}}, {"name": "StatefulPartitionedCall/functional_16_1/transformer_block_2_1/sequential_10_1/dense_22_1/Cast/ReadVariableOp", "op": "Const", "attr": {"dtype": {"type": "DT_FLOAT"}, "value": {"tensor": {"dtype": "DT_FLOAT", "tensorShape": {"dim": [{"size": "1024"}, {"size": "256"}]}}}}}, {"name": "StatefulPartitionedCall/functional_16_1/transformer_block_2_1/sequential_10_1/dense_22_1/BiasAdd/ReadVariableOp", "op": "Const", "attr": {"dtype": {"type": "DT_FLOAT"}, "value": {"tensor": {"dtype": "DT_FLOAT", "tensorShape": {"dim": [{"size": "256"}]}}}}}, {"name": "StatefulPartitionedCall/functional_16_1/transformer_block_3_1/layer_normalization_22_1/moments/mean/reduction_indices", "op": "Const", "attr": {"dtype": {"type": "DT_INT32"}, "value": {"tensor": {"dtype": "DT_INT32", "tensorShape": {"dim": [{"size": "1"}]}}}}}, {"name": "StatefulPartitionedCall/functional_16_1/transformer_block_3_1/layer_normalization_22_1/moments/variance/reduction_indices", "op": "Const", "attr": {"dtype": {"type": "DT_INT32"}, "value": {"tensor": {"dtype": "DT_INT32", "tensorShape": {"dim": [{"size": "1"}]}}}}}, {"name": "StatefulPartitionedCall/functional_16_1/transformer_block_3_1/layer_normalization_22_1/add/y", "op": "Const", "attr": {"dtype": {"type": "DT_FLOAT"}, "value": {"tensor": {"dtype": "DT_FLOAT", "tensorShape": {}}}}}, {"name": "StatefulPartitionedCall/functional_16_1/transformer_block_3_1/layer_normalization_22_1/Reshape", "op": "Const", "attr": {"dtype": {"type": "DT_FLOAT"}, "value": {"tensor": {"dtype": "DT_FLOAT", "tensorShape": {"dim": [{"size": "1"}, {"size": "1"}, {"size": "256"}]}}}}}, {"name": "StatefulPartitionedCall/functional_16_1/transformer_block_3_1/multi_head_attention_11_1/value_1/Reshape", "op": "Const", "attr": {"dtype": {"type": "DT_FLOAT"}, "value": {"tensor": {"dtype": "DT_FLOAT", "tensorShape": {"dim": [{"size": "256"}, {"size": "256"}]}}}}}, {"name": "StatefulPartitionedCall/functional_16_1/transformer_block_3_1/multi_head_attention_11_1/value_1/Reshape_1/shape", "op": "Const", "attr": {"dtype": {"type": "DT_INT32"}, "value": {"tensor": {"dtype": "DT_INT32", "tensorShape": {"dim": [{"size": "4"}]}}}}}, {"name": "StatefulPartitionedCall/functional_16_1/transformer_block_3_1/multi_head_attention_11_1/value_1/Add/ReadVariableOp", "op": "Const", "attr": {"dtype": {"type": "DT_FLOAT"}, "value": {"tensor": {"dtype": "DT_FLOAT", "tensorShape": {"dim": [{"size": "8"}, {"size": "32"}]}}}}}, {"name": "StatefulPartitionedCall/functional_16_1/transformer_block_3_1/multi_head_attention_11_1/attention_output_1/Reshape/shape", "op": "Const", "attr": {"dtype": {"type": "DT_INT32"}, "value": {"tensor": {"dtype": "DT_INT32", "tensorShape": {"dim": [{"size": "3"}]}}}}}, {"name": "StatefulPartitionedCall/functional_16_1/transformer_block_3_1/multi_head_attention_11_1/attention_output_1/Reshape_1", "op": "Const", "attr": {"dtype": {"type": "DT_FLOAT"}, "value": {"tensor": {"dtype": "DT_FLOAT", "tensorShape": {"dim": [{"size": "256"}, {"size": "256"}]}}}}}, {"name": "StatefulPartitionedCall/functional_16_1/transformer_block_3_1/multi_head_attention_11_1/attention_output_1/BiasAdd/ReadVariableOp", "op": "Const", "attr": {"dtype": {"type": "DT_FLOAT"}, "value": {"tensor": {"dtype": "DT_FLOAT", "tensorShape": {"dim": [{"size": "256"}]}}}}}, {"name": "StatefulPartitionedCall/functional_16_1/transformer_block_3_1/layer_normalization_23_1/moments/mean/reduction_indices", "op": "Const", "attr": {"dtype": {"type": "DT_INT32"}, "value": {"tensor": {"dtype": "DT_INT32", "tensorShape": {"dim": [{"size": "1"}]}}}}}, {"name": "StatefulPartitionedCall/functional_16_1/transformer_block_3_1/layer_normalization_23_1/moments/variance/reduction_indices", "op": "Const", "attr": {"dtype": {"type": "DT_INT32"}, "value": {"tensor": {"dtype": "DT_INT32", "tensorShape": {"dim": [{"size": "1"}]}}}}}, {"name": "StatefulPartitionedCall/functional_16_1/transformer_block_3_1/layer_normalization_23_1/add/y", "op": "Const", "attr": {"dtype": {"type": "DT_FLOAT"}, "value": {"tensor": {"dtype": "DT_FLOAT", "tensorShape": {}}}}}, {"name": "StatefulPartitionedCall/functional_16_1/transformer_block_3_1/layer_normalization_23_1/Reshape", "op": "Const", "attr": {"dtype": {"type": "DT_FLOAT"}, "value": {"tensor": {"dtype": "DT_FLOAT", "tensorShape": {"dim": [{"size": "1"}, {"size": "1"}, {"size": "256"}]}}}}}, {"name": "StatefulPartitionedCall/functional_16_1/transformer_block_3_1/sequential_11_1/dense_23_1/Cast/ReadVariableOp", "op": "Const", "attr": {"dtype": {"type": "DT_FLOAT"}, "value": {"tensor": {"dtype": "DT_FLOAT", "tensorShape": {"dim": [{"size": "256"}, {"size": "1024"}]}}}}}, {"name": "StatefulPartitionedCall/functional_16_1/transformer_block_3_1/sequential_11_1/dense_23_1/BiasAdd/ReadVariableOp", "op": "Const", "attr": {"dtype": {"type": "DT_FLOAT"}, "value": {"tensor": {"dtype": "DT_FLOAT", "tensorShape": {"dim": [{"size": "1024"}]}}}}}, {"name": "StatefulPartitionedCall/functional_16_1/transformer_block_3_1/sequential_11_1/dense_23_1/Pow/y", "op": "Const", "attr": {"dtype": {"type": "DT_FLOAT"}, "value": {"tensor": {"dtype": "DT_FLOAT", "tensorShape": {}}}}}, {"name": "StatefulPartitionedCall/functional_16_1/transformer_block_3_1/sequential_11_1/dense_24_1/Cast/ReadVariableOp", "op": "Const", "attr": {"dtype": {"type": "DT_FLOAT"}, "value": {"tensor": {"dtype": "DT_FLOAT", "tensorShape": {"dim": [{"size": "1024"}, {"size": "256"}]}}}}}, {"name": "StatefulPartitionedCall/functional_16_1/transformer_block_3_1/sequential_11_1/dense_24_1/BiasAdd/ReadVariableOp", "op": "Const", "attr": {"dtype": {"type": "DT_FLOAT"}, "value": {"tensor": {"dtype": "DT_FLOAT", "tensorShape": {"dim": [{"size": "256"}]}}}}}, {"name": "StatefulPartitionedCall/functional_16_1/transformer_block_4_1/layer_normalization_24_1/moments/mean/reduction_indices", "op": "Const", "attr": {"dtype": {"type": "DT_INT32"}, "value": {"tensor": {"dtype": "DT_INT32", "tensorShape": {"dim": [{"size": "1"}]}}}}}, {"name": "StatefulPartitionedCall/functional_16_1/transformer_block_4_1/layer_normalization_24_1/moments/variance/reduction_indices", "op": "Const", "attr": {"dtype": {"type": "DT_INT32"}, "value": {"tensor": {"dtype": "DT_INT32", "tensorShape": {"dim": [{"size": "1"}]}}}}}, {"name": "StatefulPartitionedCall/functional_16_1/transformer_block_4_1/layer_normalization_24_1/add/y", "op": "Const", "attr": {"dtype": {"type": "DT_FLOAT"}, "value": {"tensor": {"dtype": "DT_FLOAT", "tensorShape": {}}}}}, {"name": "StatefulPartitionedCall/functional_16_1/transformer_block_4_1/layer_normalization_24_1/Reshape", "op": "Const", "attr": {"dtype": {"type": "DT_FLOAT"}, "value": {"tensor": {"dtype": "DT_FLOAT", "tensorShape": {"dim": [{"size": "1"}, {"size": "1"}, {"size": "256"}]}}}}}, {"name": "StatefulPartitionedCall/functional_16_1/transformer_block_4_1/multi_head_attention_12_1/value_1/Reshape", "op": "Const", "attr": {"dtype": {"type": "DT_FLOAT"}, "value": {"tensor": {"dtype": "DT_FLOAT", "tensorShape": {"dim": [{"size": "256"}, {"size": "256"}]}}}}}, {"name": "StatefulPartitionedCall/functional_16_1/transformer_block_4_1/multi_head_attention_12_1/value_1/Reshape_1/shape", "op": "Const", "attr": {"dtype": {"type": "DT_INT32"}, "value": {"tensor": {"dtype": "DT_INT32", "tensorShape": {"dim": [{"size": "4"}]}}}}}, {"name": "StatefulPartitionedCall/functional_16_1/transformer_block_4_1/multi_head_attention_12_1/value_1/Add/ReadVariableOp", "op": "Const", "attr": {"dtype": {"type": "DT_FLOAT"}, "value": {"tensor": {"dtype": "DT_FLOAT", "tensorShape": {"dim": [{"size": "8"}, {"size": "32"}]}}}}}, {"name": "StatefulPartitionedCall/functional_16_1/transformer_block_4_1/multi_head_attention_12_1/attention_output_1/Reshape/shape", "op": "Const", "attr": {"dtype": {"type": "DT_INT32"}, "value": {"tensor": {"dtype": "DT_INT32", "tensorShape": {"dim": [{"size": "3"}]}}}}}, {"name": "StatefulPartitionedCall/functional_16_1/transformer_block_4_1/multi_head_attention_12_1/attention_output_1/Reshape_1", "op": "Const", "attr": {"dtype": {"type": "DT_FLOAT"}, "value": {"tensor": {"dtype": "DT_FLOAT", "tensorShape": {"dim": [{"size": "256"}, {"size": "256"}]}}}}}, {"name": "StatefulPartitionedCall/functional_16_1/transformer_block_4_1/multi_head_attention_12_1/attention_output_1/BiasAdd/ReadVariableOp", "op": "Const", "attr": {"dtype": {"type": "DT_FLOAT"}, "value": {"tensor": {"dtype": "DT_FLOAT", "tensorShape": {"dim": [{"size": "256"}]}}}}}, {"name": "StatefulPartitionedCall/functional_16_1/transformer_block_4_1/layer_normalization_25_1/moments/mean/reduction_indices", "op": "Const", "attr": {"dtype": {"type": "DT_INT32"}, "value": {"tensor": {"dtype": "DT_INT32", "tensorShape": {"dim": [{"size": "1"}]}}}}}, {"name": "StatefulPartitionedCall/functional_16_1/transformer_block_4_1/layer_normalization_25_1/moments/variance/reduction_indices", "op": "Const", "attr": {"dtype": {"type": "DT_INT32"}, "value": {"tensor": {"dtype": "DT_INT32", "tensorShape": {"dim": [{"size": "1"}]}}}}}, {"name": "StatefulPartitionedCall/functional_16_1/transformer_block_4_1/layer_normalization_25_1/add/y", "op": "Const", "attr": {"dtype": {"type": "DT_FLOAT"}, "value": {"tensor": {"dtype": "DT_FLOAT", "tensorShape": {}}}}}, {"name": "StatefulPartitionedCall/functional_16_1/transformer_block_4_1/layer_normalization_25_1/Reshape", "op": "Const", "attr": {"dtype": {"type": "DT_FLOAT"}, "value": {"tensor": {"dtype": "DT_FLOAT", "tensorShape": {"dim": [{"size": "1"}, {"size": "1"}, {"size": "256"}]}}}}}, {"name": "StatefulPartitionedCall/functional_16_1/transformer_block_4_1/sequential_12_1/dense_25_1/Cast/ReadVariableOp", "op": "Const", "attr": {"dtype": {"type": "DT_FLOAT"}, "value": {"tensor": {"dtype": "DT_FLOAT", "tensorShape": {"dim": [{"size": "256"}, {"size": "1024"}]}}}}}, {"name": "StatefulPartitionedCall/functional_16_1/transformer_block_4_1/sequential_12_1/dense_25_1/BiasAdd/ReadVariableOp", "op": "Const", "attr": {"dtype": {"type": "DT_FLOAT"}, "value": {"tensor": {"dtype": "DT_FLOAT", "tensorShape": {"dim": [{"size": "1024"}]}}}}}, {"name": "StatefulPartitionedCall/functional_16_1/transformer_block_4_1/sequential_12_1/dense_25_1/Pow/y", "op": "Const", "attr": {"dtype": {"type": "DT_FLOAT"}, "value": {"tensor": {"dtype": "DT_FLOAT", "tensorShape": {}}}}}, {"name": "StatefulPartitionedCall/functional_16_1/transformer_block_4_1/sequential_12_1/dense_26_1/Cast/ReadVariableOp", "op": "Const", "attr": {"dtype": {"type": "DT_FLOAT"}, "value": {"tensor": {"dtype": "DT_FLOAT", "tensorShape": {"dim": [{"size": "1024"}, {"size": "256"}]}}}}}, {"name": "StatefulPartitionedCall/functional_16_1/transformer_block_4_1/sequential_12_1/dense_26_1/BiasAdd/ReadVariableOp", "op": "Const", "attr": {"dtype": {"type": "DT_FLOAT"}, "value": {"tensor": {"dtype": "DT_FLOAT", "tensorShape": {"dim": [{"size": "256"}]}}}}}, {"name": "StatefulPartitionedCall/functional_16_1/transformer_block_5_1/layer_normalization_26_1/moments/mean/reduction_indices", "op": "Const", "attr": {"dtype": {"type": "DT_INT32"}, "value": {"tensor": {"dtype": "DT_INT32", "tensorShape": {"dim": [{"size": "1"}]}}}}}, {"name": "StatefulPartitionedCall/functional_16_1/transformer_block_5_1/layer_normalization_26_1/moments/variance/reduction_indices", "op": "Const", "attr": {"dtype": {"type": "DT_INT32"}, "value": {"tensor": {"dtype": "DT_INT32", "tensorShape": {"dim": [{"size": "1"}]}}}}}, {"name": "StatefulPartitionedCall/functional_16_1/transformer_block_5_1/layer_normalization_26_1/add/y", "op": "Const", "attr": {"dtype": {"type": "DT_FLOAT"}, "value": {"tensor": {"dtype": "DT_FLOAT", "tensorShape": {}}}}}, {"name": "StatefulPartitionedCall/functional_16_1/transformer_block_5_1/layer_normalization_26_1/Reshape", "op": "Const", "attr": {"dtype": {"type": "DT_FLOAT"}, "value": {"tensor": {"dtype": "DT_FLOAT", "tensorShape": {"dim": [{"size": "1"}, {"size": "1"}, {"size": "256"}]}}}}}, {"name": "StatefulPartitionedCall/functional_16_1/transformer_block_5_1/multi_head_attention_13_1/value_1/Reshape", "op": "Const", "attr": {"dtype": {"type": "DT_FLOAT"}, "value": {"tensor": {"dtype": "DT_FLOAT", "tensorShape": {"dim": [{"size": "256"}, {"size": "256"}]}}}}}, {"name": "StatefulPartitionedCall/functional_16_1/transformer_block_5_1/multi_head_attention_13_1/value_1/Reshape_1/shape", "op": "Const", "attr": {"dtype": {"type": "DT_INT32"}, "value": {"tensor": {"dtype": "DT_INT32", "tensorShape": {"dim": [{"size": "4"}]}}}}}, {"name": "StatefulPartitionedCall/functional_16_1/transformer_block_5_1/multi_head_attention_13_1/value_1/Add/ReadVariableOp", "op": "Const", "attr": {"dtype": {"type": "DT_FLOAT"}, "value": {"tensor": {"dtype": "DT_FLOAT", "tensorShape": {"dim": [{"size": "8"}, {"size": "32"}]}}}}}, {"name": "StatefulPartitionedCall/functional_16_1/transformer_block_5_1/multi_head_attention_13_1/attention_output_1/Reshape/shape", "op": "Const", "attr": {"dtype": {"type": "DT_INT32"}, "value": {"tensor": {"dtype": "DT_INT32", "tensorShape": {"dim": [{"size": "3"}]}}}}}, {"name": "StatefulPartitionedCall/functional_16_1/transformer_block_5_1/multi_head_attention_13_1/attention_output_1/Reshape_1", "op": "Const", "attr": {"dtype": {"type": "DT_FLOAT"}, "value": {"tensor": {"dtype": "DT_FLOAT", "tensorShape": {"dim": [{"size": "256"}, {"size": "256"}]}}}}}, {"name": "StatefulPartitionedCall/functional_16_1/transformer_block_5_1/multi_head_attention_13_1/attention_output_1/BiasAdd/ReadVariableOp", "op": "Const", "attr": {"dtype": {"type": "DT_FLOAT"}, "value": {"tensor": {"dtype": "DT_FLOAT", "tensorShape": {"dim": [{"size": "256"}]}}}}}, {"name": "StatefulPartitionedCall/functional_16_1/transformer_block_5_1/layer_normalization_27_1/moments/mean/reduction_indices", "op": "Const", "attr": {"dtype": {"type": "DT_INT32"}, "value": {"tensor": {"dtype": "DT_INT32", "tensorShape": {"dim": [{"size": "1"}]}}}}}, {"name": "StatefulPartitionedCall/functional_16_1/transformer_block_5_1/layer_normalization_27_1/moments/variance/reduction_indices", "op": "Const", "attr": {"dtype": {"type": "DT_INT32"}, "value": {"tensor": {"dtype": "DT_INT32", "tensorShape": {"dim": [{"size": "1"}]}}}}}, {"name": "StatefulPartitionedCall/functional_16_1/transformer_block_5_1/layer_normalization_27_1/add/y", "op": "Const", "attr": {"dtype": {"type": "DT_FLOAT"}, "value": {"tensor": {"dtype": "DT_FLOAT", "tensorShape": {}}}}}, {"name": "StatefulPartitionedCall/functional_16_1/transformer_block_5_1/layer_normalization_27_1/Reshape", "op": "Const", "attr": {"dtype": {"type": "DT_FLOAT"}, "value": {"tensor": {"dtype": "DT_FLOAT", "tensorShape": {"dim": [{"size": "1"}, {"size": "1"}, {"size": "256"}]}}}}}, {"name": "StatefulPartitionedCall/functional_16_1/transformer_block_5_1/sequential_13_1/dense_27_1/Cast/ReadVariableOp", "op": "Const", "attr": {"dtype": {"type": "DT_FLOAT"}, "value": {"tensor": {"dtype": "DT_FLOAT", "tensorShape": {"dim": [{"size": "256"}, {"size": "1024"}]}}}}}, {"name": "StatefulPartitionedCall/functional_16_1/transformer_block_5_1/sequential_13_1/dense_27_1/BiasAdd/ReadVariableOp", "op": "Const", "attr": {"dtype": {"type": "DT_FLOAT"}, "value": {"tensor": {"dtype": "DT_FLOAT", "tensorShape": {"dim": [{"size": "1024"}]}}}}}, {"name": "StatefulPartitionedCall/functional_16_1/transformer_block_5_1/sequential_13_1/dense_27_1/Pow/y", "op": "Const", "attr": {"dtype": {"type": "DT_FLOAT"}, "value": {"tensor": {"dtype": "DT_FLOAT", "tensorShape": {}}}}}, {"name": "StatefulPartitionedCall/functional_16_1/transformer_block_5_1/sequential_13_1/dense_28_1/Cast/ReadVariableOp", "op": "Const", "attr": {"dtype": {"type": "DT_FLOAT"}, "value": {"tensor": {"dtype": "DT_FLOAT", "tensorShape": {"dim": [{"size": "1024"}, {"size": "256"}]}}}}}, {"name": "StatefulPartitionedCall/functional_16_1/transformer_block_5_1/sequential_13_1/dense_28_1/BiasAdd/ReadVariableOp", "op": "Const", "attr": {"dtype": {"type": "DT_FLOAT"}, "value": {"tensor": {"dtype": "DT_FLOAT", "tensorShape": {"dim": [{"size": "256"}]}}}}}, {"name": "StatefulPartitionedCall/functional_16_1/transformer_block_6_1/layer_normalization_28_1/moments/mean/reduction_indices", "op": "Const", "attr": {"dtype": {"type": "DT_INT32"}, "value": {"tensor": {"dtype": "DT_INT32", "tensorShape": {"dim": [{"size": "1"}]}}}}}, {"name": "StatefulPartitionedCall/functional_16_1/transformer_block_6_1/layer_normalization_28_1/moments/variance/reduction_indices", "op": "Const", "attr": {"dtype": {"type": "DT_INT32"}, "value": {"tensor": {"dtype": "DT_INT32", "tensorShape": {"dim": [{"size": "1"}]}}}}}, {"name": "StatefulPartitionedCall/functional_16_1/transformer_block_6_1/layer_normalization_28_1/add/y", "op": "Const", "attr": {"dtype": {"type": "DT_FLOAT"}, "value": {"tensor": {"dtype": "DT_FLOAT", "tensorShape": {}}}}}, {"name": "StatefulPartitionedCall/functional_16_1/transformer_block_6_1/layer_normalization_28_1/Reshape", "op": "Const", "attr": {"dtype": {"type": "DT_FLOAT"}, "value": {"tensor": {"dtype": "DT_FLOAT", "tensorShape": {"dim": [{"size": "1"}, {"size": "1"}, {"size": "256"}]}}}}}, {"name": "StatefulPartitionedCall/functional_16_1/transformer_block_6_1/multi_head_attention_14_1/value_1/Reshape", "op": "Const", "attr": {"dtype": {"type": "DT_FLOAT"}, "value": {"tensor": {"dtype": "DT_FLOAT", "tensorShape": {"dim": [{"size": "256"}, {"size": "256"}]}}}}}, {"name": "StatefulPartitionedCall/functional_16_1/transformer_block_6_1/multi_head_attention_14_1/value_1/Reshape_1/shape", "op": "Const", "attr": {"dtype": {"type": "DT_INT32"}, "value": {"tensor": {"dtype": "DT_INT32", "tensorShape": {"dim": [{"size": "4"}]}}}}}, {"name": "StatefulPartitionedCall/functional_16_1/transformer_block_6_1/multi_head_attention_14_1/value_1/Add/ReadVariableOp", "op": "Const", "attr": {"dtype": {"type": "DT_FLOAT"}, "value": {"tensor": {"dtype": "DT_FLOAT", "tensorShape": {"dim": [{"size": "8"}, {"size": "32"}]}}}}}, {"name": "StatefulPartitionedCall/functional_16_1/transformer_block_6_1/multi_head_attention_14_1/attention_output_1/Reshape/shape", "op": "Const", "attr": {"dtype": {"type": "DT_INT32"}, "value": {"tensor": {"dtype": "DT_INT32", "tensorShape": {"dim": [{"size": "3"}]}}}}}, {"name": "StatefulPartitionedCall/functional_16_1/transformer_block_6_1/multi_head_attention_14_1/attention_output_1/Reshape_1", "op": "Const", "attr": {"dtype": {"type": "DT_FLOAT"}, "value": {"tensor": {"dtype": "DT_FLOAT", "tensorShape": {"dim": [{"size": "256"}, {"size": "256"}]}}}}}, {"name": "StatefulPartitionedCall/functional_16_1/transformer_block_6_1/multi_head_attention_14_1/attention_output_1/BiasAdd/ReadVariableOp", "op": "Const", "attr": {"dtype": {"type": "DT_FLOAT"}, "value": {"tensor": {"dtype": "DT_FLOAT", "tensorShape": {"dim": [{"size": "256"}]}}}}}, {"name": "StatefulPartitionedCall/functional_16_1/transformer_block_6_1/layer_normalization_29_1/moments/mean/reduction_indices", "op": "Const", "attr": {"dtype": {"type": "DT_INT32"}, "value": {"tensor": {"dtype": "DT_INT32", "tensorShape": {"dim": [{"size": "1"}]}}}}}, {"name": "StatefulPartitionedCall/functional_16_1/transformer_block_6_1/layer_normalization_29_1/moments/variance/reduction_indices", "op": "Const", "attr": {"dtype": {"type": "DT_INT32"}, "value": {"tensor": {"dtype": "DT_INT32", "tensorShape": {"dim": [{"size": "1"}]}}}}}, {"name": "StatefulPartitionedCall/functional_16_1/transformer_block_6_1/layer_normalization_29_1/add/y", "op": "Const", "attr": {"dtype": {"type": "DT_FLOAT"}, "value": {"tensor": {"dtype": "DT_FLOAT", "tensorShape": {}}}}}, {"name": "StatefulPartitionedCall/functional_16_1/transformer_block_6_1/layer_normalization_29_1/Reshape", "op": "Const", "attr": {"dtype": {"type": "DT_FLOAT"}, "value": {"tensor": {"dtype": "DT_FLOAT", "tensorShape": {"dim": [{"size": "1"}, {"size": "1"}, {"size": "256"}]}}}}}, {"name": "StatefulPartitionedCall/functional_16_1/transformer_block_6_1/sequential_14_1/dense_29_1/Cast/ReadVariableOp", "op": "Const", "attr": {"dtype": {"type": "DT_FLOAT"}, "value": {"tensor": {"dtype": "DT_FLOAT", "tensorShape": {"dim": [{"size": "256"}, {"size": "1024"}]}}}}}, {"name": "StatefulPartitionedCall/functional_16_1/transformer_block_6_1/sequential_14_1/dense_29_1/BiasAdd/ReadVariableOp", "op": "Const", "attr": {"dtype": {"type": "DT_FLOAT"}, "value": {"tensor": {"dtype": "DT_FLOAT", "tensorShape": {"dim": [{"size": "1024"}]}}}}}, {"name": "StatefulPartitionedCall/functional_16_1/transformer_block_6_1/sequential_14_1/dense_29_1/Pow/y", "op": "Const", "attr": {"dtype": {"type": "DT_FLOAT"}, "value": {"tensor": {"dtype": "DT_FLOAT", "tensorShape": {}}}}}, {"name": "StatefulPartitionedCall/functional_16_1/transformer_block_6_1/sequential_14_1/dense_30_1/Cast/ReadVariableOp", "op": "Const", "attr": {"dtype": {"type": "DT_FLOAT"}, "value": {"tensor": {"dtype": "DT_FLOAT", "tensorShape": {"dim": [{"size": "1024"}, {"size": "256"}]}}}}}, {"name": "StatefulPartitionedCall/functional_16_1/transformer_block_6_1/sequential_14_1/dense_30_1/BiasAdd/ReadVariableOp", "op": "Const", "attr": {"dtype": {"type": "DT_FLOAT"}, "value": {"tensor": {"dtype": "DT_FLOAT", "tensorShape": {"dim": [{"size": "256"}]}}}}}, {"name": "StatefulPartitionedCall/functional_16_1/transformer_block_7_1/layer_normalization_30_1/moments/mean/reduction_indices", "op": "Const", "attr": {"dtype": {"type": "DT_INT32"}, "value": {"tensor": {"dtype": "DT_INT32", "tensorShape": {"dim": [{"size": "1"}]}}}}}, {"name": "StatefulPartitionedCall/functional_16_1/transformer_block_7_1/layer_normalization_30_1/moments/variance/reduction_indices", "op": "Const", "attr": {"dtype": {"type": "DT_INT32"}, "value": {"tensor": {"dtype": "DT_INT32", "tensorShape": {"dim": [{"size": "1"}]}}}}}, {"name": "StatefulPartitionedCall/functional_16_1/transformer_block_7_1/layer_normalization_30_1/add/y", "op": "Const", "attr": {"dtype": {"type": "DT_FLOAT"}, "value": {"tensor": {"dtype": "DT_FLOAT", "tensorShape": {}}}}}, {"name": "StatefulPartitionedCall/functional_16_1/transformer_block_7_1/layer_normalization_30_1/Reshape", "op": "Const", "attr": {"dtype": {"type": "DT_FLOAT"}, "value": {"tensor": {"dtype": "DT_FLOAT", "tensorShape": {"dim": [{"size": "1"}, {"size": "1"}, {"size": "256"}]}}}}}, {"name": "StatefulPartitionedCall/functional_16_1/transformer_block_7_1/multi_head_attention_15_1/value_1/Reshape", "op": "Const", "attr": {"dtype": {"type": "DT_FLOAT"}, "value": {"tensor": {"dtype": "DT_FLOAT", "tensorShape": {"dim": [{"size": "256"}, {"size": "256"}]}}}}}, {"name": "StatefulPartitionedCall/functional_16_1/transformer_block_7_1/multi_head_attention_15_1/value_1/Reshape_1/shape", "op": "Const", "attr": {"dtype": {"type": "DT_INT32"}, "value": {"tensor": {"dtype": "DT_INT32", "tensorShape": {"dim": [{"size": "4"}]}}}}}, {"name": "StatefulPartitionedCall/functional_16_1/transformer_block_7_1/multi_head_attention_15_1/value_1/Add/ReadVariableOp", "op": "Const", "attr": {"dtype": {"type": "DT_FLOAT"}, "value": {"tensor": {"dtype": "DT_FLOAT", "tensorShape": {"dim": [{"size": "8"}, {"size": "32"}]}}}}}, {"name": "StatefulPartitionedCall/functional_16_1/transformer_block_7_1/multi_head_attention_15_1/attention_output_1/Reshape/shape", "op": "Const", "attr": {"dtype": {"type": "DT_INT32"}, "value": {"tensor": {"dtype": "DT_INT32", "tensorShape": {"dim": [{"size": "3"}]}}}}}, {"name": "StatefulPartitionedCall/functional_16_1/transformer_block_7_1/multi_head_attention_15_1/attention_output_1/Reshape_1", "op": "Const", "attr": {"dtype": {"type": "DT_FLOAT"}, "value": {"tensor": {"dtype": "DT_FLOAT", "tensorShape": {"dim": [{"size": "256"}, {"size": "256"}]}}}}}, {"name": "StatefulPartitionedCall/functional_16_1/transformer_block_7_1/multi_head_attention_15_1/attention_output_1/BiasAdd/ReadVariableOp", "op": "Const", "attr": {"dtype": {"type": "DT_FLOAT"}, "value": {"tensor": {"dtype": "DT_FLOAT", "tensorShape": {"dim": [{"size": "256"}]}}}}}, {"name": "StatefulPartitionedCall/functional_16_1/transformer_block_7_1/layer_normalization_31_1/moments/mean/reduction_indices", "op": "Const", "attr": {"dtype": {"type": "DT_INT32"}, "value": {"tensor": {"dtype": "DT_INT32", "tensorShape": {"dim": [{"size": "1"}]}}}}}, {"name": "StatefulPartitionedCall/functional_16_1/transformer_block_7_1/layer_normalization_31_1/moments/variance/reduction_indices", "op": "Const", "attr": {"dtype": {"type": "DT_INT32"}, "value": {"tensor": {"dtype": "DT_INT32", "tensorShape": {"dim": [{"size": "1"}]}}}}}, {"name": "StatefulPartitionedCall/functional_16_1/transformer_block_7_1/layer_normalization_31_1/add/y", "op": "Const", "attr": {"dtype": {"type": "DT_FLOAT"}, "value": {"tensor": {"dtype": "DT_FLOAT", "tensorShape": {}}}}}, {"name": "StatefulPartitionedCall/functional_16_1/transformer_block_7_1/layer_normalization_31_1/Reshape", "op": "Const", "attr": {"dtype": {"type": "DT_FLOAT"}, "value": {"tensor": {"dtype": "DT_FLOAT", "tensorShape": {"dim": [{"size": "1"}, {"size": "1"}, {"size": "256"}]}}}}}, {"name": "StatefulPartitionedCall/functional_16_1/transformer_block_7_1/sequential_15_1/dense_31_1/Cast/ReadVariableOp", "op": "Const", "attr": {"dtype": {"type": "DT_FLOAT"}, "value": {"tensor": {"dtype": "DT_FLOAT", "tensorShape": {"dim": [{"size": "256"}, {"size": "1024"}]}}}}}, {"name": "StatefulPartitionedCall/functional_16_1/transformer_block_7_1/sequential_15_1/dense_31_1/BiasAdd/ReadVariableOp", "op": "Const", "attr": {"dtype": {"type": "DT_FLOAT"}, "value": {"tensor": {"dtype": "DT_FLOAT", "tensorShape": {"dim": [{"size": "1024"}]}}}}}, {"name": "StatefulPartitionedCall/functional_16_1/transformer_block_7_1/sequential_15_1/dense_31_1/Pow/y", "op": "Const", "attr": {"dtype": {"type": "DT_FLOAT"}, "value": {"tensor": {"dtype": "DT_FLOAT", "tensorShape": {}}}}}, {"name": "StatefulPartitionedCall/functional_16_1/transformer_block_7_1/sequential_15_1/dense_32_1/Cast/ReadVariableOp", "op": "Const", "attr": {"dtype": {"type": "DT_FLOAT"}, "value": {"tensor": {"dtype": "DT_FLOAT", "tensorShape": {"dim": [{"size": "1024"}, {"size": "256"}]}}}}}, {"name": "StatefulPartitionedCall/functional_16_1/transformer_block_7_1/sequential_15_1/dense_32_1/BiasAdd/ReadVariableOp", "op": "Const", "attr": {"dtype": {"type": "DT_FLOAT"}, "value": {"tensor": {"dtype": "DT_FLOAT", "tensorShape": {"dim": [{"size": "256"}]}}}}}, {"name": "StatefulPartitionedCall/functional_16_1/global_average_pooling1d_1/Mean/reduction_indices", "op": "Const", "attr": {"dtype": {"type": "DT_INT32"}, "value": {"tensor": {"dtype": "DT_INT32", "tensorShape": {}}}}}, {"name": "StatefulPartitionedCall/functional_16_1/value_1/Cast/ReadVariableOp", "op": "Const", "attr": {"dtype": {"type": "DT_FLOAT"}, "value": {"tensor": {"dtype": "DT_FLOAT", "tensorShape": {"dim": [{"size": "256"}, {"size": "1"}]}}}}}, {"name": "StatefulPartitionedCall/functional_16_1/value_1/Add/ReadVariableOp", "op": "Const", "attr": {"dtype": {"type": "DT_FLOAT"}, "value": {"tensor": {"dtype": "DT_FLOAT", "tensorShape": {"dim": [{"size": "1"}]}}}}}, {"name": "StatefulPartitionedCall/functional_16_1/value_1/sub/y", "op": "Const", "attr": {"dtype": {"type": "DT_FLOAT"}, "value": {"tensor": {"dtype": "DT_FLOAT", "tensorShape": {}}}}}, {"name": "keras_tensor_68", "op": "Placeholder", "attr": {"dtype": {"type": "DT_FLOAT"}, "shape": {"shape": {"dim": [{"size": "-1"}, {"size": "8"}, {"size": "8"}, {"size": "2"}]}}}}, {"name": "StatefulPartitionedCall/functional_16_1/reshape_1/Shape", "op": "Shape", "input": ["keras_tensor_68"], "attr": {"T": {"type": "DT_FLOAT"}, "out_type": {"type": "DT_INT32"}}, "experimentalType": {"typeId": "TFT_PRODUCT", "args": [{"typeId": "TFT_SHAPE_TENSOR", "args": [{"typeId": "TFT_INT32"}]}]}}, {"name": "StatefulPartitionedCall/functional_16_1/reshape_1/strided_slice", "op": "StridedSlice", "input": ["StatefulPartitionedCall/functional_16_1/reshape_1/Shape", "StatefulPartitionedCall/functional_16_1/reshape_1/strided_slice/stack", "StatefulPartitionedCall/functional_16_1/reshape_1/strided_slice/stack_1", "StatefulPartitionedCall/functional_16_1/reshape_1/strided_slice/stack_2"], "attr": {"ellipsis_mask": {"i": "0"}, "T": {"type": "DT_INT32"}, "begin_mask": {"i": "0"}, "end_mask": {"i": "0"}, "shrink_axis_mask": {"i": "1"}, "new_axis_mask": {"i": "0"}, "Index": {"type": "DT_INT32"}}}, {"name": "StatefulPartitionedCall/functional_16_1/reshape_1/Reshape/shape", "op": "Pack", "input": ["StatefulPartitionedCall/functional_16_1/reshape_1/strided_slice", "StatefulPartitionedCall/functional_16_1/reshape_1/Reshape/shape/1", "StatefulPartitionedCall/functional_16_1/reshape_1/Reshape/shape/2"], "attr": {"N": {"i": "3"}, "T": {"type": "DT_INT32"}, "axis": {"i": "0"}}}, {"name": "StatefulPartitionedCall/functional_16_1/reshape_1/Reshape", "op": "Reshape", "input": ["keras_tensor_68", "StatefulPartitionedCall/functional_16_1/reshape_1/Reshape/shape"], "attr": {"T": {"type": "DT_FLOAT"}, "Tshape": {"type": "DT_INT32"}}}, {"name": "StatefulPartitionedCall/functional_16_1/dense_16_1/MatMul", "op": "BatchMatMulV2", "input": ["StatefulPartitionedCall/functional_16_1/reshape_1/Reshape", "StatefulPartitionedCall/functional_16_1/dense_16_1/Cast/ReadVariableOp"], "attr": {"grad_y": {"b": false}, "T": {"type": "DT_FLOAT"}, "adj_y": {"b": false}, "grad_x": {"b": false}, "adj_x": {"b": false}}}, {"name": "StatefulPartitionedCall/functional_16_1/dense_16_1/BiasAdd", "op": "BiasAdd", "input": ["StatefulPartitionedCall/functional_16_1/dense_16_1/MatMul", "StatefulPartitionedCall/functional_16_1/dense_16_1/BiasAdd/ReadVariableOp"], "attr": {"T": {"type": "DT_FLOAT"}, "data_format": {"s": "TkhXQw=="}, "_input_shapes": {"list": {"shape": [{"dim": [{"size": "-2"}, {"size": "64"}, {"size": "256"}]}, {"dim": [{"size": "256"}]}]}}}}, {"name": "StatefulPartitionedCall/functional_16_1/token_and_position_embedding_1/add_1", "op": "AddV2", "input": ["StatefulPartitionedCall/functional_16_1/dense_16_1/BiasAdd", "StatefulPartitionedCall/functional_16_1/token_and_position_embedding_1/add"], "attr": {"T": {"type": "DT_FLOAT"}}}, {"name": "StatefulPartitionedCall/functional_16_1/transformer_block_1/layer_normalization_16_1/moments/mean", "op": "Mean", "input": ["StatefulPartitionedCall/functional_16_1/token_and_position_embedding_1/add_1", "StatefulPartitionedCall/functional_16_1/transformer_block_1/layer_normalization_16_1/moments/mean/reduction_indices"], "attr": {"T": {"type": "DT_FLOAT"}, "Tidx": {"type": "DT_INT32"}, "keep_dims": {"b": true}}}, {"name": "StatefulPartitionedCall/functional_16_1/transformer_block_1/layer_normalization_16_1/Neg", "op": "Neg", "input": ["StatefulPartitionedCall/functional_16_1/transformer_block_1/layer_normalization_16_1/moments/mean"], "attr": {"T": {"type": "DT_FLOAT"}}}, {"name": "StatefulPartitionedCall/functional_16_1/transformer_block_1/layer_normalization_16_1/moments/SquaredDifference", "op": "SquaredDifference", "input": ["StatefulPartitionedCall/functional_16_1/token_and_position_embedding_1/add_1", "StatefulPartitionedCall/functional_16_1/transformer_block_1/layer_normalization_16_1/moments/mean"], "attr": {"T": {"type": "DT_FLOAT"}}}, {"name": "StatefulPartitionedCall/functional_16_1/transformer_block_1/layer_normalization_16_1/moments/variance", "op": "Mean", "input": ["StatefulPartitionedCall/functional_16_1/transformer_block_1/layer_normalization_16_1/moments/SquaredDifference", "StatefulPartitionedCall/functional_16_1/transformer_block_1/layer_normalization_16_1/moments/variance/reduction_indices"], "attr": {"T": {"type": "DT_FLOAT"}, "Tidx": {"type": "DT_INT32"}, "keep_dims": {"b": true}}}, {"name": "StatefulPartitionedCall/functional_16_1/transformer_block_1/layer_normalization_16_1/add", "op": "AddV2", "input": ["StatefulPartitionedCall/functional_16_1/transformer_block_1/layer_normalization_16_1/moments/variance", "StatefulPartitionedCall/functional_16_1/transformer_block_1/layer_normalization_16_1/add/y"], "attr": {"T": {"type": "DT_FLOAT"}}}, {"name": "StatefulPartitionedCall/functional_16_1/transformer_block_1/layer_normalization_16_1/Rsqrt", "op": "Rsqrt", "input": ["StatefulPartitionedCall/functional_16_1/transformer_block_1/layer_normalization_16_1/add"], "attr": {"T": {"type": "DT_FLOAT"}}}, {"name": "StatefulPartitionedCall/functional_16_1/transformer_block_1/layer_normalization_16_1/mul", "op": "Mul", "input": ["StatefulPartitionedCall/functional_16_1/transformer_block_1/layer_normalization_16_1/Rsqrt", "StatefulPartitionedCall/functional_16_1/transformer_block_1/layer_normalization_16_1/Reshape"], "attr": {"T": {"type": "DT_FLOAT"}}}, {"name": "StatefulPartitionedCall/functional_16_1/transformer_block_1/layer_normalization_16_1/mul_1", "op": "Mul", "input": ["StatefulPartitionedCall/functional_16_1/transformer_block_1/layer_normalization_16_1/Neg", "StatefulPartitionedCall/functional_16_1/transformer_block_1/layer_normalization_16_1/mul"], "attr": {"T": {"type": "DT_FLOAT"}}}, {"name": "StatefulPartitionedCall/functional_16_1/transformer_block_1/layer_normalization_16_1/mul_2", "op": "Mul", "input": ["StatefulPartitionedCall/functional_16_1/token_and_position_embedding_1/add_1", "StatefulPartitionedCall/functional_16_1/transformer_block_1/layer_normalization_16_1/mul"], "attr": {"T": {"type": "DT_FLOAT"}}}, {"name": "StatefulPartitionedCall/functional_16_1/transformer_block_1/layer_normalization_16_1/ArithmeticOptimizer/AddOpsRewrite_Leaf_1_add_2", "op": "AddN", "input": ["StatefulPartitionedCall/functional_16_1/transformer_block_1/layer_normalization_16_1/mul_2", "StatefulPartitionedCall/functional_16_1/transformer_block_1/layer_normalization_16_1/mul_1"], "attr": {"N": {"i": "2"}, "_grappler_ArithmeticOptimizer_AddOpsRewriteStage": {"b": true}, "T": {"type": "DT_FLOAT"}}}, {"name": "StatefulPartitionedCall/functional_16_1/transformer_block_1/layer_normalization_16_1/ArithmeticOptimizer/AddOpsRewrite_add_2", "op": "AddV2", "input": ["StatefulPartitionedCall/functional_16_1/transformer_block_1/layer_normalization_16_1/Reshape_1", "StatefulPartitionedCall/functional_16_1/transformer_block_1/layer_normalization_16_1/ArithmeticOptimizer/AddOpsRewrite_Leaf_1_add_2"], "attr": {"_grappler_ArithmeticOptimizer_AddOpsRewriteStage": {"b": true}, "T": {"type": "DT_FLOAT"}}}, {"name": "StatefulPartitionedCall/functional_16_1/transformer_block_1/multi_head_attention_8_1/query_1/MatMul", "op": "BatchMatMulV2", "input": ["StatefulPartitionedCall/functional_16_1/transformer_block_1/layer_normalization_16_1/ArithmeticOptimizer/AddOpsRewrite_add_2", "StatefulPartitionedCall/functional_16_1/transformer_block_1/multi_head_attention_8_1/query_1/Reshape"], "attr": {"grad_y": {"b": false}, "T": {"type": "DT_FLOAT"}, "adj_y": {"b": false}, "grad_x": {"b": false}, "adj_x": {"b": false}}}, {"name": "StatefulPartitionedCall/functional_16_1/transformer_block_1/multi_head_attention_8_1/key_1/MatMul", "op": "BatchMatMulV2", "input": ["StatefulPartitionedCall/functional_16_1/transformer_block_1/layer_normalization_16_1/ArithmeticOptimizer/AddOpsRewrite_add_2", "StatefulPartitionedCall/functional_16_1/transformer_block_1/multi_head_attention_8_1/key_1/Reshape"], "attr": {"grad_y": {"b": false}, "T": {"type": "DT_FLOAT"}, "adj_y": {"b": false}, "grad_x": {"b": false}, "adj_x": {"b": false}}}, {"name": "StatefulPartitionedCall/functional_16_1/transformer_block_1/multi_head_attention_8_1/value_1/MatMul", "op": "BatchMatMulV2", "input": ["StatefulPartitionedCall/functional_16_1/transformer_block_1/layer_normalization_16_1/ArithmeticOptimizer/AddOpsRewrite_add_2", "StatefulPartitionedCall/functional_16_1/transformer_block_1/multi_head_attention_8_1/value_1/Reshape"], "attr": {"grad_y": {"b": false}, "T": {"type": "DT_FLOAT"}, "adj_y": {"b": false}, "grad_x": {"b": false}, "adj_x": {"b": false}}}, {"name": "StatefulPartitionedCall/functional_16_1/transformer_block_1/multi_head_attention_8_1/query_1/Reshape_1", "op": "Reshape", "input": ["StatefulPartitionedCall/functional_16_1/transformer_block_1/multi_head_attention_8_1/query_1/MatMul", "StatefulPartitionedCall/functional_16_1/transformer_block_1/multi_head_attention_8_1/query_1/Reshape_1/shape"], "attr": {"Tshape": {"type": "DT_INT32"}, "T": {"type": "DT_FLOAT"}}}, {"name": "StatefulPartitionedCall/functional_16_1/transformer_block_1/multi_head_attention_8_1/key_1/Reshape_1", "op": "Reshape", "input": ["StatefulPartitionedCall/functional_16_1/transformer_block_1/multi_head_attention_8_1/key_1/MatMul", "StatefulPartitionedCall/functional_16_1/transformer_block_1/multi_head_attention_8_1/key_1/Reshape_1/shape"], "attr": {"T": {"type": "DT_FLOAT"}, "Tshape": {"type": "DT_INT32"}}}, {"name": "StatefulPartitionedCall/functional_16_1/transformer_block_1/multi_head_attention_8_1/value_1/Reshape_1", "op": "Reshape", "input": ["StatefulPartitionedCall/functional_16_1/transformer_block_1/multi_head_attention_8_1/value_1/MatMul", "StatefulPartitionedCall/functional_16_1/transformer_block_1/multi_head_attention_8_1/value_1/Reshape_1/shape"], "attr": {"Tshape": {"type": "DT_INT32"}, "T": {"type": "DT_FLOAT"}}}, {"name": "StatefulPartitionedCall/functional_16_1/transformer_block_1/multi_head_attention_8_1/query_1/Add", "op": "AddV2", "input": ["StatefulPartitionedCall/functional_16_1/transformer_block_1/multi_head_attention_8_1/query_1/Reshape_1", "StatefulPartitionedCall/functional_16_1/transformer_block_1/multi_head_attention_8_1/query_1/Add/ReadVariableOp"], "attr": {"T": {"type": "DT_FLOAT"}}}, {"name": "StatefulPartitionedCall/functional_16_1/transformer_block_1/multi_head_attention_8_1/key_1/Add", "op": "AddV2", "input": ["StatefulPartitionedCall/functional_16_1/transformer_block_1/multi_head_attention_8_1/key_1/Reshape_1", "StatefulPartitionedCall/functional_16_1/transformer_block_1/multi_head_attention_8_1/key_1/Add/ReadVariableOp"], "attr": {"T": {"type": "DT_FLOAT"}}}, {"name": "StatefulPartitionedCall/functional_16_1/transformer_block_1/multi_head_attention_8_1/value_1/Add", "op": "AddV2", "input": ["StatefulPartitionedCall/functional_16_1/transformer_block_1/multi_head_attention_8_1/value_1/Reshape_1", "StatefulPartitionedCall/functional_16_1/transformer_block_1/multi_head_attention_8_1/value_1/Add/ReadVariableOp"], "attr": {"T": {"type": "DT_FLOAT"}}}, {"name": "StatefulPartitionedCall/functional_16_1/transformer_block_1/multi_head_attention_8_1/einsum/Einsum", "op": "Einsum", "input": ["StatefulPartitionedCall/functional_16_1/transformer_block_1/multi_head_attention_8_1/query_1/Add", "StatefulPartitionedCall/functional_16_1/transformer_block_1/multi_head_attention_8_1/key_1/Add"], "attr": {"equation": {"s": "QlROSCxCU05ILT5CTlRT"}, "T": {"type": "DT_FLOAT"}, "N": {"i": "2"}}}, {"name": "StatefulPartitionedCall/functional_16_1/transformer_block_1/multi_head_attention_8_1/Mul", "op": "Mul", "input": ["StatefulPartitionedCall/functional_16_1/transformer_block_1/multi_head_attention_8_1/einsum/Einsum", "StatefulPartitionedCall/functional_16_1/transformer_block_1/multi_head_attention_8_1/Cast/x"], "attr": {"T": {"type": "DT_FLOAT"}}}, {"name": "StatefulPartitionedCall/functional_16_1/transformer_block_1/multi_head_attention_8_1/Softmax", "op": "Softmax", "input": ["StatefulPartitionedCall/functional_16_1/transformer_block_1/multi_head_attention_8_1/Mul"], "attr": {"T": {"type": "DT_FLOAT"}}}, {"name": "StatefulPartitionedCall/functional_16_1/transformer_block_1/multi_head_attention_8_1/einsum_1/Einsum", "op": "Einsum", "input": ["StatefulPartitionedCall/functional_16_1/transformer_block_1/multi_head_attention_8_1/Softmax", "StatefulPartitionedCall/functional_16_1/transformer_block_1/multi_head_attention_8_1/value_1/Add"], "attr": {"N": {"i": "2"}, "T": {"type": "DT_FLOAT"}, "equation": {"s": "Qk5UUyxCU05ILT5CVE5I"}}}, {"name": "StatefulPartitionedCall/functional_16_1/transformer_block_1/multi_head_attention_8_1/attention_output_1/Reshape", "op": "Reshape", "input": ["StatefulPartitionedCall/functional_16_1/transformer_block_1/multi_head_attention_8_1/einsum_1/Einsum", "StatefulPartitionedCall/functional_16_1/transformer_block_1/multi_head_attention_8_1/attention_output_1/Reshape/shape"], "attr": {"Tshape": {"type": "DT_INT32"}, "T": {"type": "DT_FLOAT"}}}, {"name": "StatefulPartitionedCall/functional_16_1/transformer_block_1/multi_head_attention_8_1/attention_output_1/MatMul", "op": "BatchMatMulV2", "input": ["StatefulPartitionedCall/functional_16_1/transformer_block_1/multi_head_attention_8_1/attention_output_1/Reshape", "StatefulPartitionedCall/functional_16_1/transformer_block_1/multi_head_attention_8_1/attention_output_1/Reshape_1"], "attr": {"grad_y": {"b": false}, "T": {"type": "DT_FLOAT"}, "adj_y": {"b": false}, "grad_x": {"b": false}, "adj_x": {"b": false}}}, {"name": "StatefulPartitionedCall/functional_16_1/transformer_block_1/multi_head_attention_8_1/attention_output_1/BiasAdd", "op": "BiasAdd", "input": ["StatefulPartitionedCall/functional_16_1/transformer_block_1/multi_head_attention_8_1/attention_output_1/MatMul", "StatefulPartitionedCall/functional_16_1/transformer_block_1/multi_head_attention_8_1/attention_output_1/BiasAdd/ReadVariableOp"], "attr": {"T": {"type": "DT_FLOAT"}, "data_format": {"s": "TkhXQw=="}, "_input_shapes": {"list": {"shape": [{"dim": [{"size": "-2"}, {"size": "64"}, {"size": "256"}]}, {"dim": [{"size": "256"}]}]}}}}, {"name": "StatefulPartitionedCall/functional_16_1/transformer_block_1/add", "op": "AddV2", "input": ["StatefulPartitionedCall/functional_16_1/token_and_position_embedding_1/add_1", "StatefulPartitionedCall/functional_16_1/transformer_block_1/multi_head_attention_8_1/attention_output_1/BiasAdd"], "attr": {"T": {"type": "DT_FLOAT"}}}, {"name": "StatefulPartitionedCall/functional_16_1/transformer_block_1/layer_normalization_17_1/moments/mean", "op": "Mean", "input": ["StatefulPartitionedCall/functional_16_1/transformer_block_1/add", "StatefulPartitionedCall/functional_16_1/transformer_block_1/layer_normalization_17_1/moments/mean/reduction_indices"], "attr": {"T": {"type": "DT_FLOAT"}, "Tidx": {"type": "DT_INT32"}, "keep_dims": {"b": true}}}, {"name": "StatefulPartitionedCall/functional_16_1/transformer_block_1/layer_normalization_17_1/Neg", "op": "Neg", "input": ["StatefulPartitionedCall/functional_16_1/transformer_block_1/layer_normalization_17_1/moments/mean"], "attr": {"T": {"type": "DT_FLOAT"}}}, {"name": "StatefulPartitionedCall/functional_16_1/transformer_block_1/layer_normalization_17_1/moments/SquaredDifference", "op": "SquaredDifference", "input": ["StatefulPartitionedCall/functional_16_1/transformer_block_1/add", "StatefulPartitionedCall/functional_16_1/transformer_block_1/layer_normalization_17_1/moments/mean"], "attr": {"T": {"type": "DT_FLOAT"}}}, {"name": "StatefulPartitionedCall/functional_16_1/transformer_block_1/layer_normalization_17_1/moments/variance", "op": "Mean", "input": ["StatefulPartitionedCall/functional_16_1/transformer_block_1/layer_normalization_17_1/moments/SquaredDifference", "StatefulPartitionedCall/functional_16_1/transformer_block_1/layer_normalization_17_1/moments/variance/reduction_indices"], "attr": {"T": {"type": "DT_FLOAT"}, "Tidx": {"type": "DT_INT32"}, "keep_dims": {"b": true}}}, {"name": "StatefulPartitionedCall/functional_16_1/transformer_block_1/layer_normalization_17_1/add", "op": "AddV2", "input": ["StatefulPartitionedCall/functional_16_1/transformer_block_1/layer_normalization_17_1/moments/variance", "StatefulPartitionedCall/functional_16_1/transformer_block_1/layer_normalization_17_1/add/y"], "attr": {"T": {"type": "DT_FLOAT"}}}, {"name": "StatefulPartitionedCall/functional_16_1/transformer_block_1/layer_normalization_17_1/Rsqrt", "op": "Rsqrt", "input": ["StatefulPartitionedCall/functional_16_1/transformer_block_1/layer_normalization_17_1/add"], "attr": {"T": {"type": "DT_FLOAT"}}}, {"name": "StatefulPartitionedCall/functional_16_1/transformer_block_1/layer_normalization_17_1/mul", "op": "Mul", "input": ["StatefulPartitionedCall/functional_16_1/transformer_block_1/layer_normalization_17_1/Rsqrt", "StatefulPartitionedCall/functional_16_1/transformer_block_1/layer_normalization_17_1/Reshape"], "attr": {"T": {"type": "DT_FLOAT"}}}, {"name": "StatefulPartitionedCall/functional_16_1/transformer_block_1/layer_normalization_17_1/mul_1", "op": "Mul", "input": ["StatefulPartitionedCall/functional_16_1/transformer_block_1/layer_normalization_17_1/Neg", "StatefulPartitionedCall/functional_16_1/transformer_block_1/layer_normalization_17_1/mul"], "attr": {"T": {"type": "DT_FLOAT"}}}, {"name": "StatefulPartitionedCall/functional_16_1/transformer_block_1/layer_normalization_17_1/mul_2", "op": "Mul", "input": ["StatefulPartitionedCall/functional_16_1/transformer_block_1/add", "StatefulPartitionedCall/functional_16_1/transformer_block_1/layer_normalization_17_1/mul"], "attr": {"T": {"type": "DT_FLOAT"}}}, {"name": "StatefulPartitionedCall/functional_16_1/transformer_block_1/layer_normalization_17_1/ArithmeticOptimizer/AddOpsRewrite_Leaf_1_add_2", "op": "AddN", "input": ["StatefulPartitionedCall/functional_16_1/transformer_block_1/layer_normalization_17_1/mul_2", "StatefulPartitionedCall/functional_16_1/transformer_block_1/layer_normalization_17_1/mul_1"], "attr": {"N": {"i": "2"}, "_grappler_ArithmeticOptimizer_AddOpsRewriteStage": {"b": true}, "T": {"type": "DT_FLOAT"}}}, {"name": "StatefulPartitionedCall/functional_16_1/transformer_block_1/layer_normalization_17_1/ArithmeticOptimizer/AddOpsRewrite_add_2", "op": "AddV2", "input": ["StatefulPartitionedCall/functional_16_1/transformer_block_1/layer_normalization_17_1/Reshape_1", "StatefulPartitionedCall/functional_16_1/transformer_block_1/layer_normalization_17_1/ArithmeticOptimizer/AddOpsRewrite_Leaf_1_add_2"], "attr": {"_grappler_ArithmeticOptimizer_AddOpsRewriteStage": {"b": true}, "T": {"type": "DT_FLOAT"}}}, {"name": "StatefulPartitionedCall/functional_16_1/transformer_block_1/sequential_8_1/dense_17_1/MatMul", "op": "BatchMatMulV2", "input": ["StatefulPartitionedCall/functional_16_1/transformer_block_1/layer_normalization_17_1/ArithmeticOptimizer/AddOpsRewrite_add_2", "StatefulPartitionedCall/functional_16_1/transformer_block_1/sequential_8_1/dense_17_1/Cast/ReadVariableOp"], "attr": {"grad_y": {"b": false}, "T": {"type": "DT_FLOAT"}, "adj_y": {"b": false}, "grad_x": {"b": false}, "adj_x": {"b": false}}}, {"name": "StatefulPartitionedCall/functional_16_1/transformer_block_1/sequential_8_1/dense_17_1/BiasAdd", "op": "BiasAdd", "input": ["StatefulPartitionedCall/functional_16_1/transformer_block_1/sequential_8_1/dense_17_1/MatMul", "StatefulPartitionedCall/functional_16_1/transformer_block_1/sequential_8_1/dense_17_1/BiasAdd/ReadVariableOp"], "attr": {"T": {"type": "DT_FLOAT"}, "data_format": {"s": "TkhXQw=="}, "_input_shapes": {"list": {"shape": [{"dim": [{"size": "-2"}, {"size": "64"}, {"size": "1024"}]}, {"dim": [{"size": "1024"}]}]}}}}, {"name": "StatefulPartitionedCall/functional_16_1/transformer_block_1/sequential_8_1/dense_17_1/Pow", "op": "Pow", "input": ["StatefulPartitionedCall/functional_16_1/transformer_block_1/sequential_8_1/dense_17_1/BiasAdd", "StatefulPartitionedCall/functional_16_1/transformer_block_1/sequential_8_1/dense_17_1/Pow/y"], "attr": {"T": {"type": "DT_FLOAT"}}}, {"name": "StatefulPartitionedCall/functional_16_1/transformer_block_1/sequential_8_1/dense_17_1/mul", "op": "Mul", "input": ["StatefulPartitionedCall/functional_16_1/transformer_block_1/sequential_8_1/dense_17_1/mul/x", "StatefulPartitionedCall/functional_16_1/transformer_block_1/sequential_8_1/dense_17_1/Pow"], "attr": {"T": {"type": "DT_FLOAT"}}}, {"name": "StatefulPartitionedCall/functional_16_1/transformer_block_1/sequential_8_1/dense_17_1/add", "op": "AddV2", "input": ["StatefulPartitionedCall/functional_16_1/transformer_block_1/sequential_8_1/dense_17_1/BiasAdd", "StatefulPartitionedCall/functional_16_1/transformer_block_1/sequential_8_1/dense_17_1/mul"], "attr": {"T": {"type": "DT_FLOAT"}}}, {"name": "StatefulPartitionedCall/functional_16_1/transformer_block_1/sequential_8_1/dense_17_1/mul_1", "op": "Mul", "input": ["StatefulPartitionedCall/functional_16_1/transformer_block_1/sequential_8_1/dense_17_1/mul_1/x", "StatefulPartitionedCall/functional_16_1/transformer_block_1/sequential_8_1/dense_17_1/add"], "attr": {"T": {"type": "DT_FLOAT"}}}, {"name": "StatefulPartitionedCall/functional_16_1/transformer_block_1/sequential_8_1/dense_17_1/Sigmoid", "op": "Sigmoid", "input": ["StatefulPartitionedCall/functional_16_1/transformer_block_1/sequential_8_1/dense_17_1/mul_1"], "attr": {"T": {"type": "DT_FLOAT"}, "_input_shapes": {"list": {"shape": [{"dim": [{"size": "-2"}, {"size": "64"}, {"size": "1024"}]}]}}}}, {"name": "StatefulPartitionedCall/functional_16_1/transformer_block_1/sequential_8_1/dense_17_1/mul_2", "op": "Mul", "input": ["StatefulPartitionedCall/functional_16_1/transformer_block_1/sequential_8_1/dense_17_1/BiasAdd", "StatefulPartitionedCall/functional_16_1/transformer_block_1/sequential_8_1/dense_17_1/Sigmoid"], "attr": {"T": {"type": "DT_FLOAT"}}}, {"name": "StatefulPartitionedCall/functional_16_1/transformer_block_1/sequential_8_1/dense_18_1/MatMul", "op": "BatchMatMulV2", "input": ["StatefulPartitionedCall/functional_16_1/transformer_block_1/sequential_8_1/dense_17_1/mul_2", "StatefulPartitionedCall/functional_16_1/transformer_block_1/sequential_8_1/dense_18_1/Cast/ReadVariableOp"], "attr": {"grad_y": {"b": false}, "T": {"type": "DT_FLOAT"}, "adj_y": {"b": false}, "grad_x": {"b": false}, "adj_x": {"b": false}}}, {"name": "StatefulPartitionedCall/functional_16_1/transformer_block_1/sequential_8_1/dense_18_1/BiasAdd", "op": "BiasAdd", "input": ["StatefulPartitionedCall/functional_16_1/transformer_block_1/sequential_8_1/dense_18_1/MatMul", "StatefulPartitionedCall/functional_16_1/transformer_block_1/sequential_8_1/dense_18_1/BiasAdd/ReadVariableOp"], "attr": {"T": {"type": "DT_FLOAT"}, "data_format": {"s": "TkhXQw=="}, "_input_shapes": {"list": {"shape": [{"dim": [{"size": "-2"}, {"size": "64"}, {"size": "256"}]}, {"dim": [{"size": "256"}]}]}}}}, {"name": "StatefulPartitionedCall/functional_16_1/transformer_block_1/add_1", "op": "AddV2", "input": ["StatefulPartitionedCall/functional_16_1/transformer_block_1/add", "StatefulPartitionedCall/functional_16_1/transformer_block_1/sequential_8_1/dense_18_1/BiasAdd"], "attr": {"T": {"type": "DT_FLOAT"}}}, {"name": "StatefulPartitionedCall/functional_16_1/transformer_block_1_2/layer_normalization_18_1/moments/mean", "op": "Mean", "input": ["StatefulPartitionedCall/functional_16_1/transformer_block_1/add_1", "StatefulPartitionedCall/functional_16_1/transformer_block_1_2/layer_normalization_18_1/moments/mean/reduction_indices"], "attr": {"T": {"type": "DT_FLOAT"}, "Tidx": {"type": "DT_INT32"}, "keep_dims": {"b": true}}}, {"name": "StatefulPartitionedCall/functional_16_1/transformer_block_1_2/layer_normalization_18_1/Neg", "op": "Neg", "input": ["StatefulPartitionedCall/functional_16_1/transformer_block_1_2/layer_normalization_18_1/moments/mean"], "attr": {"T": {"type": "DT_FLOAT"}}}, {"name": "StatefulPartitionedCall/functional_16_1/transformer_block_1_2/layer_normalization_18_1/moments/SquaredDifference", "op": "SquaredDifference", "input": ["StatefulPartitionedCall/functional_16_1/transformer_block_1/add_1", "StatefulPartitionedCall/functional_16_1/transformer_block_1_2/layer_normalization_18_1/moments/mean"], "attr": {"T": {"type": "DT_FLOAT"}}}, {"name": "StatefulPartitionedCall/functional_16_1/transformer_block_1_2/layer_normalization_18_1/moments/variance", "op": "Mean", "input": ["StatefulPartitionedCall/functional_16_1/transformer_block_1_2/layer_normalization_18_1/moments/SquaredDifference", "StatefulPartitionedCall/functional_16_1/transformer_block_1_2/layer_normalization_18_1/moments/variance/reduction_indices"], "attr": {"T": {"type": "DT_FLOAT"}, "Tidx": {"type": "DT_INT32"}, "keep_dims": {"b": true}}}, {"name": "StatefulPartitionedCall/functional_16_1/transformer_block_1_2/layer_normalization_18_1/add", "op": "AddV2", "input": ["StatefulPartitionedCall/functional_16_1/transformer_block_1_2/layer_normalization_18_1/moments/variance", "StatefulPartitionedCall/functional_16_1/transformer_block_1_2/layer_normalization_18_1/add/y"], "attr": {"T": {"type": "DT_FLOAT"}}}, {"name": "StatefulPartitionedCall/functional_16_1/transformer_block_1_2/layer_normalization_18_1/Rsqrt", "op": "Rsqrt", "input": ["StatefulPartitionedCall/functional_16_1/transformer_block_1_2/layer_normalization_18_1/add"], "attr": {"T": {"type": "DT_FLOAT"}}}, {"name": "StatefulPartitionedCall/functional_16_1/transformer_block_1_2/layer_normalization_18_1/mul", "op": "Mul", "input": ["StatefulPartitionedCall/functional_16_1/transformer_block_1_2/layer_normalization_18_1/Rsqrt", "StatefulPartitionedCall/functional_16_1/transformer_block_1_2/layer_normalization_18_1/Reshape"], "attr": {"T": {"type": "DT_FLOAT"}}}, {"name": "StatefulPartitionedCall/functional_16_1/transformer_block_1_2/layer_normalization_18_1/mul_1", "op": "Mul", "input": ["StatefulPartitionedCall/functional_16_1/transformer_block_1_2/layer_normalization_18_1/Neg", "StatefulPartitionedCall/functional_16_1/transformer_block_1_2/layer_normalization_18_1/mul"], "attr": {"T": {"type": "DT_FLOAT"}}}, {"name": "StatefulPartitionedCall/functional_16_1/transformer_block_1_2/layer_normalization_18_1/mul_2", "op": "Mul", "input": ["StatefulPartitionedCall/functional_16_1/transformer_block_1/add_1", "StatefulPartitionedCall/functional_16_1/transformer_block_1_2/layer_normalization_18_1/mul"], "attr": {"T": {"type": "DT_FLOAT"}}}, {"name": "StatefulPartitionedCall/functional_16_1/transformer_block_1_2/layer_normalization_18_1/ArithmeticOptimizer/AddOpsRewrite_Leaf_1_add_2", "op": "AddN", "input": ["StatefulPartitionedCall/functional_16_1/transformer_block_1_2/layer_normalization_18_1/mul_2", "StatefulPartitionedCall/functional_16_1/transformer_block_1_2/layer_normalization_18_1/mul_1"], "attr": {"N": {"i": "2"}, "_grappler_ArithmeticOptimizer_AddOpsRewriteStage": {"b": true}, "T": {"type": "DT_FLOAT"}}}, {"name": "StatefulPartitionedCall/functional_16_1/transformer_block_1_2/layer_normalization_18_1/ArithmeticOptimizer/AddOpsRewrite_add_2", "op": "AddV2", "input": ["StatefulPartitionedCall/functional_16_1/transformer_block_1_2/layer_normalization_18_1/Reshape_1", "StatefulPartitionedCall/functional_16_1/transformer_block_1_2/layer_normalization_18_1/ArithmeticOptimizer/AddOpsRewrite_Leaf_1_add_2"], "attr": {"_grappler_ArithmeticOptimizer_AddOpsRewriteStage": {"b": true}, "T": {"type": "DT_FLOAT"}}}, {"name": "StatefulPartitionedCall/functional_16_1/transformer_block_1_2/multi_head_attention_9_1/query_1/MatMul", "op": "BatchMatMulV2", "input": ["StatefulPartitionedCall/functional_16_1/transformer_block_1_2/layer_normalization_18_1/ArithmeticOptimizer/AddOpsRewrite_add_2", "StatefulPartitionedCall/functional_16_1/transformer_block_1_2/multi_head_attention_9_1/query_1/Reshape"], "attr": {"grad_y": {"b": false}, "T": {"type": "DT_FLOAT"}, "adj_y": {"b": false}, "grad_x": {"b": false}, "adj_x": {"b": false}}}, {"name": "StatefulPartitionedCall/functional_16_1/transformer_block_1_2/multi_head_attention_9_1/key_1/MatMul", "op": "BatchMatMulV2", "input": ["StatefulPartitionedCall/functional_16_1/transformer_block_1_2/layer_normalization_18_1/ArithmeticOptimizer/AddOpsRewrite_add_2", "StatefulPartitionedCall/functional_16_1/transformer_block_1_2/multi_head_attention_9_1/key_1/Reshape"], "attr": {"grad_y": {"b": false}, "T": {"type": "DT_FLOAT"}, "adj_y": {"b": false}, "grad_x": {"b": false}, "adj_x": {"b": false}}}, {"name": "StatefulPartitionedCall/functional_16_1/transformer_block_1_2/multi_head_attention_9_1/value_1/MatMul", "op": "BatchMatMulV2", "input": ["StatefulPartitionedCall/functional_16_1/transformer_block_1_2/layer_normalization_18_1/ArithmeticOptimizer/AddOpsRewrite_add_2", "StatefulPartitionedCall/functional_16_1/transformer_block_1_2/multi_head_attention_9_1/value_1/Reshape"], "attr": {"grad_y": {"b": false}, "T": {"type": "DT_FLOAT"}, "adj_y": {"b": false}, "grad_x": {"b": false}, "adj_x": {"b": false}}}, {"name": "StatefulPartitionedCall/functional_16_1/transformer_block_1_2/multi_head_attention_9_1/query_1/Reshape_1", "op": "Reshape", "input": ["StatefulPartitionedCall/functional_16_1/transformer_block_1_2/multi_head_attention_9_1/query_1/MatMul", "StatefulPartitionedCall/functional_16_1/transformer_block_1_2/multi_head_attention_9_1/query_1/Reshape_1/shape"], "attr": {"Tshape": {"type": "DT_INT32"}, "T": {"type": "DT_FLOAT"}}}, {"name": "StatefulPartitionedCall/functional_16_1/transformer_block_1_2/multi_head_attention_9_1/key_1/Reshape_1", "op": "Reshape", "input": ["StatefulPartitionedCall/functional_16_1/transformer_block_1_2/multi_head_attention_9_1/key_1/MatMul", "StatefulPartitionedCall/functional_16_1/transformer_block_1_2/multi_head_attention_9_1/key_1/Reshape_1/shape"], "attr": {"Tshape": {"type": "DT_INT32"}, "T": {"type": "DT_FLOAT"}}}, {"name": "StatefulPartitionedCall/functional_16_1/transformer_block_1_2/multi_head_attention_9_1/value_1/Reshape_1", "op": "Reshape", "input": ["StatefulPartitionedCall/functional_16_1/transformer_block_1_2/multi_head_attention_9_1/value_1/MatMul", "StatefulPartitionedCall/functional_16_1/transformer_block_1_2/multi_head_attention_9_1/value_1/Reshape_1/shape"], "attr": {"T": {"type": "DT_FLOAT"}, "Tshape": {"type": "DT_INT32"}}}, {"name": "StatefulPartitionedCall/functional_16_1/transformer_block_1_2/multi_head_attention_9_1/query_1/Add", "op": "AddV2", "input": ["StatefulPartitionedCall/functional_16_1/transformer_block_1_2/multi_head_attention_9_1/query_1/Reshape_1", "StatefulPartitionedCall/functional_16_1/transformer_block_1_2/multi_head_attention_9_1/query_1/Add/ReadVariableOp"], "attr": {"T": {"type": "DT_FLOAT"}}}, {"name": "StatefulPartitionedCall/functional_16_1/transformer_block_1_2/multi_head_attention_9_1/key_1/Add", "op": "AddV2", "input": ["StatefulPartitionedCall/functional_16_1/transformer_block_1_2/multi_head_attention_9_1/key_1/Reshape_1", "StatefulPartitionedCall/functional_16_1/transformer_block_1_2/multi_head_attention_9_1/key_1/Add/ReadVariableOp"], "attr": {"T": {"type": "DT_FLOAT"}}}, {"name": "StatefulPartitionedCall/functional_16_1/transformer_block_1_2/multi_head_attention_9_1/value_1/Add", "op": "AddV2", "input": ["StatefulPartitionedCall/functional_16_1/transformer_block_1_2/multi_head_attention_9_1/value_1/Reshape_1", "StatefulPartitionedCall/functional_16_1/transformer_block_1_2/multi_head_attention_9_1/value_1/Add/ReadVariableOp"], "attr": {"T": {"type": "DT_FLOAT"}}}, {"name": "StatefulPartitionedCall/functional_16_1/transformer_block_1_2/multi_head_attention_9_1/einsum/Einsum", "op": "Einsum", "input": ["StatefulPartitionedCall/functional_16_1/transformer_block_1_2/multi_head_attention_9_1/query_1/Add", "StatefulPartitionedCall/functional_16_1/transformer_block_1_2/multi_head_attention_9_1/key_1/Add"], "attr": {"N": {"i": "2"}, "T": {"type": "DT_FLOAT"}, "equation": {"s": "QlROSCxCU05ILT5CTlRT"}}}, {"name": "StatefulPartitionedCall/functional_16_1/transformer_block_1_2/multi_head_attention_9_1/Mul", "op": "Mul", "input": ["StatefulPartitionedCall/functional_16_1/transformer_block_1_2/multi_head_attention_9_1/einsum/Einsum", "StatefulPartitionedCall/functional_16_1/transformer_block_1_2/multi_head_attention_9_1/Cast/x"], "attr": {"T": {"type": "DT_FLOAT"}}}, {"name": "StatefulPartitionedCall/functional_16_1/transformer_block_1_2/multi_head_attention_9_1/Softmax", "op": "Softmax", "input": ["StatefulPartitionedCall/functional_16_1/transformer_block_1_2/multi_head_attention_9_1/Mul"], "attr": {"T": {"type": "DT_FLOAT"}}}, {"name": "StatefulPartitionedCall/functional_16_1/transformer_block_1_2/multi_head_attention_9_1/einsum_1/Einsum", "op": "Einsum", "input": ["StatefulPartitionedCall/functional_16_1/transformer_block_1_2/multi_head_attention_9_1/Softmax", "StatefulPartitionedCall/functional_16_1/transformer_block_1_2/multi_head_attention_9_1/value_1/Add"], "attr": {"N": {"i": "2"}, "T": {"type": "DT_FLOAT"}, "equation": {"s": "Qk5UUyxCU05ILT5CVE5I"}}}, {"name": "StatefulPartitionedCall/functional_16_1/transformer_block_1_2/multi_head_attention_9_1/attention_output_1/Reshape", "op": "Reshape", "input": ["StatefulPartitionedCall/functional_16_1/transformer_block_1_2/multi_head_attention_9_1/einsum_1/Einsum", "StatefulPartitionedCall/functional_16_1/transformer_block_1_2/multi_head_attention_9_1/attention_output_1/Reshape/shape"], "attr": {"Tshape": {"type": "DT_INT32"}, "T": {"type": "DT_FLOAT"}}}, {"name": "StatefulPartitionedCall/functional_16_1/transformer_block_1_2/multi_head_attention_9_1/attention_output_1/MatMul", "op": "BatchMatMulV2", "input": ["StatefulPartitionedCall/functional_16_1/transformer_block_1_2/multi_head_attention_9_1/attention_output_1/Reshape", "StatefulPartitionedCall/functional_16_1/transformer_block_1_2/multi_head_attention_9_1/attention_output_1/Reshape_1"], "attr": {"grad_y": {"b": false}, "T": {"type": "DT_FLOAT"}, "adj_y": {"b": false}, "grad_x": {"b": false}, "adj_x": {"b": false}}}, {"name": "StatefulPartitionedCall/functional_16_1/transformer_block_1_2/multi_head_attention_9_1/attention_output_1/BiasAdd", "op": "BiasAdd", "input": ["StatefulPartitionedCall/functional_16_1/transformer_block_1_2/multi_head_attention_9_1/attention_output_1/MatMul", "StatefulPartitionedCall/functional_16_1/transformer_block_1_2/multi_head_attention_9_1/attention_output_1/BiasAdd/ReadVariableOp"], "attr": {"T": {"type": "DT_FLOAT"}, "data_format": {"s": "TkhXQw=="}, "_input_shapes": {"list": {"shape": [{"dim": [{"size": "-2"}, {"size": "64"}, {"size": "256"}]}, {"dim": [{"size": "256"}]}]}}}}, {"name": "StatefulPartitionedCall/functional_16_1/transformer_block_1_2/add", "op": "AddV2", "input": ["StatefulPartitionedCall/functional_16_1/transformer_block_1/add_1", "StatefulPartitionedCall/functional_16_1/transformer_block_1_2/multi_head_attention_9_1/attention_output_1/BiasAdd"], "attr": {"T": {"type": "DT_FLOAT"}}}, {"name": "StatefulPartitionedCall/functional_16_1/transformer_block_1_2/layer_normalization_19_1/moments/mean", "op": "Mean", "input": ["StatefulPartitionedCall/functional_16_1/transformer_block_1_2/add", "StatefulPartitionedCall/functional_16_1/transformer_block_1_2/layer_normalization_19_1/moments/mean/reduction_indices"], "attr": {"T": {"type": "DT_FLOAT"}, "Tidx": {"type": "DT_INT32"}, "keep_dims": {"b": true}}}, {"name": "StatefulPartitionedCall/functional_16_1/transformer_block_1_2/layer_normalization_19_1/Neg", "op": "Neg", "input": ["StatefulPartitionedCall/functional_16_1/transformer_block_1_2/layer_normalization_19_1/moments/mean"], "attr": {"T": {"type": "DT_FLOAT"}}}, {"name": "StatefulPartitionedCall/functional_16_1/transformer_block_1_2/layer_normalization_19_1/moments/SquaredDifference", "op": "SquaredDifference", "input": ["StatefulPartitionedCall/functional_16_1/transformer_block_1_2/add", "StatefulPartitionedCall/functional_16_1/transformer_block_1_2/layer_normalization_19_1/moments/mean"], "attr": {"T": {"type": "DT_FLOAT"}}}, {"name": "StatefulPartitionedCall/functional_16_1/transformer_block_1_2/layer_normalization_19_1/moments/variance", "op": "Mean", "input": ["StatefulPartitionedCall/functional_16_1/transformer_block_1_2/layer_normalization_19_1/moments/SquaredDifference", "StatefulPartitionedCall/functional_16_1/transformer_block_1_2/layer_normalization_19_1/moments/variance/reduction_indices"], "attr": {"T": {"type": "DT_FLOAT"}, "Tidx": {"type": "DT_INT32"}, "keep_dims": {"b": true}}}, {"name": "StatefulPartitionedCall/functional_16_1/transformer_block_1_2/layer_normalization_19_1/add", "op": "AddV2", "input": ["StatefulPartitionedCall/functional_16_1/transformer_block_1_2/layer_normalization_19_1/moments/variance", "StatefulPartitionedCall/functional_16_1/transformer_block_1_2/layer_normalization_19_1/add/y"], "attr": {"T": {"type": "DT_FLOAT"}}}, {"name": "StatefulPartitionedCall/functional_16_1/transformer_block_1_2/layer_normalization_19_1/Rsqrt", "op": "Rsqrt", "input": ["StatefulPartitionedCall/functional_16_1/transformer_block_1_2/layer_normalization_19_1/add"], "attr": {"T": {"type": "DT_FLOAT"}}}, {"name": "StatefulPartitionedCall/functional_16_1/transformer_block_1_2/layer_normalization_19_1/mul", "op": "Mul", "input": ["StatefulPartitionedCall/functional_16_1/transformer_block_1_2/layer_normalization_19_1/Rsqrt", "StatefulPartitionedCall/functional_16_1/transformer_block_1_2/layer_normalization_19_1/Reshape"], "attr": {"T": {"type": "DT_FLOAT"}}}, {"name": "StatefulPartitionedCall/functional_16_1/transformer_block_1_2/layer_normalization_19_1/mul_1", "op": "Mul", "input": ["StatefulPartitionedCall/functional_16_1/transformer_block_1_2/layer_normalization_19_1/Neg", "StatefulPartitionedCall/functional_16_1/transformer_block_1_2/layer_normalization_19_1/mul"], "attr": {"T": {"type": "DT_FLOAT"}}}, {"name": "StatefulPartitionedCall/functional_16_1/transformer_block_1_2/layer_normalization_19_1/mul_2", "op": "Mul", "input": ["StatefulPartitionedCall/functional_16_1/transformer_block_1_2/add", "StatefulPartitionedCall/functional_16_1/transformer_block_1_2/layer_normalization_19_1/mul"], "attr": {"T": {"type": "DT_FLOAT"}}}, {"name": "StatefulPartitionedCall/functional_16_1/transformer_block_1_2/layer_normalization_19_1/ArithmeticOptimizer/AddOpsRewrite_Leaf_1_add_2", "op": "AddN", "input": ["StatefulPartitionedCall/functional_16_1/transformer_block_1_2/layer_normalization_19_1/mul_2", "StatefulPartitionedCall/functional_16_1/transformer_block_1_2/layer_normalization_19_1/mul_1"], "attr": {"N": {"i": "2"}, "T": {"type": "DT_FLOAT"}, "_grappler_ArithmeticOptimizer_AddOpsRewriteStage": {"b": true}}}, {"name": "StatefulPartitionedCall/functional_16_1/transformer_block_1_2/layer_normalization_19_1/ArithmeticOptimizer/AddOpsRewrite_add_2", "op": "AddV2", "input": ["StatefulPartitionedCall/functional_16_1/transformer_block_1_2/layer_normalization_19_1/Reshape_1", "StatefulPartitionedCall/functional_16_1/transformer_block_1_2/layer_normalization_19_1/ArithmeticOptimizer/AddOpsRewrite_Leaf_1_add_2"], "attr": {"_grappler_ArithmeticOptimizer_AddOpsRewriteStage": {"b": true}, "T": {"type": "DT_FLOAT"}}}, {"name": "StatefulPartitionedCall/functional_16_1/transformer_block_1_2/sequential_9_1/dense_19_1/MatMul", "op": "BatchMatMulV2", "input": ["StatefulPartitionedCall/functional_16_1/transformer_block_1_2/layer_normalization_19_1/ArithmeticOptimizer/AddOpsRewrite_add_2", "StatefulPartitionedCall/functional_16_1/transformer_block_1_2/sequential_9_1/dense_19_1/Cast/ReadVariableOp"], "attr": {"grad_y": {"b": false}, "T": {"type": "DT_FLOAT"}, "adj_y": {"b": false}, "grad_x": {"b": false}, "adj_x": {"b": false}}}, {"name": "StatefulPartitionedCall/functional_16_1/transformer_block_1_2/sequential_9_1/dense_19_1/BiasAdd", "op": "BiasAdd", "input": ["StatefulPartitionedCall/functional_16_1/transformer_block_1_2/sequential_9_1/dense_19_1/MatMul", "StatefulPartitionedCall/functional_16_1/transformer_block_1_2/sequential_9_1/dense_19_1/BiasAdd/ReadVariableOp"], "attr": {"T": {"type": "DT_FLOAT"}, "data_format": {"s": "TkhXQw=="}, "_input_shapes": {"list": {"shape": [{"dim": [{"size": "-2"}, {"size": "64"}, {"size": "1024"}]}, {"dim": [{"size": "1024"}]}]}}}}, {"name": "StatefulPartitionedCall/functional_16_1/transformer_block_1_2/sequential_9_1/dense_19_1/Pow", "op": "Pow", "input": ["StatefulPartitionedCall/functional_16_1/transformer_block_1_2/sequential_9_1/dense_19_1/BiasAdd", "StatefulPartitionedCall/functional_16_1/transformer_block_1_2/sequential_9_1/dense_19_1/Pow/y"], "attr": {"T": {"type": "DT_FLOAT"}}}, {"name": "StatefulPartitionedCall/functional_16_1/transformer_block_1_2/sequential_9_1/dense_19_1/mul", "op": "Mul", "input": ["StatefulPartitionedCall/functional_16_1/transformer_block_1_2/sequential_9_1/dense_19_1/mul/x", "StatefulPartitionedCall/functional_16_1/transformer_block_1_2/sequential_9_1/dense_19_1/Pow"], "attr": {"T": {"type": "DT_FLOAT"}}}, {"name": "StatefulPartitionedCall/functional_16_1/transformer_block_1_2/sequential_9_1/dense_19_1/add", "op": "AddV2", "input": ["StatefulPartitionedCall/functional_16_1/transformer_block_1_2/sequential_9_1/dense_19_1/BiasAdd", "StatefulPartitionedCall/functional_16_1/transformer_block_1_2/sequential_9_1/dense_19_1/mul"], "attr": {"T": {"type": "DT_FLOAT"}}}, {"name": "StatefulPartitionedCall/functional_16_1/transformer_block_1_2/sequential_9_1/dense_19_1/mul_1", "op": "Mul", "input": ["StatefulPartitionedCall/functional_16_1/transformer_block_1_2/sequential_9_1/dense_19_1/mul_1/x", "StatefulPartitionedCall/functional_16_1/transformer_block_1_2/sequential_9_1/dense_19_1/add"], "attr": {"T": {"type": "DT_FLOAT"}}}, {"name": "StatefulPartitionedCall/functional_16_1/transformer_block_1_2/sequential_9_1/dense_19_1/Sigmoid", "op": "Sigmoid", "input": ["StatefulPartitionedCall/functional_16_1/transformer_block_1_2/sequential_9_1/dense_19_1/mul_1"], "attr": {"T": {"type": "DT_FLOAT"}, "_input_shapes": {"list": {"shape": [{"dim": [{"size": "-2"}, {"size": "64"}, {"size": "1024"}]}]}}}}, {"name": "StatefulPartitionedCall/functional_16_1/transformer_block_1_2/sequential_9_1/dense_19_1/mul_2", "op": "Mul", "input": ["StatefulPartitionedCall/functional_16_1/transformer_block_1_2/sequential_9_1/dense_19_1/BiasAdd", "StatefulPartitionedCall/functional_16_1/transformer_block_1_2/sequential_9_1/dense_19_1/Sigmoid"], "attr": {"T": {"type": "DT_FLOAT"}}}, {"name": "StatefulPartitionedCall/functional_16_1/transformer_block_1_2/sequential_9_1/dense_20_1/MatMul", "op": "BatchMatMulV2", "input": ["StatefulPartitionedCall/functional_16_1/transformer_block_1_2/sequential_9_1/dense_19_1/mul_2", "StatefulPartitionedCall/functional_16_1/transformer_block_1_2/sequential_9_1/dense_20_1/Cast/ReadVariableOp"], "attr": {"grad_y": {"b": false}, "T": {"type": "DT_FLOAT"}, "adj_y": {"b": false}, "grad_x": {"b": false}, "adj_x": {"b": false}}}, {"name": "StatefulPartitionedCall/functional_16_1/transformer_block_1_2/sequential_9_1/dense_20_1/BiasAdd", "op": "BiasAdd", "input": ["StatefulPartitionedCall/functional_16_1/transformer_block_1_2/sequential_9_1/dense_20_1/MatMul", "StatefulPartitionedCall/functional_16_1/transformer_block_1_2/sequential_9_1/dense_20_1/BiasAdd/ReadVariableOp"], "attr": {"T": {"type": "DT_FLOAT"}, "data_format": {"s": "TkhXQw=="}, "_input_shapes": {"list": {"shape": [{"dim": [{"size": "-2"}, {"size": "64"}, {"size": "256"}]}, {"dim": [{"size": "256"}]}]}}}}, {"name": "StatefulPartitionedCall/functional_16_1/transformer_block_1_2/add_1", "op": "AddV2", "input": ["StatefulPartitionedCall/functional_16_1/transformer_block_1_2/add", "StatefulPartitionedCall/functional_16_1/transformer_block_1_2/sequential_9_1/dense_20_1/BiasAdd"], "attr": {"T": {"type": "DT_FLOAT"}}}, {"name": "StatefulPartitionedCall/functional_16_1/transformer_block_2_1/layer_normalization_20_1/moments/mean", "op": "Mean", "input": ["StatefulPartitionedCall/functional_16_1/transformer_block_1_2/add_1", "StatefulPartitionedCall/functional_16_1/transformer_block_2_1/layer_normalization_20_1/moments/mean/reduction_indices"], "attr": {"T": {"type": "DT_FLOAT"}, "Tidx": {"type": "DT_INT32"}, "keep_dims": {"b": true}}}, {"name": "StatefulPartitionedCall/functional_16_1/transformer_block_2_1/layer_normalization_20_1/Neg", "op": "Neg", "input": ["StatefulPartitionedCall/functional_16_1/transformer_block_2_1/layer_normalization_20_1/moments/mean"], "attr": {"T": {"type": "DT_FLOAT"}}}, {"name": "StatefulPartitionedCall/functional_16_1/transformer_block_2_1/layer_normalization_20_1/moments/SquaredDifference", "op": "SquaredDifference", "input": ["StatefulPartitionedCall/functional_16_1/transformer_block_1_2/add_1", "StatefulPartitionedCall/functional_16_1/transformer_block_2_1/layer_normalization_20_1/moments/mean"], "attr": {"T": {"type": "DT_FLOAT"}}}, {"name": "StatefulPartitionedCall/functional_16_1/transformer_block_2_1/layer_normalization_20_1/moments/variance", "op": "Mean", "input": ["StatefulPartitionedCall/functional_16_1/transformer_block_2_1/layer_normalization_20_1/moments/SquaredDifference", "StatefulPartitionedCall/functional_16_1/transformer_block_2_1/layer_normalization_20_1/moments/variance/reduction_indices"], "attr": {"T": {"type": "DT_FLOAT"}, "Tidx": {"type": "DT_INT32"}, "keep_dims": {"b": true}}}, {"name": "StatefulPartitionedCall/functional_16_1/transformer_block_2_1/layer_normalization_20_1/add", "op": "AddV2", "input": ["StatefulPartitionedCall/functional_16_1/transformer_block_2_1/layer_normalization_20_1/moments/variance", "StatefulPartitionedCall/functional_16_1/transformer_block_2_1/layer_normalization_20_1/add/y"], "attr": {"T": {"type": "DT_FLOAT"}}}, {"name": "StatefulPartitionedCall/functional_16_1/transformer_block_2_1/layer_normalization_20_1/Rsqrt", "op": "Rsqrt", "input": ["StatefulPartitionedCall/functional_16_1/transformer_block_2_1/layer_normalization_20_1/add"], "attr": {"T": {"type": "DT_FLOAT"}}}, {"name": "StatefulPartitionedCall/functional_16_1/transformer_block_2_1/layer_normalization_20_1/mul", "op": "Mul", "input": ["StatefulPartitionedCall/functional_16_1/transformer_block_2_1/layer_normalization_20_1/Rsqrt", "StatefulPartitionedCall/functional_16_1/transformer_block_2_1/layer_normalization_20_1/Reshape"], "attr": {"T": {"type": "DT_FLOAT"}}}, {"name": "StatefulPartitionedCall/functional_16_1/transformer_block_2_1/layer_normalization_20_1/mul_1", "op": "Mul", "input": ["StatefulPartitionedCall/functional_16_1/transformer_block_2_1/layer_normalization_20_1/Neg", "StatefulPartitionedCall/functional_16_1/transformer_block_2_1/layer_normalization_20_1/mul"], "attr": {"T": {"type": "DT_FLOAT"}}}, {"name": "StatefulPartitionedCall/functional_16_1/transformer_block_2_1/layer_normalization_20_1/mul_2", "op": "Mul", "input": ["StatefulPartitionedCall/functional_16_1/transformer_block_1_2/add_1", "StatefulPartitionedCall/functional_16_1/transformer_block_2_1/layer_normalization_20_1/mul"], "attr": {"T": {"type": "DT_FLOAT"}}}, {"name": "StatefulPartitionedCall/functional_16_1/transformer_block_2_1/layer_normalization_20_1/ArithmeticOptimizer/AddOpsRewrite_Leaf_1_add_2", "op": "AddN", "input": ["StatefulPartitionedCall/functional_16_1/transformer_block_2_1/layer_normalization_20_1/mul_2", "StatefulPartitionedCall/functional_16_1/transformer_block_2_1/layer_normalization_20_1/mul_1"], "attr": {"N": {"i": "2"}, "T": {"type": "DT_FLOAT"}, "_grappler_ArithmeticOptimizer_AddOpsRewriteStage": {"b": true}}}, {"name": "StatefulPartitionedCall/functional_16_1/transformer_block_2_1/layer_normalization_20_1/ArithmeticOptimizer/AddOpsRewrite_add_2", "op": "AddV2", "input": ["StatefulPartitionedCall/functional_16_1/transformer_block_2_1/layer_normalization_20_1/Reshape_1", "StatefulPartitionedCall/functional_16_1/transformer_block_2_1/layer_normalization_20_1/ArithmeticOptimizer/AddOpsRewrite_Leaf_1_add_2"], "attr": {"_grappler_ArithmeticOptimizer_AddOpsRewriteStage": {"b": true}, "T": {"type": "DT_FLOAT"}}}, {"name": "StatefulPartitionedCall/functional_16_1/transformer_block_2_1/multi_head_attention_10_1/query_1/MatMul", "op": "BatchMatMulV2", "input": ["StatefulPartitionedCall/functional_16_1/transformer_block_2_1/layer_normalization_20_1/ArithmeticOptimizer/AddOpsRewrite_add_2", "StatefulPartitionedCall/functional_16_1/transformer_block_2_1/multi_head_attention_10_1/query_1/Reshape"], "attr": {"grad_y": {"b": false}, "T": {"type": "DT_FLOAT"}, "adj_y": {"b": false}, "grad_x": {"b": false}, "adj_x": {"b": false}}}, {"name": "StatefulPartitionedCall/functional_16_1/transformer_block_2_1/multi_head_attention_10_1/key_1/MatMul", "op": "BatchMatMulV2", "input": ["StatefulPartitionedCall/functional_16_1/transformer_block_2_1/layer_normalization_20_1/ArithmeticOptimizer/AddOpsRewrite_add_2", "StatefulPartitionedCall/functional_16_1/transformer_block_2_1/multi_head_attention_10_1/key_1/Reshape"], "attr": {"grad_y": {"b": false}, "T": {"type": "DT_FLOAT"}, "adj_y": {"b": false}, "grad_x": {"b": false}, "adj_x": {"b": false}}}, {"name": "StatefulPartitionedCall/functional_16_1/transformer_block_2_1/multi_head_attention_10_1/value_1/MatMul", "op": "BatchMatMulV2", "input": ["StatefulPartitionedCall/functional_16_1/transformer_block_2_1/layer_normalization_20_1/ArithmeticOptimizer/AddOpsRewrite_add_2", "StatefulPartitionedCall/functional_16_1/transformer_block_2_1/multi_head_attention_10_1/value_1/Reshape"], "attr": {"grad_y": {"b": false}, "T": {"type": "DT_FLOAT"}, "adj_y": {"b": false}, "grad_x": {"b": false}, "adj_x": {"b": false}}}, {"name": "StatefulPartitionedCall/functional_16_1/transformer_block_2_1/multi_head_attention_10_1/query_1/Reshape_1", "op": "Reshape", "input": ["StatefulPartitionedCall/functional_16_1/transformer_block_2_1/multi_head_attention_10_1/query_1/MatMul", "StatefulPartitionedCall/functional_16_1/transformer_block_2_1/multi_head_attention_10_1/query_1/Reshape_1/shape"], "attr": {"Tshape": {"type": "DT_INT32"}, "T": {"type": "DT_FLOAT"}}}, {"name": "StatefulPartitionedCall/functional_16_1/transformer_block_2_1/multi_head_attention_10_1/key_1/Reshape_1", "op": "Reshape", "input": ["StatefulPartitionedCall/functional_16_1/transformer_block_2_1/multi_head_attention_10_1/key_1/MatMul", "StatefulPartitionedCall/functional_16_1/transformer_block_2_1/multi_head_attention_10_1/key_1/Reshape_1/shape"], "attr": {"T": {"type": "DT_FLOAT"}, "Tshape": {"type": "DT_INT32"}}}, {"name": "StatefulPartitionedCall/functional_16_1/transformer_block_2_1/multi_head_attention_10_1/value_1/Reshape_1", "op": "Reshape", "input": ["StatefulPartitionedCall/functional_16_1/transformer_block_2_1/multi_head_attention_10_1/value_1/MatMul", "StatefulPartitionedCall/functional_16_1/transformer_block_2_1/multi_head_attention_10_1/value_1/Reshape_1/shape"], "attr": {"Tshape": {"type": "DT_INT32"}, "T": {"type": "DT_FLOAT"}}}, {"name": "StatefulPartitionedCall/functional_16_1/transformer_block_2_1/multi_head_attention_10_1/query_1/Add", "op": "AddV2", "input": ["StatefulPartitionedCall/functional_16_1/transformer_block_2_1/multi_head_attention_10_1/query_1/Reshape_1", "StatefulPartitionedCall/functional_16_1/transformer_block_2_1/multi_head_attention_10_1/query_1/Add/ReadVariableOp"], "attr": {"T": {"type": "DT_FLOAT"}}}, {"name": "StatefulPartitionedCall/functional_16_1/transformer_block_2_1/multi_head_attention_10_1/key_1/Add", "op": "AddV2", "input": ["StatefulPartitionedCall/functional_16_1/transformer_block_2_1/multi_head_attention_10_1/key_1/Reshape_1", "StatefulPartitionedCall/functional_16_1/transformer_block_2_1/multi_head_attention_10_1/key_1/Add/ReadVariableOp"], "attr": {"T": {"type": "DT_FLOAT"}}}, {"name": "StatefulPartitionedCall/functional_16_1/transformer_block_2_1/multi_head_attention_10_1/value_1/Add", "op": "AddV2", "input": ["StatefulPartitionedCall/functional_16_1/transformer_block_2_1/multi_head_attention_10_1/value_1/Reshape_1", "StatefulPartitionedCall/functional_16_1/transformer_block_2_1/multi_head_attention_10_1/value_1/Add/ReadVariableOp"], "attr": {"T": {"type": "DT_FLOAT"}}}, {"name": "StatefulPartitionedCall/functional_16_1/transformer_block_2_1/multi_head_attention_10_1/einsum/Einsum", "op": "Einsum", "input": ["StatefulPartitionedCall/functional_16_1/transformer_block_2_1/multi_head_attention_10_1/query_1/Add", "StatefulPartitionedCall/functional_16_1/transformer_block_2_1/multi_head_attention_10_1/key_1/Add"], "attr": {"equation": {"s": "QlROSCxCU05ILT5CTlRT"}, "T": {"type": "DT_FLOAT"}, "N": {"i": "2"}}}, {"name": "StatefulPartitionedCall/functional_16_1/transformer_block_2_1/multi_head_attention_10_1/Mul", "op": "Mul", "input": ["StatefulPartitionedCall/functional_16_1/transformer_block_2_1/multi_head_attention_10_1/einsum/Einsum", "StatefulPartitionedCall/functional_16_1/transformer_block_2_1/multi_head_attention_10_1/Cast/x"], "attr": {"T": {"type": "DT_FLOAT"}}}, {"name": "StatefulPartitionedCall/functional_16_1/transformer_block_2_1/multi_head_attention_10_1/Softmax", "op": "Softmax", "input": ["StatefulPartitionedCall/functional_16_1/transformer_block_2_1/multi_head_attention_10_1/Mul"], "attr": {"T": {"type": "DT_FLOAT"}}}, {"name": "StatefulPartitionedCall/functional_16_1/transformer_block_2_1/multi_head_attention_10_1/einsum_1/Einsum", "op": "Einsum", "input": ["StatefulPartitionedCall/functional_16_1/transformer_block_2_1/multi_head_attention_10_1/Softmax", "StatefulPartitionedCall/functional_16_1/transformer_block_2_1/multi_head_attention_10_1/value_1/Add"], "attr": {"N": {"i": "2"}, "T": {"type": "DT_FLOAT"}, "equation": {"s": "Qk5UUyxCU05ILT5CVE5I"}}}, {"name": "StatefulPartitionedCall/functional_16_1/transformer_block_2_1/multi_head_attention_10_1/attention_output_1/Reshape", "op": "Reshape", "input": ["StatefulPartitionedCall/functional_16_1/transformer_block_2_1/multi_head_attention_10_1/einsum_1/Einsum", "StatefulPartitionedCall/functional_16_1/transformer_block_2_1/multi_head_attention_10_1/attention_output_1/Reshape/shape"], "attr": {"Tshape": {"type": "DT_INT32"}, "T": {"type": "DT_FLOAT"}}}, {"name": "StatefulPartitionedCall/functional_16_1/transformer_block_2_1/multi_head_attention_10_1/attention_output_1/MatMul", "op": "BatchMatMulV2", "input": ["StatefulPartitionedCall/functional_16_1/transformer_block_2_1/multi_head_attention_10_1/attention_output_1/Reshape", "StatefulPartitionedCall/functional_16_1/transformer_block_2_1/multi_head_attention_10_1/attention_output_1/Reshape_1"], "attr": {"grad_y": {"b": false}, "T": {"type": "DT_FLOAT"}, "adj_y": {"b": false}, "grad_x": {"b": false}, "adj_x": {"b": false}}}, {"name": "StatefulPartitionedCall/functional_16_1/transformer_block_2_1/multi_head_attention_10_1/attention_output_1/BiasAdd", "op": "BiasAdd", "input": ["StatefulPartitionedCall/functional_16_1/transformer_block_2_1/multi_head_attention_10_1/attention_output_1/MatMul", "StatefulPartitionedCall/functional_16_1/transformer_block_2_1/multi_head_attention_10_1/attention_output_1/BiasAdd/ReadVariableOp"], "attr": {"T": {"type": "DT_FLOAT"}, "data_format": {"s": "TkhXQw=="}, "_input_shapes": {"list": {"shape": [{"dim": [{"size": "-2"}, {"size": "64"}, {"size": "256"}]}, {"dim": [{"size": "256"}]}]}}}}, {"name": "StatefulPartitionedCall/functional_16_1/transformer_block_2_1/add", "op": "AddV2", "input": ["StatefulPartitionedCall/functional_16_1/transformer_block_1_2/add_1", "StatefulPartitionedCall/functional_16_1/transformer_block_2_1/multi_head_attention_10_1/attention_output_1/BiasAdd"], "attr": {"T": {"type": "DT_FLOAT"}}}, {"name": "StatefulPartitionedCall/functional_16_1/transformer_block_2_1/layer_normalization_21_1/moments/mean", "op": "Mean", "input": ["StatefulPartitionedCall/functional_16_1/transformer_block_2_1/add", "StatefulPartitionedCall/functional_16_1/transformer_block_2_1/layer_normalization_21_1/moments/mean/reduction_indices"], "attr": {"T": {"type": "DT_FLOAT"}, "Tidx": {"type": "DT_INT32"}, "keep_dims": {"b": true}}}, {"name": "StatefulPartitionedCall/functional_16_1/transformer_block_2_1/layer_normalization_21_1/Neg", "op": "Neg", "input": ["StatefulPartitionedCall/functional_16_1/transformer_block_2_1/layer_normalization_21_1/moments/mean"], "attr": {"T": {"type": "DT_FLOAT"}}}, {"name": "StatefulPartitionedCall/functional_16_1/transformer_block_2_1/layer_normalization_21_1/moments/SquaredDifference", "op": "SquaredDifference", "input": ["StatefulPartitionedCall/functional_16_1/transformer_block_2_1/add", "StatefulPartitionedCall/functional_16_1/transformer_block_2_1/layer_normalization_21_1/moments/mean"], "attr": {"T": {"type": "DT_FLOAT"}}}, {"name": "StatefulPartitionedCall/functional_16_1/transformer_block_2_1/layer_normalization_21_1/moments/variance", "op": "Mean", "input": ["StatefulPartitionedCall/functional_16_1/transformer_block_2_1/layer_normalization_21_1/moments/SquaredDifference", "StatefulPartitionedCall/functional_16_1/transformer_block_2_1/layer_normalization_21_1/moments/variance/reduction_indices"], "attr": {"T": {"type": "DT_FLOAT"}, "Tidx": {"type": "DT_INT32"}, "keep_dims": {"b": true}}}, {"name": "StatefulPartitionedCall/functional_16_1/transformer_block_2_1/layer_normalization_21_1/add", "op": "AddV2", "input": ["StatefulPartitionedCall/functional_16_1/transformer_block_2_1/layer_normalization_21_1/moments/variance", "StatefulPartitionedCall/functional_16_1/transformer_block_2_1/layer_normalization_21_1/add/y"], "attr": {"T": {"type": "DT_FLOAT"}}}, {"name": "StatefulPartitionedCall/functional_16_1/transformer_block_2_1/layer_normalization_21_1/Rsqrt", "op": "Rsqrt", "input": ["StatefulPartitionedCall/functional_16_1/transformer_block_2_1/layer_normalization_21_1/add"], "attr": {"T": {"type": "DT_FLOAT"}}}, {"name": "StatefulPartitionedCall/functional_16_1/transformer_block_2_1/layer_normalization_21_1/mul", "op": "Mul", "input": ["StatefulPartitionedCall/functional_16_1/transformer_block_2_1/layer_normalization_21_1/Rsqrt", "StatefulPartitionedCall/functional_16_1/transformer_block_2_1/layer_normalization_21_1/Reshape"], "attr": {"T": {"type": "DT_FLOAT"}}}, {"name": "StatefulPartitionedCall/functional_16_1/transformer_block_2_1/layer_normalization_21_1/mul_1", "op": "Mul", "input": ["StatefulPartitionedCall/functional_16_1/transformer_block_2_1/layer_normalization_21_1/Neg", "StatefulPartitionedCall/functional_16_1/transformer_block_2_1/layer_normalization_21_1/mul"], "attr": {"T": {"type": "DT_FLOAT"}}}, {"name": "StatefulPartitionedCall/functional_16_1/transformer_block_2_1/layer_normalization_21_1/mul_2", "op": "Mul", "input": ["StatefulPartitionedCall/functional_16_1/transformer_block_2_1/add", "StatefulPartitionedCall/functional_16_1/transformer_block_2_1/layer_normalization_21_1/mul"], "attr": {"T": {"type": "DT_FLOAT"}}}, {"name": "StatefulPartitionedCall/functional_16_1/transformer_block_2_1/layer_normalization_21_1/ArithmeticOptimizer/AddOpsRewrite_Leaf_1_add_2", "op": "AddN", "input": ["StatefulPartitionedCall/functional_16_1/transformer_block_2_1/layer_normalization_21_1/mul_2", "StatefulPartitionedCall/functional_16_1/transformer_block_2_1/layer_normalization_21_1/mul_1"], "attr": {"N": {"i": "2"}, "_grappler_ArithmeticOptimizer_AddOpsRewriteStage": {"b": true}, "T": {"type": "DT_FLOAT"}}}, {"name": "StatefulPartitionedCall/functional_16_1/transformer_block_2_1/layer_normalization_21_1/ArithmeticOptimizer/AddOpsRewrite_add_2", "op": "AddV2", "input": ["StatefulPartitionedCall/functional_16_1/transformer_block_2_1/layer_normalization_21_1/Reshape_1", "StatefulPartitionedCall/functional_16_1/transformer_block_2_1/layer_normalization_21_1/ArithmeticOptimizer/AddOpsRewrite_Leaf_1_add_2"], "attr": {"T": {"type": "DT_FLOAT"}, "_grappler_ArithmeticOptimizer_AddOpsRewriteStage": {"b": true}}}, {"name": "StatefulPartitionedCall/functional_16_1/transformer_block_2_1/sequential_10_1/dense_21_1/MatMul", "op": "BatchMatMulV2", "input": ["StatefulPartitionedCall/functional_16_1/transformer_block_2_1/layer_normalization_21_1/ArithmeticOptimizer/AddOpsRewrite_add_2", "StatefulPartitionedCall/functional_16_1/transformer_block_2_1/sequential_10_1/dense_21_1/Cast/ReadVariableOp"], "attr": {"grad_y": {"b": false}, "T": {"type": "DT_FLOAT"}, "adj_y": {"b": false}, "grad_x": {"b": false}, "adj_x": {"b": false}}}, {"name": "StatefulPartitionedCall/functional_16_1/transformer_block_2_1/sequential_10_1/dense_21_1/BiasAdd", "op": "BiasAdd", "input": ["StatefulPartitionedCall/functional_16_1/transformer_block_2_1/sequential_10_1/dense_21_1/MatMul", "StatefulPartitionedCall/functional_16_1/transformer_block_2_1/sequential_10_1/dense_21_1/BiasAdd/ReadVariableOp"], "attr": {"T": {"type": "DT_FLOAT"}, "data_format": {"s": "TkhXQw=="}, "_input_shapes": {"list": {"shape": [{"dim": [{"size": "-2"}, {"size": "64"}, {"size": "1024"}]}, {"dim": [{"size": "1024"}]}]}}}}, {"name": "StatefulPartitionedCall/functional_16_1/transformer_block_2_1/sequential_10_1/dense_21_1/Pow", "op": "Pow", "input": ["StatefulPartitionedCall/functional_16_1/transformer_block_2_1/sequential_10_1/dense_21_1/BiasAdd", "StatefulPartitionedCall/functional_16_1/transformer_block_2_1/sequential_10_1/dense_21_1/Pow/y"], "attr": {"T": {"type": "DT_FLOAT"}}}, {"name": "StatefulPartitionedCall/functional_16_1/transformer_block_2_1/sequential_10_1/dense_21_1/mul", "op": "Mul", "input": ["StatefulPartitionedCall/functional_16_1/transformer_block_2_1/sequential_10_1/dense_21_1/mul/x", "StatefulPartitionedCall/functional_16_1/transformer_block_2_1/sequential_10_1/dense_21_1/Pow"], "attr": {"T": {"type": "DT_FLOAT"}}}, {"name": "StatefulPartitionedCall/functional_16_1/transformer_block_2_1/sequential_10_1/dense_21_1/add", "op": "AddV2", "input": ["StatefulPartitionedCall/functional_16_1/transformer_block_2_1/sequential_10_1/dense_21_1/BiasAdd", "StatefulPartitionedCall/functional_16_1/transformer_block_2_1/sequential_10_1/dense_21_1/mul"], "attr": {"T": {"type": "DT_FLOAT"}}}, {"name": "StatefulPartitionedCall/functional_16_1/transformer_block_2_1/sequential_10_1/dense_21_1/mul_1", "op": "Mul", "input": ["StatefulPartitionedCall/functional_16_1/transformer_block_2_1/sequential_10_1/dense_21_1/mul_1/x", "StatefulPartitionedCall/functional_16_1/transformer_block_2_1/sequential_10_1/dense_21_1/add"], "attr": {"T": {"type": "DT_FLOAT"}}}, {"name": "StatefulPartitionedCall/functional_16_1/transformer_block_2_1/sequential_10_1/dense_21_1/Sigmoid", "op": "Sigmoid", "input": ["StatefulPartitionedCall/functional_16_1/transformer_block_2_1/sequential_10_1/dense_21_1/mul_1"], "attr": {"T": {"type": "DT_FLOAT"}, "_input_shapes": {"list": {"shape": [{"dim": [{"size": "-2"}, {"size": "64"}, {"size": "1024"}]}]}}}}, {"name": "StatefulPartitionedCall/functional_16_1/transformer_block_2_1/sequential_10_1/dense_21_1/mul_2", "op": "Mul", "input": ["StatefulPartitionedCall/functional_16_1/transformer_block_2_1/sequential_10_1/dense_21_1/BiasAdd", "StatefulPartitionedCall/functional_16_1/transformer_block_2_1/sequential_10_1/dense_21_1/Sigmoid"], "attr": {"T": {"type": "DT_FLOAT"}}}, {"name": "StatefulPartitionedCall/functional_16_1/transformer_block_2_1/sequential_10_1/dense_22_1/MatMul", "op": "BatchMatMulV2", "input": ["StatefulPartitionedCall/functional_16_1/transformer_block_2_1/sequential_10_1/dense_21_1/mul_2", "StatefulPartitionedCall/functional_16_1/transformer_block_2_1/sequential_10_1/dense_22_1/Cast/ReadVariableOp"], "attr": {"grad_y": {"b": false}, "T": {"type": "DT_FLOAT"}, "adj_y": {"b": false}, "grad_x": {"b": false}, "adj_x": {"b": false}}}, {"name": "StatefulPartitionedCall/functional_16_1/transformer_block_2_1/sequential_10_1/dense_22_1/BiasAdd", "op": "BiasAdd", "input": ["StatefulPartitionedCall/functional_16_1/transformer_block_2_1/sequential_10_1/dense_22_1/MatMul", "StatefulPartitionedCall/functional_16_1/transformer_block_2_1/sequential_10_1/dense_22_1/BiasAdd/ReadVariableOp"], "attr": {"T": {"type": "DT_FLOAT"}, "data_format": {"s": "TkhXQw=="}, "_input_shapes": {"list": {"shape": [{"dim": [{"size": "-2"}, {"size": "64"}, {"size": "256"}]}, {"dim": [{"size": "256"}]}]}}}}, {"name": "StatefulPartitionedCall/functional_16_1/transformer_block_2_1/add_1", "op": "AddV2", "input": ["StatefulPartitionedCall/functional_16_1/transformer_block_2_1/add", "StatefulPartitionedCall/functional_16_1/transformer_block_2_1/sequential_10_1/dense_22_1/BiasAdd"], "attr": {"T": {"type": "DT_FLOAT"}}}, {"name": "StatefulPartitionedCall/functional_16_1/transformer_block_3_1/layer_normalization_22_1/moments/mean", "op": "Mean", "input": ["StatefulPartitionedCall/functional_16_1/transformer_block_2_1/add_1", "StatefulPartitionedCall/functional_16_1/transformer_block_3_1/layer_normalization_22_1/moments/mean/reduction_indices"], "attr": {"T": {"type": "DT_FLOAT"}, "Tidx": {"type": "DT_INT32"}, "keep_dims": {"b": true}}}, {"name": "StatefulPartitionedCall/functional_16_1/transformer_block_3_1/layer_normalization_22_1/Neg", "op": "Neg", "input": ["StatefulPartitionedCall/functional_16_1/transformer_block_3_1/layer_normalization_22_1/moments/mean"], "attr": {"T": {"type": "DT_FLOAT"}}}, {"name": "StatefulPartitionedCall/functional_16_1/transformer_block_3_1/layer_normalization_22_1/moments/SquaredDifference", "op": "SquaredDifference", "input": ["StatefulPartitionedCall/functional_16_1/transformer_block_2_1/add_1", "StatefulPartitionedCall/functional_16_1/transformer_block_3_1/layer_normalization_22_1/moments/mean"], "attr": {"T": {"type": "DT_FLOAT"}}}, {"name": "StatefulPartitionedCall/functional_16_1/transformer_block_3_1/layer_normalization_22_1/moments/variance", "op": "Mean", "input": ["StatefulPartitionedCall/functional_16_1/transformer_block_3_1/layer_normalization_22_1/moments/SquaredDifference", "StatefulPartitionedCall/functional_16_1/transformer_block_3_1/layer_normalization_22_1/moments/variance/reduction_indices"], "attr": {"T": {"type": "DT_FLOAT"}, "Tidx": {"type": "DT_INT32"}, "keep_dims": {"b": true}}}, {"name": "StatefulPartitionedCall/functional_16_1/transformer_block_3_1/layer_normalization_22_1/add", "op": "AddV2", "input": ["StatefulPartitionedCall/functional_16_1/transformer_block_3_1/layer_normalization_22_1/moments/variance", "StatefulPartitionedCall/functional_16_1/transformer_block_3_1/layer_normalization_22_1/add/y"], "attr": {"T": {"type": "DT_FLOAT"}}}, {"name": "StatefulPartitionedCall/functional_16_1/transformer_block_3_1/layer_normalization_22_1/Rsqrt", "op": "Rsqrt", "input": ["StatefulPartitionedCall/functional_16_1/transformer_block_3_1/layer_normalization_22_1/add"], "attr": {"T": {"type": "DT_FLOAT"}}}, {"name": "StatefulPartitionedCall/functional_16_1/transformer_block_3_1/layer_normalization_22_1/mul", "op": "Mul", "input": ["StatefulPartitionedCall/functional_16_1/transformer_block_3_1/layer_normalization_22_1/Rsqrt", "StatefulPartitionedCall/functional_16_1/transformer_block_3_1/layer_normalization_22_1/Reshape"], "attr": {"T": {"type": "DT_FLOAT"}}}, {"name": "StatefulPartitionedCall/functional_16_1/transformer_block_3_1/layer_normalization_22_1/mul_1", "op": "Mul", "input": ["StatefulPartitionedCall/functional_16_1/transformer_block_3_1/layer_normalization_22_1/Neg", "StatefulPartitionedCall/functional_16_1/transformer_block_3_1/layer_normalization_22_1/mul"], "attr": {"T": {"type": "DT_FLOAT"}}}, {"name": "StatefulPartitionedCall/functional_16_1/transformer_block_3_1/layer_normalization_22_1/mul_2", "op": "Mul", "input": ["StatefulPartitionedCall/functional_16_1/transformer_block_2_1/add_1", "StatefulPartitionedCall/functional_16_1/transformer_block_3_1/layer_normalization_22_1/mul"], "attr": {"T": {"type": "DT_FLOAT"}}}, {"name": "StatefulPartitionedCall/functional_16_1/transformer_block_3_1/layer_normalization_22_1/ArithmeticOptimizer/AddOpsRewrite_Leaf_1_add_2", "op": "AddN", "input": ["StatefulPartitionedCall/functional_16_1/transformer_block_3_1/layer_normalization_22_1/mul_2", "StatefulPartitionedCall/functional_16_1/transformer_block_3_1/layer_normalization_22_1/mul_1"], "attr": {"N": {"i": "2"}, "_grappler_ArithmeticOptimizer_AddOpsRewriteStage": {"b": true}, "T": {"type": "DT_FLOAT"}}}, {"name": "StatefulPartitionedCall/functional_16_1/transformer_block_3_1/layer_normalization_22_1/ArithmeticOptimizer/AddOpsRewrite_add_2", "op": "AddV2", "input": ["StatefulPartitionedCall/functional_16_1/transformer_block_3_1/layer_normalization_22_1/Reshape_1", "StatefulPartitionedCall/functional_16_1/transformer_block_3_1/layer_normalization_22_1/ArithmeticOptimizer/AddOpsRewrite_Leaf_1_add_2"], "attr": {"_grappler_ArithmeticOptimizer_AddOpsRewriteStage": {"b": true}, "T": {"type": "DT_FLOAT"}}}, {"name": "StatefulPartitionedCall/functional_16_1/transformer_block_3_1/multi_head_attention_11_1/query_1/MatMul", "op": "BatchMatMulV2", "input": ["StatefulPartitionedCall/functional_16_1/transformer_block_3_1/layer_normalization_22_1/ArithmeticOptimizer/AddOpsRewrite_add_2", "StatefulPartitionedCall/functional_16_1/transformer_block_3_1/multi_head_attention_11_1/query_1/Reshape"], "attr": {"grad_y": {"b": false}, "T": {"type": "DT_FLOAT"}, "adj_y": {"b": false}, "grad_x": {"b": false}, "adj_x": {"b": false}}}, {"name": "StatefulPartitionedCall/functional_16_1/transformer_block_3_1/multi_head_attention_11_1/key_1/MatMul", "op": "BatchMatMulV2", "input": ["StatefulPartitionedCall/functional_16_1/transformer_block_3_1/layer_normalization_22_1/ArithmeticOptimizer/AddOpsRewrite_add_2", "StatefulPartitionedCall/functional_16_1/transformer_block_3_1/multi_head_attention_11_1/key_1/Reshape"], "attr": {"grad_y": {"b": false}, "T": {"type": "DT_FLOAT"}, "adj_y": {"b": false}, "grad_x": {"b": false}, "adj_x": {"b": false}}}, {"name": "StatefulPartitionedCall/functional_16_1/transformer_block_3_1/multi_head_attention_11_1/value_1/MatMul", "op": "BatchMatMulV2", "input": ["StatefulPartitionedCall/functional_16_1/transformer_block_3_1/layer_normalization_22_1/ArithmeticOptimizer/AddOpsRewrite_add_2", "StatefulPartitionedCall/functional_16_1/transformer_block_3_1/multi_head_attention_11_1/value_1/Reshape"], "attr": {"grad_y": {"b": false}, "T": {"type": "DT_FLOAT"}, "adj_y": {"b": false}, "grad_x": {"b": false}, "adj_x": {"b": false}}}, {"name": "StatefulPartitionedCall/functional_16_1/transformer_block_3_1/multi_head_attention_11_1/query_1/Reshape_1", "op": "Reshape", "input": ["StatefulPartitionedCall/functional_16_1/transformer_block_3_1/multi_head_attention_11_1/query_1/MatMul", "StatefulPartitionedCall/functional_16_1/transformer_block_3_1/multi_head_attention_11_1/query_1/Reshape_1/shape"], "attr": {"T": {"type": "DT_FLOAT"}, "Tshape": {"type": "DT_INT32"}}}, {"name": "StatefulPartitionedCall/functional_16_1/transformer_block_3_1/multi_head_attention_11_1/key_1/Reshape_1", "op": "Reshape", "input": ["StatefulPartitionedCall/functional_16_1/transformer_block_3_1/multi_head_attention_11_1/key_1/MatMul", "StatefulPartitionedCall/functional_16_1/transformer_block_3_1/multi_head_attention_11_1/key_1/Reshape_1/shape"], "attr": {"Tshape": {"type": "DT_INT32"}, "T": {"type": "DT_FLOAT"}}}, {"name": "StatefulPartitionedCall/functional_16_1/transformer_block_3_1/multi_head_attention_11_1/value_1/Reshape_1", "op": "Reshape", "input": ["StatefulPartitionedCall/functional_16_1/transformer_block_3_1/multi_head_attention_11_1/value_1/MatMul", "StatefulPartitionedCall/functional_16_1/transformer_block_3_1/multi_head_attention_11_1/value_1/Reshape_1/shape"], "attr": {"Tshape": {"type": "DT_INT32"}, "T": {"type": "DT_FLOAT"}}}, {"name": "StatefulPartitionedCall/functional_16_1/transformer_block_3_1/multi_head_attention_11_1/query_1/Add", "op": "AddV2", "input": ["StatefulPartitionedCall/functional_16_1/transformer_block_3_1/multi_head_attention_11_1/query_1/Reshape_1", "StatefulPartitionedCall/functional_16_1/transformer_block_3_1/multi_head_attention_11_1/query_1/Add/ReadVariableOp"], "attr": {"T": {"type": "DT_FLOAT"}}}, {"name": "StatefulPartitionedCall/functional_16_1/transformer_block_3_1/multi_head_attention_11_1/key_1/Add", "op": "AddV2", "input": ["StatefulPartitionedCall/functional_16_1/transformer_block_3_1/multi_head_attention_11_1/key_1/Reshape_1", "StatefulPartitionedCall/functional_16_1/transformer_block_3_1/multi_head_attention_11_1/key_1/Add/ReadVariableOp"], "attr": {"T": {"type": "DT_FLOAT"}}}, {"name": "StatefulPartitionedCall/functional_16_1/transformer_block_3_1/multi_head_attention_11_1/value_1/Add", "op": "AddV2", "input": ["StatefulPartitionedCall/functional_16_1/transformer_block_3_1/multi_head_attention_11_1/value_1/Reshape_1", "StatefulPartitionedCall/functional_16_1/transformer_block_3_1/multi_head_attention_11_1/value_1/Add/ReadVariableOp"], "attr": {"T": {"type": "DT_FLOAT"}}}, {"name": "StatefulPartitionedCall/functional_16_1/transformer_block_3_1/multi_head_attention_11_1/einsum/Einsum", "op": "Einsum", "input": ["StatefulPartitionedCall/functional_16_1/transformer_block_3_1/multi_head_attention_11_1/query_1/Add", "StatefulPartitionedCall/functional_16_1/transformer_block_3_1/multi_head_attention_11_1/key_1/Add"], "attr": {"equation": {"s": "QlROSCxCU05ILT5CTlRT"}, "T": {"type": "DT_FLOAT"}, "N": {"i": "2"}}}, {"name": "StatefulPartitionedCall/functional_16_1/transformer_block_3_1/multi_head_attention_11_1/Mul", "op": "Mul", "input": ["StatefulPartitionedCall/functional_16_1/transformer_block_3_1/multi_head_attention_11_1/einsum/Einsum", "StatefulPartitionedCall/functional_16_1/transformer_block_3_1/multi_head_attention_11_1/Cast/x"], "attr": {"T": {"type": "DT_FLOAT"}}}, {"name": "StatefulPartitionedCall/functional_16_1/transformer_block_3_1/multi_head_attention_11_1/Softmax", "op": "Softmax", "input": ["StatefulPartitionedCall/functional_16_1/transformer_block_3_1/multi_head_attention_11_1/Mul"], "attr": {"T": {"type": "DT_FLOAT"}}}, {"name": "StatefulPartitionedCall/functional_16_1/transformer_block_3_1/multi_head_attention_11_1/einsum_1/Einsum", "op": "Einsum", "input": ["StatefulPartitionedCall/functional_16_1/transformer_block_3_1/multi_head_attention_11_1/Softmax", "StatefulPartitionedCall/functional_16_1/transformer_block_3_1/multi_head_attention_11_1/value_1/Add"], "attr": {"N": {"i": "2"}, "T": {"type": "DT_FLOAT"}, "equation": {"s": "Qk5UUyxCU05ILT5CVE5I"}}}, {"name": "StatefulPartitionedCall/functional_16_1/transformer_block_3_1/multi_head_attention_11_1/attention_output_1/Reshape", "op": "Reshape", "input": ["StatefulPartitionedCall/functional_16_1/transformer_block_3_1/multi_head_attention_11_1/einsum_1/Einsum", "StatefulPartitionedCall/functional_16_1/transformer_block_3_1/multi_head_attention_11_1/attention_output_1/Reshape/shape"], "attr": {"T": {"type": "DT_FLOAT"}, "Tshape": {"type": "DT_INT32"}}}, {"name": "StatefulPartitionedCall/functional_16_1/transformer_block_3_1/multi_head_attention_11_1/attention_output_1/MatMul", "op": "BatchMatMulV2", "input": ["StatefulPartitionedCall/functional_16_1/transformer_block_3_1/multi_head_attention_11_1/attention_output_1/Reshape", "StatefulPartitionedCall/functional_16_1/transformer_block_3_1/multi_head_attention_11_1/attention_output_1/Reshape_1"], "attr": {"grad_y": {"b": false}, "T": {"type": "DT_FLOAT"}, "adj_y": {"b": false}, "grad_x": {"b": false}, "adj_x": {"b": false}}}, {"name": "StatefulPartitionedCall/functional_16_1/transformer_block_3_1/multi_head_attention_11_1/attention_output_1/BiasAdd", "op": "BiasAdd", "input": ["StatefulPartitionedCall/functional_16_1/transformer_block_3_1/multi_head_attention_11_1/attention_output_1/MatMul", "StatefulPartitionedCall/functional_16_1/transformer_block_3_1/multi_head_attention_11_1/attention_output_1/BiasAdd/ReadVariableOp"], "attr": {"T": {"type": "DT_FLOAT"}, "data_format": {"s": "TkhXQw=="}, "_input_shapes": {"list": {"shape": [{"dim": [{"size": "-2"}, {"size": "64"}, {"size": "256"}]}, {"dim": [{"size": "256"}]}]}}}}, {"name": "StatefulPartitionedCall/functional_16_1/transformer_block_3_1/add", "op": "AddV2", "input": ["StatefulPartitionedCall/functional_16_1/transformer_block_2_1/add_1", "StatefulPartitionedCall/functional_16_1/transformer_block_3_1/multi_head_attention_11_1/attention_output_1/BiasAdd"], "attr": {"T": {"type": "DT_FLOAT"}}}, {"name": "StatefulPartitionedCall/functional_16_1/transformer_block_3_1/layer_normalization_23_1/moments/mean", "op": "Mean", "input": ["StatefulPartitionedCall/functional_16_1/transformer_block_3_1/add", "StatefulPartitionedCall/functional_16_1/transformer_block_3_1/layer_normalization_23_1/moments/mean/reduction_indices"], "attr": {"T": {"type": "DT_FLOAT"}, "Tidx": {"type": "DT_INT32"}, "keep_dims": {"b": true}}}, {"name": "StatefulPartitionedCall/functional_16_1/transformer_block_3_1/layer_normalization_23_1/Neg", "op": "Neg", "input": ["StatefulPartitionedCall/functional_16_1/transformer_block_3_1/layer_normalization_23_1/moments/mean"], "attr": {"T": {"type": "DT_FLOAT"}}}, {"name": "StatefulPartitionedCall/functional_16_1/transformer_block_3_1/layer_normalization_23_1/moments/SquaredDifference", "op": "SquaredDifference", "input": ["StatefulPartitionedCall/functional_16_1/transformer_block_3_1/add", "StatefulPartitionedCall/functional_16_1/transformer_block_3_1/layer_normalization_23_1/moments/mean"], "attr": {"T": {"type": "DT_FLOAT"}}}, {"name": "StatefulPartitionedCall/functional_16_1/transformer_block_3_1/layer_normalization_23_1/moments/variance", "op": "Mean", "input": ["StatefulPartitionedCall/functional_16_1/transformer_block_3_1/layer_normalization_23_1/moments/SquaredDifference", "StatefulPartitionedCall/functional_16_1/transformer_block_3_1/layer_normalization_23_1/moments/variance/reduction_indices"], "attr": {"T": {"type": "DT_FLOAT"}, "Tidx": {"type": "DT_INT32"}, "keep_dims": {"b": true}}}, {"name": "StatefulPartitionedCall/functional_16_1/transformer_block_3_1/layer_normalization_23_1/add", "op": "AddV2", "input": ["StatefulPartitionedCall/functional_16_1/transformer_block_3_1/layer_normalization_23_1/moments/variance", "StatefulPartitionedCall/functional_16_1/transformer_block_3_1/layer_normalization_23_1/add/y"], "attr": {"T": {"type": "DT_FLOAT"}}}, {"name": "StatefulPartitionedCall/functional_16_1/transformer_block_3_1/layer_normalization_23_1/Rsqrt", "op": "Rsqrt", "input": ["StatefulPartitionedCall/functional_16_1/transformer_block_3_1/layer_normalization_23_1/add"], "attr": {"T": {"type": "DT_FLOAT"}}}, {"name": "StatefulPartitionedCall/functional_16_1/transformer_block_3_1/layer_normalization_23_1/mul", "op": "Mul", "input": ["StatefulPartitionedCall/functional_16_1/transformer_block_3_1/layer_normalization_23_1/Rsqrt", "StatefulPartitionedCall/functional_16_1/transformer_block_3_1/layer_normalization_23_1/Reshape"], "attr": {"T": {"type": "DT_FLOAT"}}}, {"name": "StatefulPartitionedCall/functional_16_1/transformer_block_3_1/layer_normalization_23_1/mul_1", "op": "Mul", "input": ["StatefulPartitionedCall/functional_16_1/transformer_block_3_1/layer_normalization_23_1/Neg", "StatefulPartitionedCall/functional_16_1/transformer_block_3_1/layer_normalization_23_1/mul"], "attr": {"T": {"type": "DT_FLOAT"}}}, {"name": "StatefulPartitionedCall/functional_16_1/transformer_block_3_1/layer_normalization_23_1/mul_2", "op": "Mul", "input": ["StatefulPartitionedCall/functional_16_1/transformer_block_3_1/add", "StatefulPartitionedCall/functional_16_1/transformer_block_3_1/layer_normalization_23_1/mul"], "attr": {"T": {"type": "DT_FLOAT"}}}, {"name": "StatefulPartitionedCall/functional_16_1/transformer_block_3_1/layer_normalization_23_1/ArithmeticOptimizer/AddOpsRewrite_Leaf_1_add_2", "op": "AddN", "input": ["StatefulPartitionedCall/functional_16_1/transformer_block_3_1/layer_normalization_23_1/mul_2", "StatefulPartitionedCall/functional_16_1/transformer_block_3_1/layer_normalization_23_1/mul_1"], "attr": {"N": {"i": "2"}, "_grappler_ArithmeticOptimizer_AddOpsRewriteStage": {"b": true}, "T": {"type": "DT_FLOAT"}}}, {"name": "StatefulPartitionedCall/functional_16_1/transformer_block_3_1/layer_normalization_23_1/ArithmeticOptimizer/AddOpsRewrite_add_2", "op": "AddV2", "input": ["StatefulPartitionedCall/functional_16_1/transformer_block_3_1/layer_normalization_23_1/Reshape_1", "StatefulPartitionedCall/functional_16_1/transformer_block_3_1/layer_normalization_23_1/ArithmeticOptimizer/AddOpsRewrite_Leaf_1_add_2"], "attr": {"T": {"type": "DT_FLOAT"}, "_grappler_ArithmeticOptimizer_AddOpsRewriteStage": {"b": true}}}, {"name": "StatefulPartitionedCall/functional_16_1/transformer_block_3_1/sequential_11_1/dense_23_1/MatMul", "op": "BatchMatMulV2", "input": ["StatefulPartitionedCall/functional_16_1/transformer_block_3_1/layer_normalization_23_1/ArithmeticOptimizer/AddOpsRewrite_add_2", "StatefulPartitionedCall/functional_16_1/transformer_block_3_1/sequential_11_1/dense_23_1/Cast/ReadVariableOp"], "attr": {"grad_y": {"b": false}, "T": {"type": "DT_FLOAT"}, "adj_y": {"b": false}, "grad_x": {"b": false}, "adj_x": {"b": false}}}, {"name": "StatefulPartitionedCall/functional_16_1/transformer_block_3_1/sequential_11_1/dense_23_1/BiasAdd", "op": "BiasAdd", "input": ["StatefulPartitionedCall/functional_16_1/transformer_block_3_1/sequential_11_1/dense_23_1/MatMul", "StatefulPartitionedCall/functional_16_1/transformer_block_3_1/sequential_11_1/dense_23_1/BiasAdd/ReadVariableOp"], "attr": {"T": {"type": "DT_FLOAT"}, "data_format": {"s": "TkhXQw=="}, "_input_shapes": {"list": {"shape": [{"dim": [{"size": "-2"}, {"size": "64"}, {"size": "1024"}]}, {"dim": [{"size": "1024"}]}]}}}}, {"name": "State…
edCall/functional_16_1/transformer_block_7_1/layer_normalization_31_1/ArithmeticOptimizer/AddOpsRewrite_add_2", "op": "AddV2", "input": ["StatefulPartitionedCall/functional_16_1/transformer_block_7_1/layer_normalization_31_1/Reshape_1", "StatefulPartitionedCall/functional_16_1/transformer_block_7_1/layer_normalization_31_1/ArithmeticOptimizer/AddOpsRewrite_Leaf_1_add_2"], "attr": {"T": {"type": "DT_FLOAT"}, "_grappler_ArithmeticOptimizer_AddOpsRewriteStage": {"b": true}}}, {"name": "StatefulPartitionedCall/functional_16_1/transformer_block_7_1/sequential_15_1/dense_31_1/MatMul", "op": "BatchMatMulV2", "input": ["StatefulPartitionedCall/functional_16_1/transformer_block_7_1/layer_normalization_31_1/ArithmeticOptimizer/AddOpsRewrite_add_2", "StatefulPartitionedCall/functional_16_1/transformer_block_7_1/sequential_15_1/dense_31_1/Cast/ReadVariableOp"], "attr": {"grad_y": {"b": false}, "T": {"type": "DT_FLOAT"}, "adj_y": {"b": false}, "grad_x": {"b": false}, "adj_x": {"b": false}}}, {"name": "StatefulPartitionedCall/functional_16_1/transformer_block_7_1/sequential_15_1/dense_31_1/BiasAdd", "op": "BiasAdd", "input": ["StatefulPartitionedCall/functional_16_1/transformer_block_7_1/sequential_15_1/dense_31_1/MatMul", "StatefulPartitionedCall/functional_16_1/transformer_block_7_1/sequential_15_1/dense_31_1/BiasAdd/ReadVariableOp"], "attr": {"T": {"type": "DT_FLOAT"}, "data_format": {"s": "TkhXQw=="}, "_input_shapes": {"list": {"shape": [{"dim": [{"size": "-2"}, {"size": "64"}, {"size": "1024"}]}, {"dim": [{"size": "1024"}]}]}}}}, {"name": "StatefulPartitionedCall/functional_16_1/transformer_block_7_1/sequential_15_1/dense_31_1/Pow", "op": "Pow", "input": ["StatefulPartitionedCall/functional_16_1/transformer_block_7_1/sequential_15_1/dense_31_1/BiasAdd", "StatefulPartitionedCall/functional_16_1/transformer_block_7_1/sequential_15_1/dense_31_1/Pow/y"], "attr": {"T": {"type": "DT_FLOAT"}}}, {"name": "StatefulPartitionedCall/functional_16_1/transformer_block_7_1/sequential_15_1/dense_31_1/mul", "op": "Mul", "input": ["StatefulPartitionedCall/functional_16_1/transformer_block_7_1/sequential_15_1/dense_31_1/mul/x", "StatefulPartitionedCall/functional_16_1/transformer_block_7_1/sequential_15_1/dense_31_1/Pow"], "attr": {"T": {"type": "DT_FLOAT"}}}, {"name": "StatefulPartitionedCall/functional_16_1/transformer_block_7_1/sequential_15_1/dense_31_1/add", "op": "AddV2", "input": ["StatefulPartitionedCall/functional_16_1/transformer_block_7_1/sequential_15_1/dense_31_1/BiasAdd", "StatefulPartitionedCall/functional_16_1/transformer_block_7_1/sequential_15_1/dense_31_1/mul"], "attr": {"T": {"type": "DT_FLOAT"}}}, {"name": "StatefulPartitionedCall/functional_16_1/transformer_block_7_1/sequential_15_1/dense_31_1/mul_1", "op": "Mul", "input": ["StatefulPartitionedCall/functional_16_1/transformer_block_7_1/sequential_15_1/dense_31_1/mul_1/x", "StatefulPartitionedCall/functional_16_1/transformer_block_7_1/sequential_15_1/dense_31_1/add"], "attr": {"T": {"type": "DT_FLOAT"}}}, {"name": "StatefulPartitionedCall/functional_16_1/transformer_block_7_1/sequential_15_1/dense_31_1/Sigmoid", "op": "Sigmoid", "input": ["StatefulPartitionedCall/functional_16_1/transformer_block_7_1/sequential_15_1/dense_31_1/mul_1"], "attr": {"T": {"type": "DT_FLOAT"}, "_input_shapes": {"list": {"shape": [{"dim": [{"size": "-2"}, {"size": "64"}, {"size": "1024"}]}]}}}}, {"name": "StatefulPartitionedCall/functional_16_1/transformer_block_7_1/sequential_15_1/dense_31_1/mul_2", "op": "Mul", "input": ["StatefulPartitionedCall/functional_16_1/transformer_block_7_1/sequential_15_1/dense_31_1/BiasAdd", "StatefulPartitionedCall/functional_16_1/transformer_block_7_1/sequential_15_1/dense_31_1/Sigmoid"], "attr": {"T": {"type": "DT_FLOAT"}}}, {"name": "StatefulPartitionedCall/functional_16_1/transformer_block_7_1/sequential_15_1/dense_32_1/MatMul", "op": "BatchMatMulV2", "input": ["StatefulPartitionedCall/functional_16_1/transformer_block_7_1/sequential_15_1/dense_31_1/mul_2", "StatefulPartitionedCall/functional_16_1/transformer_block_7_1/sequential_15_1/dense_32_1/Cast/ReadVariableOp"], "attr": {"grad_y": {"b": false}, "T": {"type": "DT_FLOAT"}, "adj_y": {"b": false}, "grad_x": {"b": false}, "adj_x": {"b": false}}}, {"name": "StatefulPartitionedCall/functional_16_1/transformer_block_7_1/sequential_15_1/dense_32_1/BiasAdd", "op": "BiasAdd", "input": ["StatefulPartitionedCall/functional_16_1/transformer_block_7_1/sequential_15_1/dense_32_1/MatMul", "StatefulPartitionedCall/functional_16_1/transformer_block_7_1/sequential_15_1/dense_32_1/BiasAdd/ReadVariableOp"], "attr": {"T": {"type": "DT_FLOAT"}, "data_format": {"s": "TkhXQw=="}, "_input_shapes": {"list": {"shape": [{"dim": [{"size": "-2"}, {"size": "64"}, {"size": "256"}]}, {"dim": [{"size": "256"}]}]}}}}, {"name": "StatefulPartitionedCall/functional_16_1/transformer_block_7_1/add_1", "op": "AddV2", "input": ["StatefulPartitionedCall/functional_16_1/transformer_block_7_1/add", "StatefulPartitionedCall/functional_16_1/transformer_block_7_1/sequential_15_1/dense_32_1/BiasAdd"], "attr": {"T": {"type": "DT_FLOAT"}}}, {"name": "StatefulPartitionedCall/functional_16_1/policy_logits_1/MatMul", "op": "BatchMatMulV2", "input": ["StatefulPartitionedCall/functional_16_1/transformer_block_7_1/add_1", "StatefulPartitionedCall/functional_16_1/policy_logits_1/Cast/ReadVariableOp"], "attr": {"grad_y": {"b": false}, "T": {"type": "DT_FLOAT"}, "adj_y": {"b": false}, "grad_x": {"b": false}, "adj_x": {"b": false}}}, {"name": "StatefulPartitionedCall/functional_16_1/global_average_pooling1d_1/Mean", "op": "Mean", "input": ["StatefulPartitionedCall/functional_16_1/transformer_block_7_1/add_1", "StatefulPartitionedCall/functional_16_1/global_average_pooling1d_1/Mean/reduction_indices"], "attr": {"T": {"type": "DT_FLOAT"}, "Tidx": {"type": "DT_INT32"}, "keep_dims": {"b": false}}}, {"name": "StatefulPartitionedCall/functional_16_1/policy_logits_1/Add", "op": "AddV2", "input": ["StatefulPartitionedCall/functional_16_1/policy_logits_1/MatMul", "StatefulPartitionedCall/functional_16_1/policy_logits_1/Add/ReadVariableOp"], "attr": {"T": {"type": "DT_FLOAT"}}}, {"name": "StatefulPartitionedCall/functional_16_1/value_1/Add", "op": "_FusedMatMul", "input": ["StatefulPartitionedCall/functional_16_1/global_average_pooling1d_1/Mean", "StatefulPartitionedCall/functional_16_1/value_1/Cast/ReadVariableOp", "StatefulPartitionedCall/functional_16_1/value_1/Add/ReadVariableOp"], "device": "/device:CPU:0", "attr": {"leakyrelu_alpha": {"f": 0.2}, "fused_ops": {"list": {"s": ["Qmlhc0FkZA=="]}}, "transpose_b": {"b": false}, "transpose_a": {"b": false}, "T": {"type": "DT_FLOAT"}, "_input_shapes": {"list": {"shape": [{"dim": [{"size": "-2"}, {"size": "256"}]}, {"dim": [{"size": "256"}, {"size": "1"}]}]}}, "epsilon": {"f": 0.0}, "num_args": {"i": "1"}}}, {"name": "StatefulPartitionedCall/functional_16_1/reshape_1_2/Shape", "op": "Shape", "input": ["StatefulPartitionedCall/functional_16_1/policy_logits_1/Add"], "attr": {"T": {"type": "DT_FLOAT"}, "out_type": {"type": "DT_INT32"}}, "experimentalType": {"typeId": "TFT_PRODUCT", "args": [{"typeId": "TFT_SHAPE_TENSOR", "args": [{"typeId": "TFT_INT32"}]}]}}, {"name": "StatefulPartitionedCall/functional_16_1/value_1/mul", "op": "Mul", "input": ["StatefulPartitionedCall/functional_16_1/value_1/mul/x", "StatefulPartitionedCall/functional_16_1/value_1/Add"], "attr": {"T": {"type": "DT_FLOAT"}}}, {"name": "StatefulPartitionedCall/functional_16_1/reshape_1_2/strided_slice", "op": "StridedSlice", "input": ["StatefulPartitionedCall/functional_16_1/reshape_1_2/Shape", "StatefulPartitionedCall/functional_16_1/reshape_1_2/strided_slice/stack", "StatefulPartitionedCall/functional_16_1/reshape_1_2/strided_slice/stack_1", "StatefulPartitionedCall/functional_16_1/reshape_1_2/strided_slice/stack_2"], "attr": {"ellipsis_mask": {"i": "0"}, "T": {"type": "DT_INT32"}, "end_mask": {"i": "0"}, "begin_mask": {"i": "0"}, "shrink_axis_mask": {"i": "1"}, "new_axis_mask": {"i": "0"}, "Index": {"type": "DT_INT32"}}}, {"name": "StatefulPartitionedCall/functional_16_1/value_1/Sigmoid", "op": "Sigmoid", "input": ["StatefulPartitionedCall/functional_16_1/value_1/mul"], "attr": {"T": {"type": "DT_FLOAT"}}}, {"name": "StatefulPartitionedCall/functional_16_1/reshape_1_2/Reshape/shape", "op": "Pack", "input": ["StatefulPartitionedCall/functional_16_1/reshape_1_2/strided_slice", "StatefulPartitionedCall/functional_16_1/reshape_1_2/Reshape/shape/1"], "attr": {"N": {"i": "2"}, "T": {"type": "DT_INT32"}, "axis": {"i": "0"}}}, {"name": "StatefulPartitionedCall/functional_16_1/value_1/mul_1", "op": "Mul", "input": ["StatefulPartitionedCall/functional_16_1/value_1/mul_1/x", "StatefulPartitionedCall/functional_16_1/value_1/Sigmoid"], "attr": {"T": {"type": "DT_FLOAT"}}}, {"name": "StatefulPartitionedCall/functional_16_1/reshape_1_2/Reshape", "op": "Reshape", "input": ["StatefulPartitionedCall/functional_16_1/policy_logits_1/Add", "StatefulPartitionedCall/functional_16_1/reshape_1_2/Reshape/shape"], "attr": {"T": {"type": "DT_FLOAT"}, "Tshape": {"type": "DT_INT32"}}}, {"name": "StatefulPartitionedCall/functional_16_1/value_1/sub", "op": "Sub", "input": ["StatefulPartitionedCall/functional_16_1/value_1/mul_1", "StatefulPartitionedCall/functional_16_1/value_1/sub/y"], "attr": {"T": {"type": "DT_FLOAT"}}}, {"name": "StatefulPartitionedCall/functional_16_1/policy_1/Softmax", "op": "Softmax", "input": ["StatefulPartitionedCall/functional_16_1/reshape_1_2/Reshape"], "attr": {"T": {"type": "DT_FLOAT"}}}, {"name": "Identity_1", "op": "Identity", "input": ["StatefulPartitionedCall/functional_16_1/value_1/sub"], "attr": {"T": {"type": "DT_FLOAT"}}}, {"name": "Identity", "op": "Identity", "input": ["StatefulPartitionedCall/functional_16_1/policy_1/Softmax"], "attr": {"T": {"type": "DT_FLOAT"}}}], "library": {}, "versions": {"producer": 2129}}, "weightsManifest": [{"paths": ["group1-shard1of7.bin", "group1-shard2of7.bin", "group1-shard3of7.bin", "group1-shard4of7.bin", "group1-shard5of7.bin", "group1-shard6of7.bin", "group1-shard7of7.bin"], "weights": [{"name": "StatefulPartitionedCall/functional_16_1/policy_logits_1/Cast/ReadVariableOp", "shape": [256, 1], "dtype": "float32"}, {"name": "StatefulPartitionedCall/functional_16_1/policy_logits_1/Add/ReadVariableOp", "shape": [1], "dtype": "float32"}, {"name": "StatefulPartitionedCall/functional_16_1/reshape_1_2/strided_slice/stack", "shape": [1], "dtype": "int32"}, {"name": "StatefulPartitionedCall/functional_16_1/reshape_1_2/strided_slice/stack_1", "shape": [1], "dtype": "int32"}, {"name": "StatefulPartitionedCall/functional_16_1/reshape_1_2/strided_slice/stack_2", "shape": [1], "dtype": "int32"}, {"name": "StatefulPartitionedCall/functional_16_1/reshape_1_2/Reshape/shape/1", "shape": [], "dtype": "int32"}, {"name": "StatefulPartitionedCall/functional_16_1/value_1/mul_1/x", "shape": [], "dtype": "float32"}, {"name": "StatefulPartitionedCall/functional_16_1/value_1/mul/x", "shape": [], "dtype": "float32"}, {"name": "StatefulPartitionedCall/functional_16_1/transformer_block_7_1/sequential_15_1/dense_31_1/mul_1/x", "shape": [], "dtype": "float32"}, {"name": "StatefulPartitionedCall/functional_16_1/transformer_block_7_1/sequential_15_1/dense_31_1/mul/x", "shape": [], "dtype": "float32"}, {"name": "StatefulPartitionedCall/functional_16_1/transformer_block_7_1/layer_normalization_31_1/Reshape_1", "shape": [1, 1, 256], "dtype": "float32"}, {"name": "StatefulPartitionedCall/functional_16_1/transformer_block_7_1/multi_head_attention_15_1/query_1/Reshape", "shape": [256, 256], "dtype": "float32"}, {"name": "StatefulPartitionedCall/functional_16_1/transformer_block_7_1/multi_head_attention_15_1/query_1/Reshape_1/shape", "shape": [4], "dtype": "int32"}, {"name": "StatefulPartitionedCall/functional_16_1/transformer_block_7_1/multi_head_attention_15_1/query_1/Add/ReadVariableOp", "shape": [8, 32], "dtype": "float32"}, {"name": "StatefulPartitionedCall/functional_16_1/transformer_block_7_1/multi_head_attention_15_1/key_1/Reshape", "shape": [256, 256], "dtype": "float32"}, {"name": "StatefulPartitionedCall/functional_16_1/transformer_block_7_1/multi_head_attention_15_1/key_1/Reshape_1/shape", "shape": [4], "dtype": "int32"}, {"name": "StatefulPartitionedCall/functional_16_1/transformer_block_7_1/multi_head_attention_15_1/key_1/Add/ReadVariableOp", "shape": [8, 32], "dtype": "float32"}, {"name": "StatefulPartitionedCall/functional_16_1/transformer_block_7_1/multi_head_attention_15_1/Cast/x", "shape": [], "dtype": "float32"}, {"name": "StatefulPartitionedCall/functional_16_1/transformer_block_7_1/layer_normalization_30_1/Reshape_1", "shape": [1, 1, 256], "dtype": "float32"}, {"name": "StatefulPartitionedCall/functional_16_1/transformer_block_6_1/sequential_14_1/dense_29_1/mul_1/x", "shape": [], "dtype": "float32"}, {"name": "StatefulPartitionedCall/functional_16_1/transformer_block_6_1/sequential_14_1/dense_29_1/mul/x", "shape": [], "dtype": "float32"}, {"name": "StatefulPartitionedCall/functional_16_1/transformer_block_6_1/layer_normalization_29_1/Reshape_1", "shape": [1, 1, 256], "dtype": "float32"}, {"name": "StatefulPartitionedCall/functional_16_1/transformer_block_6_1/multi_head_attention_14_1/query_1/Reshape", "shape": [256, 256], "dtype": "float32"}, {"name": "StatefulPartitionedCall/functional_16_1/transformer_block_6_1/multi_head_attention_14_1/query_1/Reshape_1/shape", "shape": [4], "dtype": "int32"}, {"name": "StatefulPartitionedCall/functional_16_1/transformer_block_6_1/multi_head_attention_14_1/query_1/Add/ReadVariableOp", "shape": [8, 32], "dtype": "float32"}, {"name": "StatefulPartitionedCall/functional_16_1/transformer_block_6_1/multi_head_attention_14_1/key_1/Reshape", "shape": [256, 256], "dtype": "float32"}, {"name": "StatefulPartitionedCall/functional_16_1/transformer_block_6_1/multi_head_attention_14_1/key_1/Reshape_1/shape", "shape": [4], "dtype": "int32"}, {"name": "StatefulPartitionedCall/functional_16_1/transformer_block_6_1/multi_head_attention_14_1/key_1/Add/ReadVariableOp", "shape": [8, 32], "dtype": "float32"}, {"name": "StatefulPartitionedCall/functional_16_1/transformer_block_6_1/multi_head_attention_14_1/Cast/x", "shape": [], "dtype": "float32"}, {"name": "StatefulPartitionedCall/functional_16_1/transformer_block_6_1/layer_normalization_28_1/Reshape_1", "shape": [1, 1, 256], "dtype": "float32"}, {"name": "StatefulPartitionedCall/functional_16_1/transformer_block_5_1/sequential_13_1/dense_27_1/mul_1/x", "shape": [], "dtype": "float32"}, {"name": "StatefulPartitionedCall/functional_16_1/transformer_block_5_1/sequential_13_1/dense_27_1/mul/x", "shape": [], "dtype": "float32"}, {"name": "StatefulPartitionedCall/functional_16_1/transformer_block_5_1/layer_normalization_27_1/Reshape_1", "shape": [1, 1, 256], "dtype": "float32"}, {"name": "StatefulPartitionedCall/functional_16_1/transformer_block_5_1/multi_head_attention_13_1/query_1/Reshape", "shape": [256, 256], "dtype": "float32"}, {"name": "StatefulPartitionedCall/functional_16_1/transformer_block_5_1/multi_head_attention_13_1/query_1/Reshape_1/shape", "shape": [4], "dtype": "int32"}, {"name": "StatefulPartitionedCall/functional_16_1/transformer_block_5_1/multi_head_attention_13_1/query_1/Add/ReadVariableOp", "shape": [8, 32], "dtype": "float32"}, {"name": "StatefulPartitionedCall/functional_16_1/transformer_block_5_1/multi_head_attention_13_1/key_1/Reshape", "shape": [256, 256], "dtype": "float32"}, {"name": "StatefulPartitionedCall/functional_16_1/transformer_block_5_1/multi_head_attention_13_1/key_1/Reshape_1/shape", "shape": [4], "dtype": "int32"}, {"name": "StatefulPartitionedCall/functional_16_1/transformer_block_5_1/multi_head_attention_13_1/key_1/Add/ReadVariableOp", "shape": [8, 32], "dtype": "float32"}, {"name": "StatefulPartitionedCall/functional_16_1/transformer_block_5_1/multi_head_attention_13_1/Cast/x", "shape": [], "dtype": "float32"}, {"name": "StatefulPartitionedCall/functional_16_1/transformer_block_5_1/layer_normalization_26_1/Reshape_1", "shape": [1, 1, 256], "dtype": "float32"}, {"name": "StatefulPartitionedCall/functional_16_1/transformer_block_4_1/sequential_12_1/dense_25_1/mul_1/x", "shape": [], "dtype": "float32"}, {"name": "StatefulPartitionedCall/functional_16_1/transformer_block_4_1/sequential_12_1/dense_25_1/mul/x", "shape": [], "dtype": "float32"}, {"name": "StatefulPartitionedCall/functional_16_1/transformer_block_4_1/layer_normalization_25_1/Reshape_1", "shape": [1, 1, 256], "dtype": "float32"}, {"name": "StatefulPartitionedCall/functional_16_1/transformer_block_4_1/multi_head_attention_12_1/query_1/Reshape", "shape": [256, 256], "dtype": "float32"}, {"name": "StatefulPartitionedCall/functional_16_1/transformer_block_4_1/multi_head_attention_12_1/query_1/Reshape_1/shape", "shape": [4], "dtype": "int32"}, {"name": "StatefulPartitionedCall/functional_16_1/transformer_block_4_1/multi_head_attention_12_1/query_1/Add/ReadVariableOp", "shape": [8, 32], "dtype": "float32"}, {"name": "StatefulPartitionedCall/functional_16_1/transformer_block_4_1/multi_head_attention_12_1/key_1/Reshape", "shape": [256, 256], "dtype": "float32"}, {"name": "StatefulPartitionedCall/functional_16_1/transformer_block_4_1/multi_head_attention_12_1/key_1/Reshape_1/shape", "shape": [4], "dtype": "int32"}, {"name": "StatefulPartitionedCall/functional_16_1/transformer_block_4_1/multi_head_attention_12_1/key_1/Add/ReadVariableOp", "shape": [8, 32], "dtype": "float32"}, {"name": "StatefulPartitionedCall/functional_16_1/transformer_block_4_1/multi_head_attention_12_1/Cast/x", "shape": [], "dtype": "float32"}, {"name": "StatefulPartitionedCall/functional_16_1/transformer_block_4_1/layer_normalization_24_1/Reshape_1", "shape": [1, 1, 256], "dtype": "float32"}, {"name": "StatefulPartitionedCall/functional_16_1/transformer_block_3_1/sequential_11_1/dense_23_1/mul_1/x", "shape": [], "dtype": "float32"}, {"name": "StatefulPartitionedCall/functional_16_1/transformer_block_3_1/sequential_11_1/dense_23_1/mul/x", "shape": [], "dtype": "float32"}, {"name": "StatefulPartitionedCall/functional_16_1/transformer_block_3_1/layer_normalization_23_1/Reshape_1", "shape": [1, 1, 256], "dtype": "float32"}, {"name": "StatefulPartitionedCall/functional_16_1/transformer_block_3_1/multi_head_attention_11_1/query_1/Reshape", "shape": [256, 256], "dtype": "float32"}, {"name": "StatefulPartitionedCall/functional_16_1/transformer_block_3_1/multi_head_attention_11_1/query_1/Reshape_1/shape", "shape": [4], "dtype": "int32"}, {"name": "StatefulPartitionedCall/functional_16_1/transformer_block_3_1/multi_head_attention_11_1/query_1/Add/ReadVariableOp", "shape": [8, 32], "dtype": "float32"}, {"name": "StatefulPartitionedCall/functional_16_1/transformer_block_3_1/multi_head_attention_11_1/key_1/Reshape", "shape": [256, 256], "dtype": "float32"}, {"name": "StatefulPartitionedCall/functional_16_1/transformer_block_3_1/multi_head_attention_11_1/key_1/Reshape_1/shape", "shape": [4], "dtype": "int32"}, {"name": "StatefulPartitionedCall/functional_16_1/transformer_block_3_1/multi_head_attention_11_1/key_1/Add/ReadVariableOp", "shape": [8, 32], "dtype": "float32"}, {"name": "StatefulPartitionedCall/functional_16_1/transformer_block_3_1/multi_head_attention_11_1/Cast/x", "shape": [], "dtype": "float32"}, {"name": "StatefulPartitionedCall/functional_16_1/transformer_block_3_1/layer_normalization_22_1/Reshape_1", "shape": [1, 1, 256], "dtype": "float32"}, {"name": "StatefulPartitionedCall/functional_16_1/transformer_block_2_1/sequential_10_1/dense_21_1/mul_1/x", "shape": [], "dtype": "float32"}, {"name": "StatefulPartitionedCall/functional_16_1/transformer_block_2_1/sequential_10_1/dense_21_1/mul/x", "shape": [], "dtype": "float32"}, {"name": "StatefulPartitionedCall/functional_16_1/transformer_block_2_1/layer_normalization_21_1/Reshape_1", "shape": [1, 1, 256], "dtype": "float32"}, {"name": "StatefulPartitionedCall/functional_16_1/transformer_block_2_1/multi_head_attention_10_1/query_1/Reshape", "shape": [256, 256], "dtype": "float32"}, {"name": "StatefulPartitionedCall/functional_16_1/transformer_block_2_1/multi_head_attention_10_1/query_1/Reshape_1/shape", "shape": [4], "dtype": "int32"}, {"name": "StatefulPartitionedCall/functional_16_1/transformer_block_2_1/multi_head_attention_10_1/query_1/Add/ReadVariableOp", "shape": [8, 32], "dtype": "float32"}, {"name": "StatefulPartitionedCall/functional_16_1/transformer_block_2_1/multi_head_attention_10_1/key_1/Reshape", "shape": [256, 256], "dtype": "float32"}, {"name": "StatefulPartitionedCall/functional_16_1/transformer_block_2_1/multi_head_attention_10_1/key_1/Reshape_1/shape", "shape": [4], "dtype": "int32"}, {"name": "StatefulPartitionedCall/functional_16_1/transformer_block_2_1/multi_head_attention_10_1/key_1/Add/ReadVariableOp", "shape": [8, 32], "dtype": "float32"}, {"name": "StatefulPartitionedCall/functional_16_1/transformer_block_2_1/multi_head_attention_10_1/Cast/x", "shape": [], "dtype": "float32"}, {"name": "StatefulPartitionedCall/functional_16_1/transformer_block_2_1/layer_normalization_20_1/Reshape_1", "shape": [1, 1, 256], "dtype": "float32"}, {"name": "StatefulPartitionedCall/functional_16_1/transformer_block_1_2/sequential_9_1/dense_19_1/mul_1/x", "shape": [], "dtype": "float32"}, {"name": "StatefulPartitionedCall/functional_16_1/transformer_block_1_2/sequential_9_1/dense_19_1/mul/x", "shape": [], "dtype": "float32"}, {"name": "StatefulPartitionedCall/functional_16_1/transformer_block_1_2/layer_normalization_19_1/Reshape_1", "shape": [1, 1, 256], "dtype": "float32"}, {"name": "StatefulPartitionedCall/functional_16_1/transformer_block_1_2/multi_head_attention_9_1/query_1/Reshape", "shape": [256, 256], "dtype": "float32"}, {"name": "StatefulPartitionedCall/functional_16_1/transformer_block_1_2/multi_head_attention_9_1/query_1/Reshape_1/shape", "shape": [4], "dtype": "int32"}, {"name": "StatefulPartitionedCall/functional_16_1/transformer_block_1_2/multi_head_attention_9_1/query_1/Add/ReadVariableOp", "shape": [8, 32], "dtype": "float32"}, {"name": "StatefulPartitionedCall/functional_16_1/transformer_block_1_2/multi_head_attention_9_1/key_1/Reshape", "shape": [256, 256], "dtype": "float32"}, {"name": "StatefulPartitionedCall/functional_16_1/transformer_block_1_2/multi_head_attention_9_1/key_1/Reshape_1/shape", "shape": [4], "dtype": "int32"}, {"name": "StatefulPartitionedCall/functional_16_1/transformer_block_1_2/multi_head_attention_9_1/key_1/Add/ReadVariableOp", "shape": [8, 32], "dtype": "float32"}, {"name": "StatefulPartitionedCall/functional_16_1/transformer_block_1_2/multi_head_attention_9_1/Cast/x", "shape": [], "dtype": "float32"}, {"name": "StatefulPartitionedCall/functional_16_1/transformer_block_1_2/layer_normalization_18_1/Reshape_1", "shape": [1, 1, 256], "dtype": "float32"}, {"name": "StatefulPartitionedCall/functional_16_1/transformer_block_1/sequential_8_1/dense_17_1/mul_1/x", "shape": [], "dtype": "float32"}, {"name": "StatefulPartitionedCall/functional_16_1/transformer_block_1/sequential_8_1/dense_17_1/mul/x", "shape": [], "dtype": "float32"}, {"name": "StatefulPartitionedCall/functional_16_1/transformer_block_1/layer_normalization_17_1/Reshape_1", "shape": [1, 1, 256], "dtype": "float32"}, {"name": "StatefulPartitionedCall/functional_16_1/transformer_block_1/multi_head_attention_8_1/query_1/Reshape", "shape": [256, 256], "dtype": "float32"}, {"name": "StatefulPartitionedCall/functional_16_1/transformer_block_1/multi_head_attention_8_1/query_1/Reshape_1/shape", "shape": [4], "dtype": "int32"}, {"name": "StatefulPartitionedCall/functional_16_1/transformer_block_1/multi_head_attention_8_1/query_1/Add/ReadVariableOp", "shape": [8, 32], "dtype": "float32"}, {"name": "StatefulPartitionedCall/functional_16_1/transformer_block_1/multi_head_attention_8_1/key_1/Reshape", "shape": [256, 256], "dtype": "float32"}, {"name": "StatefulPartitionedCall/functional_16_1/transformer_block_1/multi_head_attention_8_1/key_1/Reshape_1/shape", "shape": [4], "dtype": "int32"}, {"name": "StatefulPartitionedCall/functional_16_1/transformer_block_1/multi_head_attention_8_1/key_1/Add/ReadVariableOp", "shape": [8, 32], "dtype": "float32"}, {"name": "StatefulPartitionedCall/functional_16_1/transformer_block_1/multi_head_attention_8_1/Cast/x", "shape": [], "dtype": "float32"}, {"name": "StatefulPartitionedCall/functional_16_1/transformer_block_1/layer_normalization_16_1/Reshape_1", "shape": [1, 1, 256], "dtype": "float32"}, {"name": "StatefulPartitionedCall/functional_16_1/reshape_1/strided_slice/stack", "shape": [1], "dtype": "int32"}, {"name": "StatefulPartitionedCall/functional_16_1/reshape_1/strided_slice/stack_1", "shape": [1], "dtype": "int32"}, {"name": "StatefulPartitionedCall/functional_16_1/reshape_1/strided_slice/stack_2", "shape": [1], "dtype": "int32"}, {"name": "StatefulPartitionedCall/functional_16_1/reshape_1/Reshape/shape/1", "shape": [], "dtype": "int32"}, {"name": "StatefulPartitionedCall/functional_16_1/reshape_1/Reshape/shape/2", "shape": [], "dtype": "int32"}, {"name": "StatefulPartitionedCall/functional_16_1/dense_16_1/Cast/ReadVariableOp", "shape": [2, 256], "dtype": "float32"}, {"name": "StatefulPartitionedCall/functional_16_1/dense_16_1/BiasAdd/ReadVariableOp", "shape": [256], "dtype": "float32"}, {"name": "StatefulPartitionedCall/functional_16_1/token_and_position_embedding_1/add", "shape": [64, 256], "dtype": "float32"}, {"name": "StatefulPartitionedCall/functional_16_1/transformer_block_1/layer_normalization_16_1/moments/mean/reduction_indices", "shape": [1], "dtype": "int32"}, {"name": "StatefulPartitionedCall/functional_16_1/transformer_block_1/layer_normalization_16_1/moments/variance/reduction_indices", "shape": [1], "dtype": "int32"}, {"name": "StatefulPartitionedCall/functional_16_1/transformer_block_1/layer_normalization_16_1/add/y", "shape": [], "dtype": "float32"}, {"name": "StatefulPartitionedCall/functional_16_1/transformer_block_1/layer_normalization_16_1/Reshape", "shape": [1, 1, 256], "dtype": "float32"}, {"name": "StatefulPartitionedCall/functional_16_1/transformer_block_1/multi_head_attention_8_1/value_1/Reshape", "shape": [256, 256], "dtype": "float32"}, {"name": "StatefulPartitionedCall/functional_16_1/transformer_block_1/multi_head_attention_8_1/value_1/Reshape_1/shape", "shape": [4], "dtype": "int32"}, {"name": "StatefulPartitionedCall/functional_16_1/transformer_block_1/multi_head_attention_8_1/value_1/Add/ReadVariableOp", "shape": [8, 32], "dtype": "float32"}, {"name": "StatefulPartitionedCall/functional_16_1/transformer_block_1/multi_head_attention_8_1/attention_output_1/Reshape/shape", "shape": [3], "dtype": "int32"}, {"name": "StatefulPartitionedCall/functional_16_1/transformer_block_1/multi_head_attention_8_1/attention_output_1/Reshape_1", "shape": [256, 256], "dtype": "float32"}, {"name": "StatefulPartitionedCall/functional_16_1/transformer_block_1/multi_head_attention_8_1/attention_output_1/BiasAdd/ReadVariableOp", "shape": [256], "dtype": "float32"}, {"name": "StatefulPartitionedCall/functional_16_1/transformer_block_1/layer_normalization_17_1/moments/mean/reduction_indices", "shape": [1], "dtype": "int32"}, {"name": "StatefulPartitionedCall/functional_16_1/transformer_block_1/layer_normalization_17_1/moments/variance/reduction_indices", "shape": [1], "dtype": "int32"}, {"name": "StatefulPartitionedCall/functional_16_1/transformer_block_1/layer_normalization_17_1/add/y", "shape": [], "dtype": "float32"}, {"name": "StatefulPartitionedCall/functional_16_1/transformer_block_1/layer_normalization_17_1/Reshape", "shape": [1, 1, 256], "dtype": "float32"}, {"name": "StatefulPartitionedCall/functional_16_1/transformer_block_1/sequential_8_1/dense_17_1/Cast/ReadVariableOp", "shape": [256, 1024], "dtype": "float32"}, {"name": "StatefulPartitionedCall/functional_16_1/transformer_block_1/sequential_8_1/dense_17_1/BiasAdd/ReadVariableOp", "shape": [1024], "dtype": "float32"}, {"name": "StatefulPartitionedCall/functional_16_1/transformer_block_1/sequential_8_1/dense_17_1/Pow/y", "shape": [], "dtype": "float32"}, {"name": "StatefulPartitionedCall/functional_16_1/transformer_block_1/sequential_8_1/dense_18_1/Cast/ReadVariableOp", "shape": [1024, 256], "dtype": "float32"}, {"name": "StatefulPartitionedCall/functional_16_1/transformer_block_1/sequential_8_1/dense_18_1/BiasAdd/ReadVariableOp", "shape": [256], "dtype": "float32"}, {"name": "StatefulPartitionedCall/functional_16_1/transformer_block_1_2/layer_normalization_18_1/moments/mean/reduction_indices", "shape": [1], "dtype": "int32"}, {"name": "StatefulPartitionedCall/functional_16_1/transformer_block_1_2/layer_normalization_18_1/moments/variance/reduction_indices", "shape": [1], "dtype": "int32"}, {"name": "StatefulPartitionedCall/functional_16_1/transformer_block_1_2/layer_normalization_18_1/add/y", "shape": [], "dtype": "float32"}, {"name": "StatefulPartitionedCall/functional_16_1/transformer_block_1_2/layer_normalization_18_1/Reshape", "shape": [1, 1, 256], "dtype": "float32"}, {"name": "StatefulPartitionedCall/functional_16_1/transformer_block_1_2/multi_head_attention_9_1/value_1/Reshape", "shape": [256, 256], "dtype": "float32"}, {"name": "StatefulPartitionedCall/functional_16_1/transformer_block_1_2/multi_head_attention_9_1/value_1/Reshape_1/shape", "shape": [4], "dtype": "int32"}, {"name": "StatefulPartitionedCall/functional_16_1/transformer_block_1_2/multi_head_attention_9_1/value_1/Add/ReadVariableOp", "shape": [8, 32], "dtype": "float32"}, {"name": "StatefulPartitionedCall/functional_16_1/transformer_block_1_2/multi_head_attention_9_1/attention_output_1/Reshape/shape", "shape": [3], "dtype": "int32"}, {"name": "StatefulPartitionedCall/functional_16_1/transformer_block_1_2/multi_head_attention_9_1/attention_output_1/Reshape_1", "shape": [256, 256], "dtype": "float32"}, {"name": "StatefulPartitionedCall/functional_16_1/transformer_block_1_2/multi_head_attention_9_1/attention_output_1/BiasAdd/ReadVariableOp", "shape": [256], "dtype": "float32"}, {"name": "StatefulPartitionedCall/functional_16_1/transformer_block_1_2/layer_normalization_19_1/moments/mean/reduction_indices", "shape": [1], "dtype": "int32"}, {"name": "StatefulPartitionedCall/functional_16_1/transformer_block_1_2/layer_normalization_19_1/moments/variance/reduction_indices", "shape": [1], "dtype": "int32"}, {"name": "StatefulPartitionedCall/functional_16_1/transformer_block_1_2/layer_normalization_19_1/add/y", "shape": [], "dtype": "float32"}, {"name": "StatefulPartitionedCall/functional_16_1/transformer_block_1_2/layer_normalization_19_1/Reshape", "shape": [1, 1, 256], "dtype": "float32"}, {"name": "StatefulPartitionedCall/functional_16_1/transformer_block_1_2/sequential_9_1/dense_19_1/Cast/ReadVariableOp", "shape": [256, 1024], "dtype": "float32"}, {"name": "StatefulPartitionedCall/functional_16_1/transformer_block_1_2/sequential_9_1/dense_19_1/BiasAdd/ReadVariableOp", "shape": [1024], "dtype": "float32"}, {"name": "StatefulPartitionedCall/functional_16_1/transformer_block_1_2/sequential_9_1/dense_19_1/Pow/y", "shape": [], "dtype": "float32"}, {"name": "StatefulPartitionedCall/functional_16_1/transformer_block_1_2/sequential_9_1/dense_20_1/Cast/ReadVariableOp", "shape": [1024, 256], "dtype": "float32"}, {"name": "StatefulPartitionedCall/functional_16_1/transformer_block_1_2/sequential_9_1/dense_20_1/BiasAdd/ReadVariableOp", "shape": [256], "dtype": "float32"}, {"name": "StatefulPartitionedCall/functional_16_1/transformer_block_2_1/layer_normalization_20_1/moments/mean/reduction_indices", "shape": [1], "dtype": "int32"}, {"name": "StatefulPartitionedCall/functional_16_1/transformer_block_2_1/layer_normalization_20_1/moments/variance/reduction_indices", "shape": [1], "dtype": "int32"}, {"name": "StatefulPartitionedCall/functional_16_1/transformer_block_2_1/layer_normalization_20_1/add/y", "shape": [], "dtype": "float32"}, {"name": "StatefulPartitionedCall/functional_16_1/transformer_block_2_1/layer_normalization_20_1/Reshape", "shape": [1, 1, 256], "dtype": "float32"}, {"name": "StatefulPartitionedCall/functional_16_1/transformer_block_2_1/multi_head_attention_10_1/value_1/Reshape", "shape": [256, 256], "dtype": "float32"}, {"name": "StatefulPartitionedCall/functional_16_1/transformer_block_2_1/multi_head_attention_10_1/value_1/Reshape_1/shape", "shape": [4], "dtype": "int32"}, {"name": "StatefulPartitionedCall/functional_16_1/transformer_block_2_1/multi_head_attention_10_1/value_1/Add/ReadVariableOp", "shape": [8, 32], "dtype": "float32"}, {"name": "StatefulPartitionedCall/functional_16_1/transformer_block_2_1/multi_head_attention_10_1/attention_output_1/Reshape/shape", "shape": [3], "dtype": "int32"}, {"name": "StatefulPartitionedCall/functional_16_1/transformer_block_2_1/multi_head_attention_10_1/attention_output_1/Reshape_1", "shape": [256, 256], "dtype": "float32"}, {"name": "StatefulPartitionedCall/functional_16_1/transformer_block_2_1/multi_head_attention_10_1/attention_output_1/BiasAdd/ReadVariableOp", "shape": [256], "dtype": "float32"}, {"name": "StatefulPartitionedCall/functional_16_1/transformer_block_2_1/layer_normalization_21_1/moments/mean/reduction_indices", "shape": [1], "dtype": "int32"}, {"name": "StatefulPartitionedCall/functional_16_1/transformer_block_2_1/layer_normalization_21_1/moments/variance/reduction_indices", "shape": [1], "dtype": "int32"}, {"name": "StatefulPartitionedCall/functional_16_1/transformer_block_2_1/layer_normalization_21_1/add/y", "shape": [], "dtype": "float32"}, {"name": "StatefulPartitionedCall/functional_16_1/transformer_block_2_1/layer_normalization_21_1/Reshape", "shape": [1, 1, 256], "dtype": "float32"}, {"name": "StatefulPartitionedCall/functional_16_1/transformer_block_2_1/sequential_10_1/dense_21_1/Cast/ReadVariableOp", "shape": [256, 1024], "dtype": "float32"}, {"name": "StatefulPartitionedCall/functional_16_1/transformer_block_2_1/sequential_10_1/dense_21_1/BiasAdd/ReadVariableOp", "shape": [1024], "dtype": "float32"}, {"name": "StatefulPartitionedCall/functional_16_1/transformer_block_2_1/sequential_10_1/dense_21_1/Pow/y", "shape": [], "dtype": "float32"}, {"name": "StatefulPartitionedCall/functional_16_1/transformer_block_2_1/sequential_10_1/dense_22_1/Cast/ReadVariableOp", "shape": [1024, 256], "dtype": "float32"}, {"name": "StatefulPartitionedCall/functional_16_1/transformer_block_2_1/sequential_10_1/dense_22_1/BiasAdd/ReadVariableOp", "shape": [256], "dtype": "float32"}, {"name": "StatefulPartitionedCall/functional_16_1/transformer_block_3_1/layer_normalization_22_1/moments/mean/reduction_indices", "shape": [1], "dtype": "int32"}, {"name": "StatefulPartitionedCall/functional_16_1/transformer_block_3_1/layer_normalization_22_1/moments/variance/reduction_indices", "shape": [1], "dtype": "int32"}, {"name": "StatefulPartitionedCall/functional_16_1/transformer_block_3_1/layer_normalization_22_1/add/y", "shape": [], "dtype": "float32"}, {"name": "StatefulPartitionedCall/functional_16_1/transformer_block_3_1/layer_normalization_22_1/Reshape", "shape": [1, 1, 256], "dtype": "float32"}, {"name": "StatefulPartitionedCall/functional_16_1/transformer_block_3_1/multi_head_attention_11_1/value_1/Reshape", "shape": [256, 256], "dtype": "float32"}, {"name": "StatefulPartitionedCall/functional_16_1/transformer_block_3_1/multi_head_attention_11_1/value_1/Reshape_1/shape", "shape": [4], "dtype": "int32"}, {"name": "StatefulPartitionedCall/functional_16_1/transformer_block_3_1/multi_head_attention_11_1/value_1/Add/ReadVariableOp", "shape": [8, 32], "dtype": "float32"}, {"name": "StatefulPartitionedCall/functional_16_1/transformer_block_3_1/multi_head_attention_11_1/attention_output_1/Reshape/shape", "shape": [3], "dtype": "int32"}, {"name": "StatefulPartitionedCall/functional_16_1/transformer_block_3_1/multi_head_attention_11_1/attention_output_1/Reshape_1", "shape": [256, 256], "dtype": "float32"}, {"name": "StatefulPartitionedCall/functional_16_1/transformer_block_3_1/multi_head_attention_11_1/attention_output_1/BiasAdd/ReadVariableOp", "shape": [256], "dtype": "float32"}, {"name": "StatefulPartitionedCall/functional_16_1/transformer_block_3_1/layer_normalization_23_1/moments/mean/reduction_indices", "shape": [1], "dtype": "int32"}, {"name": "StatefulPartitionedCall/functional_16_1/transformer_block_3_1/layer_normalization_23_1/moments/variance/reduction_indices", "shape": [1], "dtype": "int32"}, {"name": "StatefulPartitionedCall/functional_16_1/transformer_block_3_1/layer_normalization_23_1/add/y", "shape": [], "dtype": "float32"}, {"name": "StatefulPartitionedCall/functional_16_1/transformer_block_3_1/layer_normalization_23_1/Reshape", "shape": [1, 1, 256], "dtype": "float32"}, {"name": "StatefulPartitionedCall/functional_16_1/transformer_block_3_1/sequential_11_1/dense_23_1/Cast/ReadVariableOp", "shape": [256, 1024], "dtype": "float32"}, {"name": "StatefulPartitionedCall/functional_16_1/transformer_block_3_1/sequential_11_1/dense_23_1/BiasAdd/ReadVariableOp", "shape": [1024], "dtype": "float32"}, {"name": "StatefulPartitionedCall/functional_16_1/transformer_block_3_1/sequential_11_1/dense_23_1/Pow/y", "shape": [], "dtype": "float32"}, {"name": "StatefulPartitionedCall/functional_16_1/transformer_block_3_1/sequential_11_1/dense_24_1/Cast/ReadVariableOp", "shape": [1024, 256], "dtype": "float32"}, {"name": "StatefulPartitionedCall/functional_16_1/transformer_block_3_1/sequential_11_1/dense_24_1/BiasAdd/ReadVariableOp", "shape": [256], "dtype": "float32"}, {"name": "StatefulPartitionedCall/functional_16_1/transformer_block_4_1/layer_normalization_24_1/moments/mean/reduction_indices", "shape": [1], "dtype": "int32"}, {"name": "StatefulPartitionedCall/functional_16_1/transformer_block_4_1/layer_normalization_24_1/moments/variance/reduction_indices", "shape": [1], "dtype": "int32"}, {"name": "StatefulPartitionedCall/functional_16_1/transformer_block_4_1/layer_normalization_24_1/add/y", "shape": [], "dtype": "float32"}, {"name": "StatefulPartitionedCall/functional_16_1/transformer_block_4_1/layer_normalization_24_1/Reshape", "shape": [1, 1, 256], "dtype": "float32"}, {"name": "StatefulPartitionedCall/functional_16_1/transformer_block_4_1/multi_head_attention_12_1/value_1/Reshape", "shape": [256, 256], "dtype": "float32"}, {"name": "StatefulPartitionedCall/functional_16_1/transformer_block_4_1/multi_head_attention_12_1/value_1/Reshape_1/shape", "shape": [4], "dtype": "int32"}, {"name": "StatefulPartitionedCall/functional_16_1/transformer_block_4_1/multi_head_attention_12_1/value_1/Add/ReadVariableOp", "shape": [8, 32], "dtype": "float32"}, {"name": "StatefulPartitionedCall/functional_16_1/transformer_block_4_1/multi_head_attention_12_1/attention_output_1/Reshape/shape", "shape": [3], "dtype": "int32"}, {"name": "StatefulPartitionedCall/functional_16_1/transformer_block_4_1/multi_head_attention_12_1/attention_output_1/Reshape_1", "shape": [256, 256], "dtype": "float32"}, {"name": "StatefulPartitionedCall/functional_16_1/transformer_block_4_1/multi_head_attention_12_1/attention_output_1/BiasAdd/ReadVariableOp", "shape": [256], "dtype": "float32"}, {"name": "StatefulPartitionedCall/functional_16_1/transformer_block_4_1/layer_normalization_25_1/moments/mean/reduction_indices", "shape": [1], "dtype": "int32"}, {"name": "StatefulPartitionedCall/functional_16_1/transformer_block_4_1/layer_normalization_25_1/moments/variance/reduction_indices", "shape": [1], "dtype": "int32"}, {"name": "StatefulPartitionedCall/functional_16_1/transformer_block_4_1/layer_normalization_25_1/add/y", "shape": [], "dtype": "float32"}, {"name": "StatefulPartitionedCall/functional_16_1/transformer_block_4_1/layer_normalization_25_1/Reshape", "shape": [1, 1, 256], "dtype": "float32"}, {"name": "StatefulPartitionedCall/functional_16_1/transformer_block_4_1/sequential_12_1/dense_25_1/Cast/ReadVariableOp", "shape": [256, 1024], "dtype": "float32"}, {"name": "StatefulPartitionedCall/functional_16_1/transformer_block_4_1/sequential_12_1/dense_25_1/BiasAdd/ReadVariableOp", "shape": [1024], "dtype": "float32"}, {"name": "StatefulPartitionedCall/functional_16_1/transformer_block_4_1/sequential_12_1/dense_25_1/Pow/y", "shape": [], "dtype": "float32"}, {"name": "StatefulPartitionedCall/functional_16_1/transformer_block_4_1/sequential_12_1/dense_26_1/Cast/ReadVariableOp", "shape": [1024, 256], "dtype": "float32"}, {"name": "StatefulPartitionedCall/functional_16_1/transformer_block_4_1/sequential_12_1/dense_26_1/BiasAdd/ReadVariableOp", "shape": [256], "dtype": "float32"}, {"name": "StatefulPartitionedCall/functional_16_1/transformer_block_5_1/layer_normalization_26_1/moments/mean/reduction_indices", "shape": [1], "dtype": "int32"}, {"name": "StatefulPartitionedCall/functional_16_1/transformer_block_5_1/layer_normalization_26_1/moments/variance/reduction_indices", "shape": [1], "dtype": "int32"}, {"name": "StatefulPartitionedCall/functional_16_1/transformer_block_5_1/layer_normalization_26_1/add/y", "shape": [], "dtype": "float32"}, {"name": "StatefulPartitionedCall/functional_16_1/transformer_block_5_1/layer_normalization_26_1/Reshape", "shape": [1, 1, 256], "dtype": "float32"}, {"name": "StatefulPartitionedCall/functional_16_1/transformer_block_5_1/multi_head_attention_13_1/value_1/Reshape", "shape": [256, 256], "dtype": "float32"}, {"name": "StatefulPartitionedCall/functional_16_1/transformer_block_5_1/multi_head_attention_13_1/value_1/Reshape_1/shape", "shape": [4], "dtype": "int32"}, {"name": "StatefulPartitionedCall/functional_16_1/transformer_block_5_1/multi_head_attention_13_1/value_1/Add/ReadVariableOp", "shape": [8, 32], "dtype": "float32"}, {"name": "StatefulPartitionedCall/functional_16_1/transformer_block_5_1/multi_head_attention_13_1/attention_output_1/Reshape/shape", "shape": [3], "dtype": "int32"}, {"name": "StatefulPartitionedCall/functional_16_1/transformer_block_5_1/multi_head_attention_13_1/attention_output_1/Reshape_1", "shape": [256, 256], "dtype": "float32"}, {"name": "StatefulPartitionedCall/functional_16_1/transformer_block_5_1/multi_head_attention_13_1/attention_output_1/BiasAdd/ReadVariableOp", "shape": [256], "dtype": "float32"}, {"name": "StatefulPartitionedCall/functional_16_1/transformer_block_5_1/layer_normalization_27_1/moments/mean/reduction_indices", "shape": [1], "dtype": "int32"}, {"name": "StatefulPartitionedCall/functional_16_1/transformer_block_5_1/layer_normalization_27_1/moments/variance/reduction_indices", "shape": [1], "dtype": "int32"}, {"name": "StatefulPartitionedCall/functional_16_1/transformer_block_5_1/layer_normalization_27_1/add/y", "shape": [], "dtype": "float32"}, {"name": "StatefulPartitionedCall/functional_16_1/transformer_block_5_1/layer_normalization_27_1/Reshape", "shape": [1, 1, 256], "dtype": "float32"}, {"name": "StatefulPartitionedCall/functional_16_1/transformer_block_5_1/sequential_13_1/dense_27_1/Cast/ReadVariableOp", "shape": [256, 1024], "dtype": "float32"}, {"name": "StatefulPartitionedCall/functional_16_1/transformer_block_5_1/sequential_13_1/dense_27_1/BiasAdd/ReadVariableOp", "shape": [1024], "dtype": "float32"}, {"name": "StatefulPartitionedCall/functional_16_1/transformer_block_5_1/sequential_13_1/dense_27_1/Pow/y", "shape": [], "dtype": "float32"}, {"name": "StatefulPartitionedCall/functional_16_1/transformer_block_5_1/sequential_13_1/dense_28_1/Cast/ReadVariableOp", "shape": [1024, 256], "dtype": "float32"}, {"name": "StatefulPartitionedCall/functional_16_1/transformer_block_5_1/sequential_13_1/dense_28_1/BiasAdd/ReadVariableOp", "shape": [256], "dtype": "float32"}, {"name": "StatefulPartitionedCall/functional_16_1/transformer_block_6_1/layer_normalization_28_1/moments/mean/reduction_indices", "shape": [1], "dtype": "int32"}, {"name": "StatefulPartitionedCall/functional_16_1/transformer_block_6_1/layer_normalization_28_1/moments/variance/reduction_indices", "shape": [1], "dtype": "int32"}, {"name": "StatefulPartitionedCall/functional_16_1/transformer_block_6_1/layer_normalization_28_1/add/y", "shape": [], "dtype": "float32"}, {"name": "StatefulPartitionedCall/functional_16_1/transformer_block_6_1/layer_normalization_28_1/Reshape", "shape": [1, 1, 256], "dtype": "float32"}, {"name": "StatefulPartitionedCall/functional_16_1/transformer_block_6_1/multi_head_attention_14_1/value_1/Reshape", "shape": [256, 256], "dtype": "float32"}, {"name": "StatefulPartitionedCall/functional_16_1/transformer_block_6_1/multi_head_attention_14_1/value_1/Reshape_1/shape", "shape": [4], "dtype": "int32"}, {"name": "StatefulPartitionedCall/functional_16_1/transformer_block_6_1/multi_head_attention_14_1/value_1/Add/ReadVariableOp", "shape": [8, 32], "dtype": "float32"}, {"name": "StatefulPartitionedCall/functional_16_1/transformer_block_6_1/multi_head_attention_14_1/attention_output_1/Reshape/shape", "shape": [3], "dtype": "int32"}, {"name": "StatefulPartitionedCall/functional_16_1/transformer_block_6_1/multi_head_attention_14_1/attention_output_1/Reshape_1", "shape": [256, 256], "dtype": "float32"}, {"name": "StatefulPartitionedCall/functional_16_1/transformer_block_6_1/multi_head_attention_14_1/attention_output_1/BiasAdd/ReadVariableOp", "shape": [256], "dtype": "float32"}, {"name": "StatefulPartitionedCall/functional_16_1/transformer_block_6_1/layer_normalization_29_1/moments/mean/reduction_indices", "shape": [1], "dtype": "int32"}, {"name": "StatefulPartitionedCall/functional_16_1/transformer_block_6_1/layer_normalization_29_1/moments/variance/reduction_indices", "shape": [1], "dtype": "int32"}, {"name": "StatefulPartitionedCall/functional_16_1/transformer_block_6_1/layer_normalization_29_1/add/y", "shape": [], "dtype": "float32"}, {"name": "StatefulPartitionedCall/functional_16_1/transformer_block_6_1/layer_normalization_29_1/Reshape", "shape": [1, 1, 256], "dtype": "float32"}, {"name": "StatefulPartitionedCall/functional_16_1/transformer_block_6_1/sequential_14_1/dense_29_1/Cast/ReadVariableOp", "shape": [256, 1024], "dtype": "float32"}, {"name": "StatefulPartitionedCall/functional_16_1/transformer_block_6_1/sequential_14_1/dense_29_1/BiasAdd/ReadVariableOp", "shape": [1024], "dtype": "float32"}, {"name": "StatefulPartitionedCall/functional_16_1/transformer_block_6_1/sequential_14_1/dense_29_1/Pow/y", "shape": [], "dtype": "float32"}, {"name": "StatefulPartitionedCall/functional_16_1/transformer_block_6_1/sequential_14_1/dense_30_1/Cast/ReadVariableOp", "shape": [1024, 256], "dtype": "float32"}, {"name": "StatefulPartitionedCall/functional_16_1/transformer_block_6_1/sequential_14_1/dense_30_1/BiasAdd/ReadVariableOp", "shape": [256], "dtype": "float32"}, {"name": "StatefulPartitionedCall/functional_16_1/transformer_block_7_1/layer_normalization_30_1/moments/mean/reduction_indices", "shape": [1], "dtype": "int32"}, {"name": "StatefulPartitionedCall/functional_16_1/transformer_block_7_1/layer_normalization_30_1/moments/variance/reduction_indices", "shape": [1], "dtype": "int32"}, {"name": "StatefulPartitionedCall/functional_16_1/transformer_block_7_1/layer_normalization_30_1/add/y", "shape": [], "dtype": "float32"}, {"name": "StatefulPartitionedCall/functional_16_1/transformer_block_7_1/layer_normalization_30_1/Reshape", "shape": [1, 1, 256], "dtype": "float32"}, {"name": "StatefulPartitionedCall/functional_16_1/transformer_block_7_1/multi_head_attention_15_1/value_1/Reshape", "shape": [256, 256], "dtype": "float32"}, {"name": "StatefulPartitionedCall/functional_16_1/transformer_block_7_1/multi_head_attention_15_1/value_1/Reshape_1/shape", "shape": [4], "dtype": "int32"}, {"name": "StatefulPartitionedCall/functional_16_1/transformer_block_7_1/multi_head_attention_15_1/value_1/Add/ReadVariableOp", "shape": [8, 32], "dtype": "float32"}, {"name": "StatefulPartitionedCall/functional_16_1/transformer_block_7_1/multi_head_attention_15_1/attention_output_1/Reshape/shape", "shape": [3], "dtype": "int32"}, {"name": "StatefulPartitionedCall/functional_16_1/transformer_block_7_1/multi_head_attention_15_1/attention_output_1/Reshape_1", "shape": [256, 256], "dtype": "float32"}, {"name": "StatefulPartitionedCall/functional_16_1/transformer_block_7_1/multi_head_attention_15_1/attention_output_1/BiasAdd/ReadVariableOp", "shape": [256], "dtype": "float32"}, {"name": "StatefulPartitionedCall/functional_16_1/transformer_block_7_1/layer_normalization_31_1/moments/mean/reduction_indices", "shape": [1], "dtype": "int32"}, {"name": "StatefulPartitionedCall/functional_16_1/transformer_block_7_1/layer_normalization_31_1/moments/variance/reduction_indices", "shape": [1], "dtype": "int32"}, {"name": "StatefulPartitionedCall/functional_16_1/transformer_block_7_1/layer_normalization_31_1/add/y", "shape": [], "dtype": "float32"}, {"name": "StatefulPartitionedCall/functional_16_1/transformer_block_7_1/layer_normalization_31_1/Reshape", "shape": [1, 1, 256], "dtype": "float32"}, {"name": "StatefulPartitionedCall/functional_16_1/transformer_block_7_1/sequential_15_1/dense_31_1/Cast/ReadVariableOp", "shape": [256, 1024], "dtype": "float32"}, {"name": "StatefulPartitionedCall/functional_16_1/transformer_block_7_1/sequential_15_1/dense_31_1/BiasAdd/ReadVariableOp", "shape": [1024], "dtype": "float32"}, {"name": "StatefulPartitionedCall/functional_16_1/transformer_block_7_1/sequential_15_1/dense_31_1/Pow/y", "shape": [], "dtype": "float32"}, {"name": "StatefulPartitionedCall/functional_16_1/transformer_block_7_1/sequential_15_1/dense_32_1/Cast/ReadVariableOp", "shape": [1024, 256], "dtype": "float32"}, {"name": "StatefulPartitionedCall/functional_16_1/transformer_block_7_1/sequential_15_1/dense_32_1/BiasAdd/ReadVariableOp", "shape": [256], "dtype": "float32"}, {"name": "StatefulPartitionedCall/functional_16_1/global_average_pooling1d_1/Mean/reduction_indices", "shape": [], "dtype": "int32"}, {"name": "StatefulPartitionedCall/functional_16_1/value_1/Cast/ReadVariableOp", "shape": [256, 1], "dtype": "float32"}, {"name": "StatefulPartitionedCall/functional_16_1/value_1/Add/ReadVariableOp", "shape": [1], "dtype": "float32"}, {"name": "StatefulPartitionedCall/functional_16_1/value_1/sub/y", "shape": [], "dtype": "float32"}]}]}