{"format": "graph-model", "generatedBy": "2.19.0", "convertedBy": "TensorFlow.js Converter v4.22.0", "signature": {"inputs": {"keras_tensor_80": {"name": "keras_tensor_80:0", "dtype": "DT_FLOAT", "tensorShape": {"dim": [{"size": "-1"}, {"size": "8"}, {"size": "8"}, {"size": "2"}]}}}, "outputs": {"output_0": {"name": "Identity:0", "dtype": "DT_FLOAT", "tensorShape": {"dim": [{"size": "-1"}, {"size": "64"}]}}, "output_1": {"name": "Identity_1:0", "dtype": "DT_FLOAT", "tensorShape": {"dim": [{"size": "-1"}, {"size": "1"}]}}}}, "modelTopology": {"node": [{"name": "StatefulPartitionedCall/functional_8_1/policy_hidden_1/mul_1/x", "op": "Const", "attr": {"dtype": {"type": "DT_FLOAT"}, "value": {"tensor": {"dtype": "DT_FLOAT", "tensorShape": {}}}}}, {"name": "StatefulPartitionedCall/functional_8_1/policy_hidden_1/mul/x", "op": "Const", "attr": {"dtype": {"type": "DT_FLOAT"}, "value": {"tensor": {"dtype": "DT_FLOAT", "tensorShape": {}}}}}, {"name": "StatefulPartitionedCall/functional_8_1/policy_hidden_1/Cast/ReadVariableOp", "op": "Const", "attr": {"dtype": {"type": "DT_FLOAT"}, "value": {"tensor": {"dtype": "DT_FLOAT", "tensorShape": {"dim": [{"size": "128"}, {"size": "128"}]}}}}}, {"name": "StatefulPartitionedCall/functional_8_1/policy_hidden_1/BiasAdd/ReadVariableOp", "op": "Const", "attr": {"dtype": {"type": "DT_FLOAT"}, "value": {"tensor": {"dtype": "DT_FLOAT", "tensorShape": {"dim": [{"size": "128"}]}}}}}, {"name": "StatefulPartitionedCall/functional_8_1/policy_hidden_1/Pow/y", "op": "Const", "attr": {"dtype": {"type": "DT_FLOAT"}, "value": {"tensor": {"dtype": "DT_FLOAT", "tensorShape": {}}}}}, {"name": "StatefulPartitionedCall/functional_8_1/policy_logits_1/Cast/ReadVariableOp", "op": "Const", "attr": {"dtype": {"type": "DT_FLOAT"}, "value": {"tensor": {"dtype": "DT_FLOAT", "tensorShape": {"dim": [{"size": "128"}, {"size": "1"}]}}}}}, {"name": "StatefulPartitionedCall/functional_8_1/policy_logits_1/Add/ReadVariableOp", "op": "Const", "attr": {"dtype": {"type": "DT_FLOAT"}, "value": {"tensor": {"dtype": "DT_FLOAT", "tensorShape": {"dim": [{"size": "1"}]}}}}}, {"name": "StatefulPartitionedCall/functional_8_1/reshape_1_2/strided_slice/stack", "op": "Const", "attr": {"dtype": {"type": "DT_INT32"}, "value": {"tensor": {"dtype": "DT_INT32", "tensorShape": {"dim": [{"size": "1"}]}}}}}, {"name": "StatefulPartitionedCall/functional_8_1/reshape_1_2/strided_slice/stack_1", "op": "Const", "attr": {"dtype": {"type": "DT_INT32"}, "value": {"tensor": {"dtype": "DT_INT32", "tensorShape": {"dim": [{"size": "1"}]}}}}}, {"name": "StatefulPartitionedCall/functional_8_1/reshape_1_2/strided_slice/stack_2", "op": "Const", "attr": {"dtype": {"type": "DT_INT32"}, "value": {"tensor": {"dtype": "DT_INT32", "tensorShape": {"dim": [{"size": "1"}]}}}}}, {"name": "StatefulPartitionedCall/functional_8_1/reshape_1_2/Reshape/shape/1", "op": "Const", "attr": {"dtype": {"type": "DT_INT32"}, "value": {"tensor": {"dtype": "DT_INT32", "tensorShape": {}}}}}, {"name": "StatefulPartitionedCall/functional_8_1/value_1/mul_1/x", "op": "Const", "attr": {"dtype": {"type": "DT_FLOAT"}, "value": {"tensor": {"dtype": "DT_FLOAT", "tensorShape": {}}}}}, {"name": "StatefulPartitionedCall/functional_8_1/value_1/mul/x", "op": "Const", "attr": {"dtype": {"type": "DT_FLOAT"}, "value": {"tensor": {"dtype": "DT_FLOAT", "tensorShape": {}}}}}, {"name": "StatefulPartitionedCall/functional_8_1/value_hidden_1/mul_1/x", "op": "Const", "attr": {"dtype": {"type": "DT_FLOAT"}, "value": {"tensor": {"dtype": "DT_FLOAT", "tensorShape": {}}}}}, {"name": "StatefulPartitionedCall/functional_8_1/value_hidden_1/mul/x", "op": "Const", "attr": {"dtype": {"type": "DT_FLOAT"}, "value": {"tensor": {"dtype": "DT_FLOAT", "tensorShape": {}}}}}, {"name": "StatefulPartitionedCall/functional_8_1/conv1d_1/mul_1/x", "op": "Const", "attr": {"dtype": {"type": "DT_FLOAT"}, "value": {"tensor": {"dtype": "DT_FLOAT", "tensorShape": {}}}}}, {"name": "StatefulPartitionedCall/functional_8_1/conv1d_1/mul/x", "op": "Const", "attr": {"dtype": {"type": "DT_FLOAT"}, "value": {"tensor": {"dtype": "DT_FLOAT", "tensorShape": {}}}}}, {"name": "StatefulPartitionedCall/functional_8_1/moe_block_3_1/pool_mha_0_3/multi_head_attention_14_1/query_1/Reshape", "op": "Const", "attr": {"dtype": {"type": "DT_FLOAT"}, "value": {"tensor": {"dtype": "DT_FLOAT", "tensorShape": {"dim": [{"size": "128"}, {"size": "128"}]}}}}}, {"name": "StatefulPartitionedCall/functional_8_1/moe_block_3_1/pool_mha_0_3/multi_head_attention_14_1/query_1/Reshape_1/shape", "op": "Const", "attr": {"dtype": {"type": "DT_INT32"}, "value": {"tensor": {"dtype": "DT_INT32", "tensorShape": {"dim": [{"size": "4"}]}}}}}, {"name": "StatefulPartitionedCall/functional_8_1/moe_block_3_1/pool_mha_0_3/multi_head_attention_14_1/query_1/Add/ReadVariableOp", "op": "Const", "attr": {"dtype": {"type": "DT_FLOAT"}, "value": {"tensor": {"dtype": "DT_FLOAT", "tensorShape": {"dim": [{"size": "4"}, {"size": "32"}]}}}}}, {"name": "StatefulPartitionedCall/functional_8_1/moe_block_3_1/pool_mha_0_3/multi_head_attention_14_1/key_1/Reshape", "op": "Const", "attr": {"dtype": {"type": "DT_FLOAT"}, "value": {"tensor": {"dtype": "DT_FLOAT", "tensorShape": {"dim": [{"size": "128"}, {"size": "128"}]}}}}}, {"name": "StatefulPartitionedCall/functional_8_1/moe_block_3_1/pool_mha_0_3/multi_head_attention_14_1/key_1/Reshape_1/shape", "op": "Const", "attr": {"dtype": {"type": "DT_INT32"}, "value": {"tensor": {"dtype": "DT_INT32", "tensorShape": {"dim": [{"size": "4"}]}}}}}, {"name": "StatefulPartitionedCall/functional_8_1/moe_block_3_1/pool_mha_0_3/multi_head_attention_14_1/key_1/Add/ReadVariableOp", "op": "Const", "attr": {"dtype": {"type": "DT_FLOAT"}, "value": {"tensor": {"dtype": "DT_FLOAT", "tensorShape": {"dim": [{"size": "4"}, {"size": "32"}]}}}}}, {"name": "StatefulPartitionedCall/functional_8_1/moe_block_3_1/pool_mha_0_3/multi_head_attention_14_1/Cast/x", "op": "Const", "attr": {"dtype": {"type": "DT_FLOAT"}, "value": {"tensor": {"dtype": "DT_FLOAT", "tensorShape": {}}}}}, {"name": "StatefulPartitionedCall/functional_8_1/moe_block_3_1/pool_mha_0_3/layer_normalization_28_1/moments/mean/reduction_indices", "op": "Const", "attr": {"dtype": {"type": "DT_INT32"}, "value": {"tensor": {"dtype": "DT_INT32", "tensorShape": {"dim": [{"size": "1"}]}}}}}, {"name": "StatefulPartitionedCall/functional_8_1/moe_block_3_1/pool_mha_0_3/layer_normalization_28_1/moments/variance/reduction_indices", "op": "Const", "attr": {"dtype": {"type": "DT_INT32"}, "value": {"tensor": {"dtype": "DT_INT32", "tensorShape": {"dim": [{"size": "1"}]}}}}}, {"name": "StatefulPartitionedCall/functional_8_1/moe_block_3_1/pool_mha_0_3/layer_normalization_28_1/add/y", "op": "Const", "attr": {"dtype": {"type": "DT_FLOAT"}, "value": {"tensor": {"dtype": "DT_FLOAT", "tensorShape": {}}}}}, {"name": "StatefulPartitionedCall/functional_8_1/moe_block_3_1/pool_mha_0_3/layer_normalization_28_1/Reshape", "op": "Const", "attr": {"dtype": {"type": "DT_FLOAT"}, "value": {"tensor": {"dtype": "DT_FLOAT", "tensorShape": {"dim": [{"size": "1"}, {"size": "1"}, {"size": "128"}]}}}}}, {"name": "StatefulPartitionedCall/functional_8_1/moe_block_3_1/pool_mha_0_3/layer_normalization_28_1/Reshape_1", "op": "Const", "attr": {"dtype": {"type": "DT_FLOAT"}, "value": {"tensor": {"dtype": "DT_FLOAT", "tensorShape": {"dim": [{"size": "1"}, {"size": "1"}, {"size": "128"}]}}}}}, {"name": "StatefulPartitionedCall/functional_8_1/moe_block_3_1/pool_mha_0_3/multi_head_attention_14_1/value_1/Reshape", "op": "Const", "attr": {"dtype": {"type": "DT_FLOAT"}, "value": {"tensor": {"dtype": "DT_FLOAT", "tensorShape": {"dim": [{"size": "128"}, {"size": "128"}]}}}}}, {"name": "StatefulPartitionedCall/functional_8_1/moe_block_3_1/pool_mha_0_3/multi_head_attention_14_1/value_1/Reshape_1/shape", "op": "Const", "attr": {"dtype": {"type": "DT_INT32"}, "value": {"tensor": {"dtype": "DT_INT32", "tensorShape": {"dim": [{"size": "4"}]}}}}}, {"name": "StatefulPartitionedCall/functional_8_1/moe_block_3_1/pool_mha_0_3/multi_head_attention_14_1/value_1/Add/ReadVariableOp", "op": "Const", "attr": {"dtype": {"type": "DT_FLOAT"}, "value": {"tensor": {"dtype": "DT_FLOAT", "tensorShape": {"dim": [{"size": "4"}, {"size": "32"}]}}}}}, {"name": "StatefulPartitionedCall/functional_8_1/moe_block_3_1/pool_mha_0_3/multi_head_attention_14_1/attention_output_1/Reshape/shape", "op": "Const", "attr": {"dtype": {"type": "DT_INT32"}, "value": {"tensor": {"dtype": "DT_INT32", "tensorShape": {"dim": [{"size": "3"}]}}}}}, {"name": "StatefulPartitionedCall/functional_8_1/moe_block_3_1/pool_mha_0_3/multi_head_attention_14_1/attention_output_1/Reshape_1", "op": "Const", "attr": {"dtype": {"type": "DT_FLOAT"}, "value": {"tensor": {"dtype": "DT_FLOAT", "tensorShape": {"dim": [{"size": "128"}, {"size": "128"}]}}}}}, {"name": "StatefulPartitionedCall/functional_8_1/moe_block_3_1/pool_mha_0_3/multi_head_attention_14_1/attention_output_1/BiasAdd/ReadVariableOp", "op": "Const", "attr": {"dtype": {"type": "DT_FLOAT"}, "value": {"tensor": {"dtype": "DT_FLOAT", "tensorShape": {"dim": [{"size": "128"}]}}}}}, {"name": "StatefulPartitionedCall/functional_8_1/moe_block_3_1/pool_mha_1_3/multi_head_attention_15_1/query_1/Reshape", "op": "Const", "attr": {"dtype": {"type": "DT_FLOAT"}, "value": {"tensor": {"dtype": "DT_FLOAT", "tensorShape": {"dim": [{"size": "128"}, {"size": "128"}]}}}}}, {"name": "StatefulPartitionedCall/functional_8_1/moe_block_3_1/pool_mha_1_3/multi_head_attention_15_1/query_1/Reshape_1/shape", "op": "Const", "attr": {"dtype": {"type": "DT_INT32"}, "value": {"tensor": {"dtype": "DT_INT32", "tensorShape": {"dim": [{"size": "4"}]}}}}}, {"name": "StatefulPartitionedCall/functional_8_1/moe_block_3_1/pool_mha_1_3/multi_head_attention_15_1/query_1/Add/ReadVariableOp", "op": "Const", "attr": {"dtype": {"type": "DT_FLOAT"}, "value": {"tensor": {"dtype": "DT_FLOAT", "tensorShape": {"dim": [{"size": "4"}, {"size": "32"}]}}}}}, {"name": "StatefulPartitionedCall/functional_8_1/moe_block_3_1/pool_mha_1_3/multi_head_attention_15_1/key_1/Reshape", "op": "Const", "attr": {"dtype": {"type": "DT_FLOAT"}, "value": {"tensor": {"dtype": "DT_FLOAT", "tensorShape": {"dim": [{"size": "128"}, {"size": "128"}]}}}}}, {"name": "StatefulPartitionedCall/functional_8_1/moe_block_3_1/pool_mha_1_3/multi_head_attention_15_1/key_1/Reshape_1/shape", "op": "Const", "attr": {"dtype": {"type": "DT_INT32"}, "value": {"tensor": {"dtype": "DT_INT32", "tensorShape": {"dim": [{"size": "4"}]}}}}}, {"name": "StatefulPartitionedCall/functional_8_1/moe_block_3_1/pool_mha_1_3/multi_head_attention_15_1/key_1/Add/ReadVariableOp", "op": "Const", "attr": {"dtype": {"type": "DT_FLOAT"}, "value": {"tensor": {"dtype": "DT_FLOAT", "tensorShape": {"dim": [{"size": "4"}, {"size": "32"}]}}}}}, {"name": "StatefulPartitionedCall/functional_8_1/moe_block_3_1/pool_mha_1_3/multi_head_attention_15_1/Cast/x", "op": "Const", "attr": {"dtype": {"type": "DT_FLOAT"}, "value": {"tensor": {"dtype": "DT_FLOAT", "tensorShape": {}}}}}, {"name": "StatefulPartitionedCall/functional_8_1/moe_block_3_1/pool_mha_1_3/layer_normalization_29_1/moments/mean/reduction_indices", "op": "Const", "attr": {"dtype": {"type": "DT_INT32"}, "value": {"tensor": {"dtype": "DT_INT32", "tensorShape": {"dim": [{"size": "1"}]}}}}}, {"name": "StatefulPartitionedCall/functional_8_1/moe_block_3_1/pool_mha_1_3/layer_normalization_29_1/moments/variance/reduction_indices", "op": "Const", "attr": {"dtype": {"type": "DT_INT32"}, "value": {"tensor": {"dtype": "DT_INT32", "tensorShape": {"dim": [{"size": "1"}]}}}}}, {"name": "StatefulPartitionedCall/functional_8_1/moe_block_3_1/pool_mha_1_3/layer_normalization_29_1/add/y", "op": "Const", "attr": {"dtype": {"type": "DT_FLOAT"}, "value": {"tensor": {"dtype": "DT_FLOAT", "tensorShape": {}}}}}, {"name": "StatefulPartitionedCall/functional_8_1/moe_block_3_1/pool_mha_1_3/layer_normalization_29_1/Reshape", "op": "Const", "attr": {"dtype": {"type": "DT_FLOAT"}, "value": {"tensor": {"dtype": "DT_FLOAT", "tensorShape": {"dim": [{"size": "1"}, {"size": "1"}, {"size": "128"}]}}}}}, {"name": "StatefulPartitionedCall/functional_8_1/moe_block_3_1/pool_mha_1_3/layer_normalization_29_1/Reshape_1", "op": "Const", "attr": {"dtype": {"type": "DT_FLOAT"}, "value": {"tensor": {"dtype": "DT_FLOAT", "tensorShape": {"dim": [{"size": "1"}, {"size": "1"}, {"size": "128"}]}}}}}, {"name": "StatefulPartitionedCall/functional_8_1/moe_block_3_1/pool_mha_1_3/multi_head_attention_15_1/value_1/Reshape", "op": "Const", "attr": {"dtype": {"type": "DT_FLOAT"}, "value": {"tensor": {"dtype": "DT_FLOAT", "tensorShape": {"dim": [{"size": "128"}, {"size": "128"}]}}}}}, {"name": "StatefulPartitionedCall/functional_8_1/moe_block_3_1/pool_mha_1_3/multi_head_attention_15_1/value_1/Reshape_1/shape", "op": "Const", "attr": {"dtype": {"type": "DT_INT32"}, "value": {"tensor": {"dtype": "DT_INT32", "tensorShape": {"dim": [{"size": "4"}]}}}}}, {"name": "StatefulPartitionedCall/functional_8_1/moe_block_3_1/pool_mha_1_3/multi_head_attention_15_1/value_1/Add/ReadVariableOp", "op": "Const", "attr": {"dtype": {"type": "DT_FLOAT"}, "value": {"tensor": {"dtype": "DT_FLOAT", "tensorShape": {"dim": [{"size": "4"}, {"size": "32"}]}}}}}, {"name": "StatefulPartitionedCall/functional_8_1/moe_block_3_1/pool_mha_1_3/multi_head_attention_15_1/attention_output_1/Reshape/shape", "op": "Const", "attr": {"dtype": {"type": "DT_INT32"}, "value": {"tensor": {"dtype": "DT_INT32", "tensorShape": {"dim": [{"size": "3"}]}}}}}, {"name": "StatefulPartitionedCall/functional_8_1/moe_block_3_1/pool_mha_1_3/multi_head_attention_15_1/attention_output_1/Reshape_1", "op": "Const", "attr": {"dtype": {"type": "DT_FLOAT"}, "value": {"tensor": {"dtype": "DT_FLOAT", "tensorShape": {"dim": [{"size": "128"}, {"size": "128"}]}}}}}, {"name": "StatefulPartitionedCall/functional_8_1/moe_block_3_1/pool_mha_1_3/multi_head_attention_15_1/attention_output_1/BiasAdd/ReadVariableOp", "op": "Const", "attr": {"dtype": {"type": "DT_FLOAT"}, "value": {"tensor": {"dtype": "DT_FLOAT", "tensorShape": {"dim": [{"size": "128"}]}}}}}, {"name": "StatefulPartitionedCall/functional_8_1/moe_block_3_1/pool_ffn_0_3/dense_29_1/mul_1/x", "op": "Const", "attr": {"dtype": {"type": "DT_FLOAT"}, "value": {"tensor": {"dtype": "DT_FLOAT", "tensorShape": {}}}}}, {"name": "StatefulPartitionedCall/functional_8_1/moe_block_3_1/pool_ffn_0_3/dense_29_1/mul/x", "op": "Const", "attr": {"dtype": {"type": "DT_FLOAT"}, "value": {"tensor": {"dtype": "DT_FLOAT", "tensorShape": {}}}}}, {"name": "StatefulPartitionedCall/functional_8_1/moe_block_3_1/pool_ffn_0_3/layer_normalization_30_1/moments/mean/reduction_indices", "op": "Const", "attr": {"dtype": {"type": "DT_INT32"}, "value": {"tensor": {"dtype": "DT_INT32", "tensorShape": {"dim": [{"size": "1"}]}}}}}, {"name": "StatefulPartitionedCall/functional_8_1/moe_block_3_1/pool_ffn_0_3/layer_normalization_30_1/moments/variance/reduction_indices", "op": "Const", "attr": {"dtype": {"type": "DT_INT32"}, "value": {"tensor": {"dtype": "DT_INT32", "tensorShape": {"dim": [{"size": "1"}]}}}}}, {"name": "StatefulPartitionedCall/functional_8_1/moe_block_3_1/pool_ffn_0_3/layer_normalization_30_1/add/y", "op": "Const", "attr": {"dtype": {"type": "DT_FLOAT"}, "value": {"tensor": {"dtype": "DT_FLOAT", "tensorShape": {}}}}}, {"name": "StatefulPartitionedCall/functional_8_1/moe_block_3_1/pool_ffn_0_3/layer_normalization_30_1/Reshape", "op": "Const", "attr": {"dtype": {"type": "DT_FLOAT"}, "value": {"tensor": {"dtype": "DT_FLOAT", "tensorShape": {"dim": [{"size": "1"}, {"size": "1"}, {"size": "128"}]}}}}}, {"name": "StatefulPartitionedCall/functional_8_1/moe_block_3_1/pool_ffn_0_3/layer_normalization_30_1/Reshape_1", "op": "Const", "attr": {"dtype": {"type": "DT_FLOAT"}, "value": {"tensor": {"dtype": "DT_FLOAT", "tensorShape": {"dim": [{"size": "1"}, {"size": "1"}, {"size": "128"}]}}}}}, {"name": "StatefulPartitionedCall/functional_8_1/moe_block_3_1/pool_ffn_0_3/dense_29_1/Cast/ReadVariableOp", "op": "Const", "attr": {"dtype": {"type": "DT_FLOAT"}, "value": {"tensor": {"dtype": "DT_FLOAT", "tensorShape": {"dim": [{"size": "128"}, {"size": "512"}]}}}}}, {"name": "StatefulPartitionedCall/functional_8_1/moe_block_3_1/pool_ffn_0_3/dense_29_1/BiasAdd/ReadVariableOp", "op": "Const", "attr": {"dtype": {"type": "DT_FLOAT"}, "value": {"tensor": {"dtype": "DT_FLOAT", "tensorShape": {"dim": [{"size": "512"}]}}}}}, {"name": "StatefulPartitionedCall/functional_8_1/moe_block_3_1/pool_ffn_0_3/dense_29_1/Pow/y", "op": "Const", "attr": {"dtype": {"type": "DT_FLOAT"}, "value": {"tensor": {"dtype": "DT_FLOAT", "tensorShape": {}}}}}, {"name": "StatefulPartitionedCall/functional_8_1/moe_block_3_1/pool_ffn_0_3/dense_30_1/Cast/ReadVariableOp", "op": "Const", "attr": {"dtype": {"type": "DT_FLOAT"}, "value": {"tensor": {"dtype": "DT_FLOAT", "tensorShape": {"dim": [{"size": "512"}, {"size": "128"}]}}}}}, {"name": "StatefulPartitionedCall/functional_8_1/moe_block_3_1/pool_ffn_0_3/dense_30_1/BiasAdd/ReadVariableOp", "op": "Const", "attr": {"dtype": {"type": "DT_FLOAT"}, "value": {"tensor": {"dtype": "DT_FLOAT", "tensorShape": {"dim": [{"size": "128"}]}}}}}, {"name": "StatefulPartitionedCall/functional_8_1/moe_block_3_1/pool_ffn_1_3/dense_31_1/mul_1/x", "op": "Const", "attr": {"dtype": {"type": "DT_FLOAT"}, "value": {"tensor": {"dtype": "DT_FLOAT", "tensorShape": {}}}}}, {"name": "StatefulPartitionedCall/functional_8_1/moe_block_3_1/pool_ffn_1_3/dense_31_1/mul/x", "op": "Const", "attr": {"dtype": {"type": "DT_FLOAT"}, "value": {"tensor": {"dtype": "DT_FLOAT", "tensorShape": {}}}}}, {"name": "StatefulPartitionedCall/functional_8_1/moe_block_3_1/pool_ffn_1_3/layer_normalization_31_1/moments/mean/reduction_indices", "op": "Const", "attr": {"dtype": {"type": "DT_INT32"}, "value": {"tensor": {"dtype": "DT_INT32", "tensorShape": {"dim": [{"size": "1"}]}}}}}, {"name": "StatefulPartitionedCall/functional_8_1/moe_block_3_1/pool_ffn_1_3/layer_normalization_31_1/moments/variance/reduction_indices", "op": "Const", "attr": {"dtype": {"type": "DT_INT32"}, "value": {"tensor": {"dtype": "DT_INT32", "tensorShape": {"dim": [{"size": "1"}]}}}}}, {"name": "StatefulPartitionedCall/functional_8_1/moe_block_3_1/pool_ffn_1_3/layer_normalization_31_1/add/y", "op": "Const", "attr": {"dtype": {"type": "DT_FLOAT"}, "value": {"tensor": {"dtype": "DT_FLOAT", "tensorShape": {}}}}}, {"name": "StatefulPartitionedCall/functional_8_1/moe_block_3_1/pool_ffn_1_3/layer_normalization_31_1/Reshape", "op": "Const", "attr": {"dtype": {"type": "DT_FLOAT"}, "value": {"tensor": {"dtype": "DT_FLOAT", "tensorShape": {"dim": [{"size": "1"}, {"size": "1"}, {"size": "128"}]}}}}}, {"name": "StatefulPartitionedCall/functional_8_1/moe_block_3_1/pool_ffn_1_3/layer_normalization_31_1/Reshape_1", "op": "Const", "attr": {"dtype": {"type": "DT_FLOAT"}, "value": {"tensor": {"dtype": "DT_FLOAT", "tensorShape": {"dim": [{"size": "1"}, {"size": "1"}, {"size": "128"}]}}}}}, {"name": "StatefulPartitionedCall/functional_8_1/moe_block_3_1/pool_ffn_1_3/dense_31_1/Cast/ReadVariableOp", "op": "Const", "attr": {"dtype": {"type": "DT_FLOAT"}, "value": {"tensor": {"dtype": "DT_FLOAT", "tensorShape": {"dim": [{"size": "128"}, {"size": "512"}]}}}}}, {"name": "StatefulPartitionedCall/functional_8_1/moe_block_3_1/pool_ffn_1_3/dense_31_1/BiasAdd/ReadVariableOp", "op": "Const", "attr": {"dtype": {"type": "DT_FLOAT"}, "value": {"tensor": {"dtype": "DT_FLOAT", "tensorShape": {"dim": [{"size": "512"}]}}}}}, {"name": "StatefulPartitionedCall/functional_8_1/moe_block_3_1/pool_ffn_1_3/dense_31_1/Pow/y", "op": "Const", "attr": {"dtype": {"type": "DT_FLOAT"}, "value": {"tensor": {"dtype": "DT_FLOAT", "tensorShape": {}}}}}, {"name": "StatefulPartitionedCall/functional_8_1/moe_block_3_1/pool_ffn_1_3/dense_32_1/Cast/ReadVariableOp", "op": "Const", "attr": {"dtype": {"type": "DT_FLOAT"}, "value": {"tensor": {"dtype": "DT_FLOAT", "tensorShape": {"dim": [{"size": "512"}, {"size": "128"}]}}}}}, {"name": "StatefulPartitionedCall/functional_8_1/moe_block_3_1/pool_ffn_1_3/dense_32_1/BiasAdd/ReadVariableOp", "op": "Const", "attr": {"dtype": {"type": "DT_FLOAT"}, "value": {"tensor": {"dtype": "DT_FLOAT", "tensorShape": {"dim": [{"size": "128"}]}}}}}, {"name": "StatefulPartitionedCall/functional_8_1/moe_block_3_1/pool_mha_0_1/multi_head_attention_14_1/query_1/Reshape", "op": "Const", "attr": {"dtype": {"type": "DT_FLOAT"}, "value": {"tensor": {"dtype": "DT_FLOAT", "tensorShape": {"dim": [{"size": "128"}, {"size": "128"}]}}}}}, {"name": "StatefulPartitionedCall/functional_8_1/moe_block_3_1/pool_mha_0_1/multi_head_attention_14_1/query_1/Reshape_1/shape", "op": "Const", "attr": {"dtype": {"type": "DT_INT32"}, "value": {"tensor": {"dtype": "DT_INT32", "tensorShape": {"dim": [{"size": "4"}]}}}}}, {"name": "StatefulPartitionedCall/functional_8_1/moe_block_3_1/pool_mha_0_1/multi_head_attention_14_1/query_1/Add/ReadVariableOp", "op": "Const", "attr": {"dtype": {"type": "DT_FLOAT"}, "value": {"tensor": {"dtype": "DT_FLOAT", "tensorShape": {"dim": [{"size": "4"}, {"size": "32"}]}}}}}, {"name": "StatefulPartitionedCall/functional_8_1/moe_block_3_1/pool_mha_0_1/multi_head_attention_14_1/key_1/Reshape", "op": "Const", "attr": {"dtype": {"type": "DT_FLOAT"}, "value": {"tensor": {"dtype": "DT_FLOAT", "tensorShape": {"dim": [{"size": "128"}, {"size": "128"}]}}}}}, {"name": "StatefulPartitionedCall/functional_8_1/moe_block_3_1/pool_mha_0_1/multi_head_attention_14_1/key_1/Reshape_1/shape", "op": "Const", "attr": {"dtype": {"type": "DT_INT32"}, "value": {"tensor": {"dtype": "DT_INT32", "tensorShape": {"dim": [{"size": "4"}]}}}}}, {"name": "StatefulPartitionedCall/functional_8_1/moe_block_3_1/pool_mha_0_1/multi_head_attention_14_1/key_1/Add/ReadVariableOp", "op": "Const", "attr": {"dtype": {"type": "DT_FLOAT"}, "value": {"tensor": {"dtype": "DT_FLOAT", "tensorShape": {"dim": [{"size": "4"}, {"size": "32"}]}}}}}, {"name": "StatefulPartitionedCall/functional_8_1/moe_block_3_1/pool_mha_0_1/multi_head_attention_14_1/Cast/x", "op": "Const", "attr": {"dtype": {"type": "DT_FLOAT"}, "value": {"tensor": {"dtype": "DT_FLOAT", "tensorShape": {}}}}}, {"name": "StatefulPartitionedCall/functional_8_1/moe_block_3_1/pool_mha_0_1/layer_normalization_28_1/moments/mean/reduction_indices", "op": "Const", "attr": {"dtype": {"type": "DT_INT32"}, "value": {"tensor": {"dtype": "DT_INT32", "tensorShape": {"dim": [{"size": "1"}]}}}}}, {"name": "StatefulPartitionedCall/functional_8_1/moe_block_3_1/pool_mha_0_1/layer_normalization_28_1/moments/variance/reduction_indices", "op": "Const", "attr": {"dtype": {"type": "DT_INT32"}, "value": {"tensor": {"dtype": "DT_INT32", "tensorShape": {"dim": [{"size": "1"}]}}}}}, {"name": "StatefulPartitionedCall/functional_8_1/moe_block_3_1/pool_mha_0_1/layer_normalization_28_1/add/y", "op": "Const", "attr": {"dtype": {"type": "DT_FLOAT"}, "value": {"tensor": {"dtype": "DT_FLOAT", "tensorShape": {}}}}}, {"name": "StatefulPartitionedCall/functional_8_1/moe_block_3_1/pool_mha_0_1/layer_normalization_28_1/Reshape", "op": "Const", "attr": {"dtype": {"type": "DT_FLOAT"}, "value": {"tensor": {"dtype": "DT_FLOAT", "tensorShape": {"dim": [{"size": "1"}, {"size": "1"}, {"size": "128"}]}}}}}, {"name": "StatefulPartitionedCall/functional_8_1/moe_block_3_1/pool_mha_0_1/layer_normalization_28_1/Reshape_1", "op": "Const", "attr": {"dtype": {"type": "DT_FLOAT"}, "value": {"tensor": {"dtype": "DT_FLOAT", "tensorShape": {"dim": [{"size": "1"}, {"size": "1"}, {"size": "128"}]}}}}}, {"name": "StatefulPartitionedCall/functional_8_1/moe_block_3_1/pool_mha_0_1/multi_head_attention_14_1/value_1/Reshape", "op": "Const", "attr": {"dtype": {"type": "DT_FLOAT"}, "value": {"tensor": {"dtype": "DT_FLOAT", "tensorShape": {"dim": [{"size": "128"}, {"size": "128"}]}}}}}, {"name": "StatefulPartitionedCall/functional_8_1/moe_block_3_1/pool_mha_0_1/multi_head_attention_14_1/value_1/Reshape_1/shape", "op": "Const", "attr": {"dtype": {"type": "DT_INT32"}, "value": {"tensor": {"dtype": "DT_INT32", "tensorShape": {"dim": [{"size": "4"}]}}}}}, {"name": "StatefulPartitionedCall/functional_8_1/moe_block_3_1/pool_mha_0_1/multi_head_attention_14_1/value_1/Add/ReadVariableOp", "op": "Const", "attr": {"dtype": {"type": "DT_FLOAT"}, "value": {"tensor": {"dtype": "DT_FLOAT", "tensorShape": {"dim": [{"size": "4"}, {"size": "32"}]}}}}}, {"name": "StatefulPartitionedCall/functional_8_1/moe_block_3_1/pool_mha_0_1/multi_head_attention_14_1/attention_output_1/Reshape/shape", "op": "Const", "attr": {"dtype": {"type": "DT_INT32"}, "value": {"tensor": {"dtype": "DT_INT32", "tensorShape": {"dim": [{"size": "3"}]}}}}}, {"name": "StatefulPartitionedCall/functional_8_1/moe_block_3_1/pool_mha_0_1/multi_head_attention_14_1/attention_output_1/Reshape_1", "op": "Const", "attr": {"dtype": {"type": "DT_FLOAT"}, "value": {"tensor": {"dtype": "DT_FLOAT", "tensorShape": {"dim": [{"size": "128"}, {"size": "128"}]}}}}}, {"name": "StatefulPartitionedCall/functional_8_1/moe_block_3_1/pool_mha_0_1/multi_head_attention_14_1/attention_output_1/BiasAdd/ReadVariableOp", "op": "Const", "attr": {"dtype": {"type": "DT_FLOAT"}, "value": {"tensor": {"dtype": "DT_FLOAT", "tensorShape": {"dim": [{"size": "128"}]}}}}}, {"name": "StatefulPartitionedCall/functional_8_1/moe_block_3_1/pool_mha_1_1/multi_head_attention_15_1/query_1/Reshape", "op": "Const", "attr": {"dtype": {"type": "DT_FLOAT"}, "value": {"tensor": {"dtype": "DT_FLOAT", "tensorShape": {"dim": [{"size": "128"}, {"size": "128"}]}}}}}, {"name": "StatefulPartitionedCall/functional_8_1/moe_block_3_1/pool_mha_1_1/multi_head_attention_15_1/query_1/Reshape_1/shape", "op": "Const", "attr": {"dtype": {"type": "DT_INT32"}, "value": {"tensor": {"dtype": "DT_INT32", "tensorShape": {"dim": [{"size": "4"}]}}}}}, {"name": "StatefulPartitionedCall/functional_8_1/moe_block_3_1/pool_mha_1_1/multi_head_attention_15_1/query_1/Add/ReadVariableOp", "op": "Const", "attr": {"dtype": {"type": "DT_FLOAT"}, "value": {"tensor": {"dtype": "DT_FLOAT", "tensorShape": {"dim": [{"size": "4"}, {"size": "32"}]}}}}}, {"name": "StatefulPartitionedCall/functional_8_1/moe_block_3_1/pool_mha_1_1/multi_head_attention_15_1/key_1/Reshape", "op": "Const", "attr": {"dtype": {"type": "DT_FLOAT"}, "value": {"tensor": {"dtype": "DT_FLOAT", "tensorShape": {"dim": [{"size": "128"}, {"size": "128"}]}}}}}, {"name": "StatefulPartitionedCall/functional_8_1/moe_block_3_1/pool_mha_1_1/multi_head_attention_15_1/key_1/Reshape_1/shape", "op": "Const", "attr": {"dtype": {"type": "DT_INT32"}, "value": {"tensor": {"dtype": "DT_INT32", "tensorShape": {"dim": [{"size": "4"}]}}}}}, {"name": "StatefulPartitionedCall/functional_8_1/moe_block_3_1/pool_mha_1_1/multi_head_attention_15_1/key_1/Add/ReadVariableOp", "op": "Const", "attr": {"dtype": {"type": "DT_FLOAT"}, "value": {"tensor": {"dtype": "DT_FLOAT", "tensorShape": {"dim": [{"size": "4"}, {"size": "32"}]}}}}}, {"name": "StatefulPartitionedCall/functional_8_1/moe_block_3_1/pool_mha_1_1/multi_head_attention_15_1/Cast/x", "op": "Const", "attr": {"dtype": {"type": "DT_FLOAT"}, "value": {"tensor": {"dtype": "DT_FLOAT", "tensorShape": {}}}}}, {"name": "StatefulPartitionedCall/functional_8_1/moe_block_3_1/pool_mha_1_1/layer_normalization_29_1/moments/mean/reduction_indices", "op": "Const", "attr": {"dtype": {"type": "DT_INT32"}, "value": {"tensor": {"dtype": "DT_INT32", "tensorShape": {"dim": [{"size": "1"}]}}}}}, {"name": "StatefulPartitionedCall/functional_8_1/moe_block_3_1/pool_mha_1_1/layer_normalization_29_1/moments/variance/reduction_indices", "op": "Const", "attr": {"dtype": {"type": "DT_INT32"}, "value": {"tensor": {"dtype": "DT_INT32", "tensorShape": {"dim": [{"size": "1"}]}}}}}, {"name": "StatefulPartitionedCall/functional_8_1/moe_block_3_1/pool_mha_1_1/layer_normalization_29_1/add/y", "op": "Const", "attr": {"dtype": {"type": "DT_FLOAT"}, "value": {"tensor": {"dtype": "DT_FLOAT", "tensorShape": {}}}}}, {"name": "StatefulPartitionedCall/functional_8_1/moe_block_3_1/pool_mha_1_1/layer_normalization_29_1/Reshape", "op": "Const", "attr": {"dtype": {"type": "DT_FLOAT"}, "value": {"tensor": {"dtype": "DT_FLOAT", "tensorShape": {"dim": [{"size": "1"}, {"size": "1"}, {"size": "128"}]}}}}}, {"name": "StatefulPartitionedCall/functional_8_1/moe_block_3_1/pool_mha_1_1/layer_normalization_29_1/Reshape_1", "op": "Const", "attr": {"dtype": {"type": "DT_FLOAT"}, "value": {"tensor": {"dtype": "DT_FLOAT", "tensorShape": {"dim": [{"size": "1"}, {"size": "1"}, {"size": "128"}]}}}}}, {"name": "StatefulPartitionedCall/functional_8_1/moe_block_3_1/pool_mha_1_1/multi_head_attention_15_1/value_1/Reshape", "op": "Const", "attr": {"dtype": {"type": "DT_FLOAT"}, "value": {"tensor": {"dtype": "DT_FLOAT", "tensorShape": {"dim": [{"size": "128"}, {"size": "128"}]}}}}}, {"name": "StatefulPartitionedCall/functional_8_1/moe_block_3_1/pool_mha_1_1/multi_head_attention_15_1/value_1/Reshape_1/shape", "op": "Const", "attr": {"dtype": {"type": "DT_INT32"}, "value": {"tensor": {"dtype": "DT_INT32", "tensorShape": {"dim": [{"size": "4"}]}}}}}, {"name": "StatefulPartitionedCall/functional_8_1/moe_block_3_1/pool_mha_1_1/multi_head_attention_15_1/value_1/Add/ReadVariableOp", "op": "Const", "attr": {"dtype": {"type": "DT_FLOAT"}, "value": {"tensor": {"dtype": "DT_FLOAT", "tensorShape": {"dim": [{"size": "4"}, {"size": "32"}]}}}}}, {"name": "StatefulPartitionedCall/functional_8_1/moe_block_3_1/pool_mha_1_1/multi_head_attention_15_1/attention_output_1/Reshape/shape", "op": "Const", "attr": {"dtype": {"type": "DT_INT32"}, "value": {"tensor": {"dtype": "DT_INT32", "tensorShape": {"dim": [{"size": "3"}]}}}}}, {"name": "StatefulPartitionedCall/functional_8_1/moe_block_3_1/pool_mha_1_1/multi_head_attention_15_1/attention_output_1/Reshape_1", "op": "Const", "attr": {"dtype": {"type": "DT_FLOAT"}, "value": {"tensor": {"dtype": "DT_FLOAT", "tensorShape": {"dim": [{"size": "128"}, {"size": "128"}]}}}}}, {"name": "StatefulPartitionedCall/functional_8_1/moe_block_3_1/pool_mha_1_1/multi_head_attention_15_1/attention_output_1/BiasAdd/ReadVariableOp", "op": "Const", "attr": {"dtype": {"type": "DT_FLOAT"}, "value": {"tensor": {"dtype": "DT_FLOAT", "tensorShape": {"dim": [{"size": "128"}]}}}}}, {"name": "StatefulPartitionedCall/functional_8_1/moe_block_3_1/pool_ffn_0_1/dense_29_1/mul_1/x", "op": "Const", "attr": {"dtype": {"type": "DT_FLOAT"}, "value": {"tensor": {"dtype": "DT_FLOAT", "tensorShape": {}}}}}, {"name": "StatefulPartitionedCall/functional_8_1/moe_block_3_1/pool_ffn_0_1/dense_29_1/mul/x", "op": "Const", "attr": {"dtype": {"type": "DT_FLOAT"}, "value": {"tensor": {"dtype": "DT_FLOAT", "tensorShape": {}}}}}, {"name": "StatefulPartitionedCall/functional_8_1/moe_block_3_1/pool_ffn_0_1/layer_normalization_30_1/moments/mean/reduction_indices", "op": "Const", "attr": {"dtype": {"type": "DT_INT32"}, "value": {"tensor": {"dtype": "DT_INT32", "tensorShape": {"dim": [{"size": "1"}]}}}}}, {"name": "StatefulPartitionedCall/functional_8_1/moe_block_3_1/pool_ffn_0_1/layer_normalization_30_1/moments/variance/reduction_indices", "op": "Const", "attr": {"dtype": {"type": "DT_INT32"}, "value": {"tensor": {"dtype": "DT_INT32", "tensorShape": {"dim": [{"size": "1"}]}}}}}, {"name": "StatefulPartitionedCall/functional_8_1/moe_block_3_1/pool_ffn_0_1/layer_normalization_30_1/add/y", "op": "Const", "attr": {"dtype": {"type": "DT_FLOAT"}, "value": {"tensor": {"dtype": "DT_FLOAT", "tensorShape": {}}}}}, {"name": "StatefulPartitionedCall/functional_8_1/moe_block_3_1/pool_ffn_0_1/layer_normalization_30_1/Reshape", "op": "Const", "attr": {"dtype": {"type": "DT_FLOAT"}, "value": {"tensor": {"dtype": "DT_FLOAT", "tensorShape": {"dim": [{"size": "1"}, {"size": "1"}, {"size": "128"}]}}}}}, {"name": "StatefulPartitionedCall/functional_8_1/moe_block_3_1/pool_ffn_0_1/layer_normalization_30_1/Reshape_1", "op": "Const", "attr": {"dtype": {"type": "DT_FLOAT"}, "value": {"tensor": {"dtype": "DT_FLOAT", "tensorShape": {"dim": [{"size": "1"}, {"size": "1"}, {"size": "128"}]}}}}}, {"name": "StatefulPartitionedCall/functional_8_1/moe_block_3_1/pool_ffn_0_1/dense_29_1/Cast/ReadVariableOp", "op": "Const", "attr": {"dtype": {"type": "DT_FLOAT"}, "value": {"tensor": {"dtype": "DT_FLOAT", "tensorShape": {"dim": [{"size": "128"}, {"size": "512"}]}}}}}, {"name": "StatefulPartitionedCall/functional_8_1/moe_block_3_1/pool_ffn_0_1/dense_29_1/BiasAdd/ReadVariableOp", "op": "Const", "attr": {"dtype": {"type": "DT_FLOAT"}, "value": {"tensor": {"dtype": "DT_FLOAT", "tensorShape": {"dim": [{"size": "512"}]}}}}}, {"name": "StatefulPartitionedCall/functional_8_1/moe_block_3_1/pool_ffn_0_1/dense_29_1/Pow/y", "op": "Const", "attr": {"dtype": {"type": "DT_FLOAT"}, "value": {"tensor": {"dtype": "DT_FLOAT", "tensorShape": {}}}}}, {"name": "StatefulPartitionedCall/functional_8_1/moe_block_3_1/pool_ffn_0_1/dense_30_1/Cast/ReadVariableOp", "op": "Const", "attr": {"dtype": {"type": "DT_FLOAT"}, "value": {"tensor": {"dtype": "DT_FLOAT", "tensorShape": {"dim": [{"size": "512"}, {"size": "128"}]}}}}}, {"name": "StatefulPartitionedCall/functional_8_1/moe_block_3_1/pool_ffn_0_1/dense_30_1/BiasAdd/ReadVariableOp", "op": "Const", "attr": {"dtype": {"type": "DT_FLOAT"}, "value": {"tensor": {"dtype": "DT_FLOAT", "tensorShape": {"dim": [{"size": "128"}]}}}}}, {"name": "StatefulPartitionedCall/functional_8_1/moe_block_3_1/pool_ffn_1_1/dense_31_1/mul_1/x", "op": "Const", "attr": {"dtype": {"type": "DT_FLOAT"}, "value": {"tensor": {"dtype": "DT_FLOAT", "tensorShape": {}}}}}, {"name": "StatefulPartitionedCall/functional_8_1/moe_block_3_1/pool_ffn_1_1/dense_31_1/mul/x", "op": "Const", "attr": {"dtype": {"type": "DT_FLOAT"}, "value": {"tensor": {"dtype": "DT_FLOAT", "tensorShape": {}}}}}, {"name": "StatefulPartitionedCall/functional_8_1/moe_block_3_1/pool_ffn_1_1/layer_normalization_31_1/moments/mean/reduction_indices", "op": "Const", "attr": {"dtype": {"type": "DT_INT32"}, "value": {"tensor": {"dtype": "DT_INT32", "tensorShape": {"dim": [{"size": "1"}]}}}}}, {"name": "StatefulPartitionedCall/functional_8_1/moe_block_3_1/pool_ffn_1_1/layer_normalization_31_1/moments/variance/reduction_indices", "op": "Const", "attr": {"dtype": {"type": "DT_INT32"}, "value": {"tensor": {"dtype": "DT_INT32", "tensorShape": {"dim": [{"size": "1"}]}}}}}, {"name": "StatefulPartitionedCall/functional_8_1/moe_block_3_1/pool_ffn_1_1/layer_normalization_31_1/add/y", "op": "Const", "attr": {"dtype": {"type": "DT_FLOAT"}, "value": {"tensor": {"dtype": "DT_FLOAT", "tensorShape": {}}}}}, {"name": "StatefulPartitionedCall/functional_8_1/moe_block_3_1/pool_ffn_1_1/layer_normalization_31_1/Reshape", "op": "Const", "attr": {"dtype": {"type": "DT_FLOAT"}, "value": {"tensor": {"dtype": "DT_FLOAT", "tensorShape": {"dim": [{"size": "1"}, {"size": "1"}, {"size": "128"}]}}}}}, {"name": "StatefulPartitionedCall/functional_8_1/moe_block_3_1/pool_ffn_1_1/layer_normalization_31_1/Reshape_1", "op": "Const", "attr": {"dtype": {"type": "DT_FLOAT"}, "value": {"tensor": {"dtype": "DT_FLOAT", "tensorShape": {"dim": [{"size": "1"}, {"size": "1"}, {"size": "128"}]}}}}}, {"name": "StatefulPartitionedCall/functional_8_1/moe_block_3_1/pool_ffn_1_1/dense_31_1/Cast/ReadVariableOp", "op": "Const", "attr": {"dtype": {"type": "DT_FLOAT"}, "value": {"tensor": {"dtype": "DT_FLOAT", "tensorShape": {"dim": [{"size": "128"}, {"size": "512"}]}}}}}, {"name": "StatefulPartitionedCall/functional_8_1/moe_block_3_1/pool_ffn_1_1/dense_31_1/BiasAdd/ReadVariableOp", "op": "Const", "attr": {"dtype": {"type": "DT_FLOAT"}, "value": {"tensor": {"dtype": "DT_FLOAT", "tensorShape": {"dim": [{"size": "512"}]}}}}}, {"name": "StatefulPartitionedCall/functional_8_1/moe_block_3_1/pool_ffn_1_1/dense_31_1/Pow/y", "op": "Const", "attr": {"dtype": {"type": "DT_FLOAT"}, "value": {"tensor": {"dtype": "DT_FLOAT", "tensorShape": {}}}}}, {"name": "StatefulPartitionedCall/functional_8_1/moe_block_3_1/pool_ffn_1_1/dense_32_1/Cast/ReadVariableOp", "op": "Const", "attr": {"dtype": {"type": "DT_FLOAT"}, "value": {"tensor": {"dtype": "DT_FLOAT", "tensorShape": {"dim": [{"size": "512"}, {"size": "128"}]}}}}}, {"name": "StatefulPartitionedCall/functional_8_1/moe_block_3_1/pool_ffn_1_1/dense_32_1/BiasAdd/ReadVariableOp", "op": "Const", "attr": {"dtype": {"type": "DT_FLOAT"}, "value": {"tensor": {"dtype": "DT_FLOAT", "tensorShape": {"dim": [{"size": "128"}]}}}}}, {"name": "StatefulPartitionedCall/functional_8_1/moe_block_2_1/pool_mha_0_3/multi_head_attention_12_1/query_1/Reshape", "op": "Const", "attr": {"dtype": {"type": "DT_FLOAT"}, "value": {"tensor": {"dtype": "DT_FLOAT", "tensorShape": {"dim": [{"size": "128"}, {"size": "128"}]}}}}}, {"name": "StatefulPartitionedCall/functional_8_1/moe_block_2_1/pool_mha_0_3/multi_head_attention_12_1/query_1/Reshape_1/shape", "op": "Const", "attr": {"dtype": {"type": "DT_INT32"}, "value": {"tensor": {"dtype": "DT_INT32", "tensorShape": {"dim": [{"size": "4"}]}}}}}, {"name": "StatefulPartitionedCall/functional_8_1/moe_block_2_1/pool_mha_0_3/multi_head_attention_12_1/query_1/Add/ReadVariableOp", "op": "Const", "attr": {"dtype": {"type": "DT_FLOAT"}, "value": {"tensor": {"dtype": "DT_FLOAT", "tensorShape": {"dim": [{"size": "4"}, {"size": "32"}]}}}}}, {"name": "StatefulPartitionedCall/functional_8_1/moe_block_2_1/pool_mha_0_3/multi_head_attention_12_1/key_1/Reshape", "op": "Const", "attr": {"dtype": {"type": "DT_FLOAT"}, "value": {"tensor": {"dtype": "DT_FLOAT", "tensorShape": {"dim": [{"size": "128"}, {"size": "128"}]}}}}}, {"name": "StatefulPartitionedCall/functional_8_1/moe_block_2_1/pool_mha_0_3/multi_head_attention_12_1/key_1/Reshape_1/shape", "op": "Const", "attr": {"dtype": {"type": "DT_INT32"}, "value": {"tensor": {"dtype": "DT_INT32", "tensorShape": {"dim": [{"size": "4"}]}}}}}, {"name": "StatefulPartitionedCall/functional_8_1/moe_block_2_1/pool_mha_0_3/multi_head_attention_12_1/key_1/Add/ReadVariableOp", "op": "Const", "attr": {"dtype": {"type": "DT_FLOAT"}, "value": {"tensor": {"dtype": "DT_FLOAT", "tensorShape": {"dim": [{"size": "4"}, {"size": "32"}]}}}}}, {"name": "StatefulPartitionedCall/functional_8_1/moe_block_2_1/pool_mha_0_3/multi_head_attention_12_1/Cast/x", "op": "Const", "attr": {"dtype": {"type": "DT_FLOAT"}, "value": {"tensor": {"dtype": "DT_FLOAT", "tensorShape": {}}}}}, {"name": "StatefulPartitionedCall/functional_8_1/moe_block_2_1/pool_mha_0_3/layer_normalization_24_1/moments/mean/reduction_indices", "op": "Const", "attr": {"dtype": {"type": "DT_INT32"}, "value": {"tensor": {"dtype": "DT_INT32", "tensorShape": {"dim": [{"size": "1"}]}}}}}, {"name": "StatefulPartitionedCall/functional_8_1/moe_block_2_1/pool_mha_0_3/layer_normalization_24_1/moments/variance/reduction_indices", "op": "Const", "attr": {"dtype": {"type": "DT_INT32"}, "value": {"tensor": {"dtype": "DT_INT32", "tensorShape": {"dim": [{"size": "1"}]}}}}}, {"name": "StatefulPartitionedCall/functional_8_1/moe_block_2_1/pool_mha_0_3/layer_normalization_24_1/add/y", "op": "Const", "attr": {"dtype": {"type": "DT_FLOAT"}, "value": {"tensor": {"dtype": "DT_FLOAT", "tensorShape": {}}}}}, {"name": "StatefulPartitionedCall/functional_8_1/moe_block_2_1/pool_mha_0_3/layer_normalization_24_1/Reshape", "op": "Const", "attr": {"dtype": {"type": "DT_FLOAT"}, "value": {"tensor": {"dtype": "DT_FLOAT", "tensorShape": {"dim": [{"size": "1"}, {"size": "1"}, {"size": "128"}]}}}}}, {"name": "StatefulPartitionedCall/functional_8_1/moe_block_2_1/pool_mha_0_3/layer_normalization_24_1/Reshape_1", "op": "Const", "attr": {"dtype": {"type": "DT_FLOAT"}, "value": {"tensor": {"dtype": "DT_FLOAT", "tensorShape": {"dim": [{"size": "1"}, {"size": "1"}, {"size": "128"}]}}}}}, {"name": "StatefulPartitionedCall/functional_8_1/moe_block_2_1/pool_mha_0_3/multi_head_attention_12_1/value_1/Reshape", "op": "Const", "attr": {"dtype": {"type": "DT_FLOAT"}, "value": {"tensor": {"dtype": "DT_FLOAT", "tensorShape": {"dim": [{"size": "128"}, {"size": "128"}]}}}}}, {"name": "StatefulPartitionedCall/functional_8_1/moe_block_2_1/pool_mha_0_3/multi_head_attention_12_1/value_1/Reshape_1/shape", "op": "Const", "attr": {"dtype": {"type": "DT_INT32"}, "value": {"tensor": {"dtype": "DT_INT32", "tensorShape": {"dim": [{"size": "4"}]}}}}}, {"name": "StatefulPartitionedCall/functional_8_1/moe_block_2_1/pool_mha_0_3/multi_head_attention_12_1/value_1/Add/ReadVariableOp", "op": "Const", "attr": {"dtype": {"type": "DT_FLOAT"}, "value": {"tensor": {"dtype": "DT_FLOAT", "tensorShape": {"dim": [{"size": "4"}, {"size": "32"}]}}}}}, {"name": "StatefulPartitionedCall/functional_8_1/moe_block_2_1/pool_mha_0_3/multi_head_attention_12_1/attention_output_1/Reshape/shape", "op": "Const", "attr": {"dtype": {"type": "DT_INT32"}, "value": {"tensor": {"dtype": "DT_INT32", "tensorShape": {"dim": [{"size": "3"}]}}}}}, {"name": "StatefulPartitionedCall/functional_8_1/moe_block_2_1/pool_mha_0_3/multi_head_attention_12_1/attention_output_1/Reshape_1", "op": "Const", "attr": {"dtype": {"type": "DT_FLOAT"}, "value": {"tensor": {"dtype": "DT_FLOAT", "tensorShape": {"dim": [{"size": "128"}, {"size": "128"}]}}}}}, {"name": "StatefulPartitionedCall/functional_8_1/moe_block_2_1/pool_mha_0_3/multi_head_attention_12_1/attention_output_1/BiasAdd/ReadVariableOp", "op": "Const", "attr": {"dtype": {"type": "DT_FLOAT"}, "value": {"tensor": {"dtype": "DT_FLOAT", "tensorShape": {"dim": [{"size": "128"}]}}}}}, {"name": "StatefulPartitionedCall/functional_8_1/moe_block_2_1/pool_mha_1_3/multi_head_attention_13_1/query_1/Reshape", "op": "Const", "attr": {"dtype": {"type": "DT_FLOAT"}, "value": {"tensor": {"dtype": "DT_FLOAT", "tensorShape": {"dim": [{"size": "128"}, {"size": "128"}]}}}}}, {"name": "StatefulPartitionedCall/functional_8_1/moe_block_2_1/pool_mha_1_3/multi_head_attention_13_1/query_1/Reshape_1/shape", "op": "Const", "attr": {"dtype": {"type": "DT_INT32"}, "value": {"tensor": {"dtype": "DT_INT32", "tensorShape": {"dim": [{"size": "4"}]}}}}}, {"name": "StatefulPartitionedCall/functional_8_1/moe_block_2_1/pool_mha_1_3/multi_head_attention_13_1/query_1/Add/ReadVariableOp", "op": "Const", "attr": {"dtype": {"type": "DT_FLOAT"}, "value": {"tensor": {"dtype": "DT_FLOAT", "tensorShape": {"dim": [{"size": "4"}, {"size": "32"}]}}}}}, {"name": "StatefulPartitionedCall/functional_8_1/moe_block_2_1/pool_mha_1_3/multi_head_attention_13_1/key_1/Reshape", "op": "Const", "attr": {"dtype": {"type": "DT_FLOAT"}, "value": {"tensor": {"dtype": "DT_FLOAT", "tensorShape": {"dim": [{"size": "128"}, {"size": "128"}]}}}}}, {"name": "StatefulPartitionedCall/functional_8_1/moe_block_2_1/pool_mha_1_3/multi_head_attention_13_1/key_1/Reshape_1/shape", "op": "Const", "attr": {"dtype": {"type": "DT_INT32"}, "value": {"tensor": {"dtype": "DT_INT32", "tensorShape": {"dim": [{"size": "4"}]}}}}}, {"name": "StatefulPartitionedCall/functional_8_1/moe_block_2_1/pool_mha_1_3/multi_head_attention_13_1/key_1/Add/ReadVariableOp", "op": "Const", "attr": {"dtype": {"type": "DT_FLOAT"}, "value": {"tensor": {"dtype": "DT_FLOAT", "tensorShape": {"dim": [{"size": "4"}, {"size": "32"}]}}}}}, {"name": "StatefulPartitionedCall/functional_8_1/moe_block_2_1/pool_mha_1_3/multi_head_attention_13_1/Cast/x", "op": "Const", "attr": {"dtype": {"type": "DT_FLOAT"}, "value": {"tensor": {"dtype": "DT_FLOAT", "tensorShape": {}}}}}, {"name": "StatefulPartitionedCall/functional_8_1/moe_block_2_1/pool_mha_1_3/layer_normalization_25_1/moments/mean/reduction_indices", "op": "Const", "attr": {"dtype": {"type": "DT_INT32"}, "value": {"tensor": {"dtype": "DT_INT32", "tensorShape": {"dim": [{"size": "1"}]}}}}}, {"name": "StatefulPartitionedCall/functional_8_1/moe_block_2_1/pool_mha_1_3/layer_normalization_25_1/moments/variance/reduction_indices", "op": "Const", "attr": {"dtype": {"type": "DT_INT32"}, "value": {"tensor": {"dtype": "DT_INT32", "tensorShape": {"dim": [{"size": "1"}]}}}}}, {"name": "StatefulPartitionedCall/functional_8_1/moe_block_2_1/pool_mha_1_3/layer_normalization_25_1/add/y", "op": "Const", "attr": {"dtype": {"type": "DT_FLOAT"}, "value": {"tensor": {"dtype": "DT_FLOAT", "tensorShape": {}}}}}, {"name": "StatefulPartitionedCall/functional_8_1/moe_block_2_1/pool_mha_1_3/layer_normalization_25_1/Reshape", "op": "Const", "attr": {"dtype": {"type": "DT_FLOAT"}, "value": {"tensor": {"dtype": "DT_FLOAT", "tensorShape": {"dim": [{"size": "1"}, {"size": "1"}, {"size": "128"}]}}}}}, {"name": "StatefulPartitionedCall/functional_8_1/moe_block_2_1/pool_mha_1_3/layer_normalization_25_1/Reshape_1", "op": "Const", "attr": {"dtype": {"type": "DT_FLOAT"}, "value": {"tensor": {"dtype": "DT_FLOAT", "tensorShape": {"dim": [{"size": "1"}, {"size": "1"}, {"size": "128"}]}}}}}, {"name": "StatefulPartitionedCall/functional_8_1/moe_block_2_1/pool_mha_1_3/multi_head_attention_13_1/value_1/Reshape", "op": "Const", "attr": {"dtype": {"type": "DT_FLOAT"}, "value": {"tensor": {"dtype": "DT_FLOAT", "tensorShape": {"dim": [{"size": "128"}, {"size": "128"}]}}}}}, {"name": "StatefulPartitionedCall/functional_8_1/moe_block_2_1/pool_mha_1_3/multi_head_attention_13_1/value_1/Reshape_1/shape", "op": "Const", "attr": {"dtype": {"type": "DT_INT32"}, "value": {"tensor": {"dtype": "DT_INT32", "tensorShape": {"dim": [{"size": "4"}]}}}}}, {"name": "StatefulPartitionedCall/functional_8_1/moe_block_2_1/pool_mha_1_3/multi_head_attention_13_1/value_1/Add/ReadVariableOp", "op": "Const", "attr": {"dtype": {"type": "DT_FLOAT"}, "value": {"tensor": {"dtype": "DT_FLOAT", "tensorShape": {"dim": [{"size": "4"}, {"size": "32"}]}}}}}, {"name": "StatefulPartitionedCall/functional_8_1/moe_block_2_1/pool_mha_1_3/multi_head_attention_13_1/attention_output_1/Reshape/shape", "op": "Const", "attr": {"dtype": {"type": "DT_INT32"}, "value": {"tensor": {"dtype": "DT_INT32", "tensorShape": {"dim": [{"size": "3"}]}}}}}, {"name": "StatefulPartitionedCall/functional_8_1/moe_block_2_1/pool_mha_1_3/multi_head_attention_13_1/attention_output_1/Reshape_1", "op": "Const", "attr": {"dtype": {"type": "DT_FLOAT"}, "value": {"tensor": {"dtype": "DT_FLOAT", "tensorShape": {"dim": [{"size": "128"}, {"size": "128"}]}}}}}, {"name": "StatefulPartitionedCall/functional_8_1/moe_block_2_1/pool_mha_1_3/multi_head_attention_13_1/attention_output_1/BiasAdd/ReadVariableOp", "op": "Const", "attr": {"dtype": {"type": "DT_FLOAT"}, "value": {"tensor": {"dtype": "DT_FLOAT", "tensorShape": {"dim": [{"size": "128"}]}}}}}, {"name": "StatefulPartitionedCall/functional_8_1/moe_block_2_1/pool_ffn_0_3/dense_25_1/mul_1/x", "op": "Const", "attr": {"dtype": {"type": "DT_FLOAT"}, "value": {"tensor": {"dtype": "DT_FLOAT", "tensorShape": {}}}}}, {"name": "StatefulPartitionedCall/functional_8_1/moe_block_2_1/pool_ffn_0_3/dense_25_1/mul/x", "op": "Const", "attr": {"dtype": {"type": "DT_FLOAT"}, "value": {"tensor": {"dtype": "DT_FLOAT", "tensorShape": {}}}}}, {"name": "StatefulPartitionedCall/functional_8_1/moe_block_2_1/pool_ffn_0_3/layer_normalization_26_1/moments/mean/reduction_indices", "op": "Const", "attr": {"dtype": {"type": "DT_INT32"}, "value": {"tensor": {"dtype": "DT_INT32", "tensorShape": {"dim": [{"size": "1"}]}}}}}, {"name": "StatefulPartitionedCall/functional_8_1/moe_block_2_1/pool_ffn_0_3/layer_normalization_26_1/moments/variance/reduction_indices", "op": "Const", "attr": {"dtype": {"type": "DT_INT32"}, "value": {"tensor": {"dtype": "DT_INT32", "tensorShape": {"dim": [{"size": "1"}]}}}}}, {"name": "StatefulPartitionedCall/functional_8_1/moe_block_2_1/pool_ffn_0_3/layer_normalization_26_1/add/y", "op": "Const", "attr": {"dtype": {"type": "DT_FLOAT"}, "value": {"tensor": {"dtype": "DT_FLOAT", "tensorShape": {}}}}}, {"name": "StatefulPartitionedCall/functional_8_1/moe_block_2_1/pool_ffn_0_3/layer_normalization_26_1/Reshape", "op": "Const", "attr": {"dtype": {"type": "DT_FLOAT"}, "value": {"tensor": {"dtype": "DT_FLOAT", "tensorShape": {"dim": [{"size": "1"}, {"size": "1"}, {"size": "128"}]}}}}}, {"name": "StatefulPartitionedCall/functional_8_1/moe_block_2_1/pool_ffn_0_3/layer_normalization_26_1/Reshape_1", "op": "Const", "attr": {"dtype": {"type": "DT_FLOAT"}, "value": {"tensor": {"dtype": "DT_FLOAT", "tensorShape": {"dim": [{"size": "1"}, {"size": "1"}, {"size": "128"}]}}}}}, {"name": "StatefulPartitionedCall/functional_8_1/moe_block_2_1/pool_ffn_0_3/dense_25_1/Cast/ReadVariableOp", "op": "Const", "attr": {"dtype": {"type": "DT_FLOAT"}, "value": {"tensor": {"dtype": "DT_FLOAT", "tensorShape": {"dim": [{"size": "128"}, {"size": "512"}]}}}}}, {"name": "StatefulPartitionedCall/functional_8_1/moe_block_2_1/pool_ffn_0_3/dense_25_1/BiasAdd/ReadVariableOp", "op": "Const", "attr": {"dtype": {"type": "DT_FLOAT"}, "value": {"tensor": {"dtype": "DT_FLOAT", "tensorShape": {"dim": [{"size": "512"}]}}}}}, {"name": "StatefulPartitionedCall/functional_8_1/moe_block_2_1/pool_ffn_0_3/dense_25_1/Pow/y", "op": "Const", "attr": {"dtype": {"type": "DT_FLOAT"}, "value": {"tensor": {"dtype": "DT_FLOAT", "tensorShape": {}}}}}, {"name": "StatefulPartitionedCall/functional_8_1/moe_block_2_1/pool_ffn_0_3/dense_26_1/Cast/ReadVariableOp", "op": "Const", "attr": {"dtype": {"type": "DT_FLOAT"}, "value": {"tensor": {"dtype": "DT_FLOAT", "tensorShape": {"dim": [{"size": "512"}, {"size": "128"}]}}}}}, {"name": "StatefulPartitionedCall/functional_8_1/moe_block_2_1/pool_ffn_0_3/dense_26_1/BiasAdd/ReadVariableOp", "op": "Const", "attr": {"dtype": {"type": "DT_FLOAT"}, "value": {"tensor": {"dtype": "DT_FLOAT", "tensorShape": {"dim": [{"size": "128"}]}}}}}, {"name": "StatefulPartitionedCall/functional_8_1/moe_block_2_1/pool_ffn_1_3/dense_27_1/mul_1/x", "op": "Const", "attr": {"dtype": {"type": "DT_FLOAT"}, "value": {"tensor": {"dtype": "DT_FLOAT", "tensorShape": {}}}}}, {"name": "StatefulPartitionedCall/functional_8_1/moe_block_2_1/pool_ffn_1_3/dense_27_1/mul/x", "op": "Const", "attr": {"dtype": {"type": "DT_FLOAT"}, "value": {"tensor": {"dtype": "DT_FLOAT", "tensorShape": {}}}}}, {"name": "StatefulPartitionedCall/functional_8_1/moe_block_2_1/pool_ffn_1_3/layer_normalization_27_1/moments/mean/reduction_indices", "op": "Const", "attr": {"dtype": {"type": "DT_INT32"}, "value": {"tensor": {"dtype": "DT_INT32", "tensorShape": {"dim": [{"size": "1"}]}}}}}, {"name": "StatefulPartitionedCall/functional_8_1/moe_block_2_1/pool_ffn_1_3/layer_normalization_27_1/moments/variance/reduction_indices", "op": "Const", "attr": {"dtype": {"type": "DT_INT32"}, "value": {"tensor": {"dtype": "DT_INT32", "tensorShape": {"dim": [{"size": "1"}]}}}}}, {"name": "StatefulPartitionedCall/functional_8_1/moe_block_2_1/pool_ffn_1_3/layer_normalization_27_1/add/y", "op": "Const", "attr": {"dtype": {"type": "DT_FLOAT"}, "value": {"tensor": {"dtype": "DT_FLOAT", "tensorShape": {}}}}}, {"name": "StatefulPartitionedCall/functional_8_1/moe_block_2_1/pool_ffn_1_3/layer_normalization_27_1/Reshape", "op": "Const", "attr": {"dtype": {"type": "DT_FLOAT"}, "value": {"tensor": {"dtype": "DT_FLOAT", "tensorShape": {"dim": [{"size": "1"}, {"size": "1"}, {"size": "128"}]}}}}}, {"name": "StatefulPartitionedCall/functional_8_1/moe_block_2_1/pool_ffn_1_3/layer_normalization_27_1/Reshape_1", "op": "Const", "attr": {"dtype": {"type": "DT_FLOAT"}, "value": {"tensor": {"dtype": "DT_FLOAT", "tensorShape": {"dim": [{"size": "1"}, {"size": "1"}, {"size": "128"}]}}}}}, {"name": "StatefulPartitionedCall/functional_8_1/moe_block_2_1/pool_ffn_1_3/dense_27_1/Cast/ReadVariableOp", "op": "Const", "attr": {"dtype": {"type": "DT_FLOAT"}, "value": {"tensor": {"dtype": "DT_FLOAT", "tensorShape": {"dim": [{"size": "128"}, {"size": "512"}]}}}}}, {"name": "StatefulPartitionedCall/functional_8_1/moe_block_2_1/pool_ffn_1_3/dense_27_1/BiasAdd/ReadVariableOp", "op": "Const", "attr": {"dtype": {"type": "DT_FLOAT"}, "value": {"tensor": {"dtype": "DT_FLOAT", "tensorShape": {"dim": [{"size": "512"}]}}}}}, {"name": "StatefulPartitionedCall/functional_8_1/moe_block_2_1/pool_ffn_1_3/dense_27_1/Pow/y", "op": "Const", "attr": {"dtype": {"type": "DT_FLOAT"}, "value": {"tensor": {"dtype": "DT_FLOAT", "tensorShape": {}}}}}, {"name": "StatefulPartitionedCall/functional_8_1/moe_block_2_1/pool_ffn_1_3/dense_28_1/Cast/ReadVariableOp", "op": "Const", "attr": {"dtype": {"type": "DT_FLOAT"}, "value": {"tensor": {"dtype": "DT_FLOAT", "tensorShape": {"dim": [{"size": "512"}, {"size": "128"}]}}}}}, {"name": "StatefulPartitionedCall/functional_8_1/moe_block_2_1/pool_ffn_1_3/dense_28_1/BiasAdd/ReadVariableOp", "op": "Const", "attr": {"dtype": {"type": "DT_FLOAT"}, "value": {"tensor": {"dtype": "DT_FLOAT", "tensorShape": {"dim": [{"size": "128"}]}}}}}, {"name": "StatefulPartitionedCall/functional_8_1/moe_block_2_1/pool_mha_0_1/multi_head_attention_12_1/query_1/Reshape", "op": "Const", "attr": {"dtype": {"type": "DT_FLOAT"}, "value": {"tensor": {"dtype": "DT_FLOAT", "tensorShape": {"dim": [{"size": "128"}, {"size": "128"}]}}}}}, {"name": "StatefulPartitionedCall/functional_8_1/moe_block_2_1/pool_mha_0_1/multi_head_attention_12_1/query_1/Reshape_1/shape", "op": "Const", "attr": {"dtype": {"type": "DT_INT32"}, "value": {"tensor": {"dtype": "DT_INT32", "tensorShape": {"dim": [{"size": "4"}]}}}}}, {"name": "StatefulPartitionedCall/functional_8_1/moe_block_2_1/pool_mha_0_1/multi_head_attention_12_1/query_1/Add/ReadVariableOp", "op": "Const", "attr": {"dtype": {"type": "DT_FLOAT"}, "value": {"tensor": {"dtype": "DT_FLOAT", "tensorShape": {"dim": [{"size": "4"}, {"size": "32"}]}}}}}, {"name": "StatefulPartitionedCall/functional_8_1/moe_block_2_1/pool_mha_0_1/multi_head_attention_12_1/key_1/Reshape", "op": "Const", "attr": {"dtype": {"type": "DT_FLOAT"}, "value": {"tensor": {"dtype": "DT_FLOAT", "tensorShape": {"dim": [{"size": "128"}, {"size": "128"}]}}}}}, {"name": "StatefulPartitionedCall/functional_8_1/moe_block_2_1/pool_mha_0_1/multi_head_attention_12_1/key_1/Reshape_1/shape", "op": "Const", "attr": {"dtype": {"type": "DT_INT32"}, "value": {"tensor": {"dtype": "DT_INT32", "tensorShape": {"dim": [{"size": "4"}]}}}}}, {"name": "StatefulPartitionedCall/functional_8_1/moe_block_2_1/pool_mha_0_1/multi_head_attention_12_1/key_1/Add/ReadVariableOp", "op": "Const", "attr": {"dtype": {"type": "DT_FLOAT"}, "value": {"tensor": {"dtype": "DT_FLOAT", "tensorShape": {"dim": [{"size": "4"}, {"size": "32"}]}}}}}, {"name": "StatefulPartitionedCall/functional_8_1/moe_block_2_1/pool_mha_0_1/multi_head_attention_12_1/Cast/x", "op": "Const", "attr": {"dtype": {"type": "DT_FLOAT"}, "value": {"tensor": {"dtype": "DT_FLOAT", "tensorShape": {}}}}}, {"name": "StatefulPartitionedCall/functional_8_1/moe_block_2_1/pool_mha_0_1/layer_normalization_24_1/moments/mean/reduction_indices", "op": "Const", "attr": {"dtype": {"type": "DT_INT32"}, "value": {"tensor": {"dtype": "DT_INT32", "tensorShape": {"dim": [{"size": "1"}]}}}}}, {"name": "StatefulPartitionedCall/functional_8_1/moe_block_2_1/pool_mha_0_1/layer_normalization_24_1/moments/variance/reduction_indices", "op": "Const", "attr": {"dtype": {"type": "DT_INT32"}, "value": {"tensor": {"dtype": "DT_INT32", "tensorShape": {"dim": [{"size": "1"}]}}}}}, {"name": "StatefulPartitionedCall/functional_8_1/moe_block_2_1/pool_mha_0_1/layer_normalization_24_1/add/y", "op": "Const", "attr": {"dtype": {"type": "DT_FLOAT"}, "value": {"tensor": {"dtype": "DT_FLOAT", "tensorShape": {}}}}}, {"name": "StatefulPartitionedCall/functional_8_1/moe_block_2_1/pool_mha_0_1/layer_normalization_24_1/Reshape", "op": "Const", "attr": {"dtype": {"type": "DT_FLOAT"}, "value": {"tensor": {"dtype": "DT_FLOAT", "tensorShape": {"dim": [{"size": "1"}, {"size": "1"}, {"size": "128"}]}}}}}, {"name": "StatefulPartitionedCall/functional_8_1/moe_block_2_1/pool_mha_0_1/layer_normalization_24_1/Reshape_1", "op": "Const", "attr": {"dtype": {"type": "DT_FLOAT"}, "value": {"tensor": {"dtype": "DT_FLOAT", "tensorShape": {"dim": [{"size": "1"}, {"size": "1"}, {"size": "128"}]}}}}}, {"name": "StatefulPartitionedCall/functional_8_1/moe_block_2_1/pool_mha_0_1/multi_head_attention_12_1/value_1/Reshape", "op": "Const", "attr": {"dtype": {"type": "DT_FLOAT"}, "value": {"tensor": {"dtype": "DT_FLOAT", "tensorShape": {"dim": [{"size": "128"}, {"size": "128"}]}}}}}, {"name": "StatefulPartitionedCall/functional_8_1/moe_block_2_1/pool_mha_0_1/multi_head_attention_12_1/value_1/Reshape_1/shape", "op": "Const", "attr": {"dtype": {"type": "DT_INT32"}, "value": {"tensor": {"dtype": "DT_INT32", "tensorShape": {"dim": [{"size": "4"}]}}}}}, {"name": "StatefulPartitionedCall/functional_8_1/moe_block_2_1/pool_mha_0_1/multi_head_attention_12_1/value_1/Add/ReadVariableOp", "op": "Const", "attr": {"dtype": {"type": "DT_FLOAT"}, "value": {"tensor": {"dtype": "DT_FLOAT", "tensorShape": {"dim": [{"size": "4"}, {"size": "32"}]}}}}}, {"name": "StatefulPartitionedCall/functional_8_1/moe_block_2_1/pool_mha_0_1/multi_head_attention_12_1/attention_output_1/Reshape/shape", "op": "Const", "attr": {"dtype": {"type": "DT_INT32"}, "value": {"tensor": {"dtype": "DT_INT32", "tensorShape": {"dim": [{"size": "3"}]}}}}}, {"name": "StatefulPartitionedCall/functional_8_1/moe_block_2_1/pool_mha_0_1/multi_head_attention_12_1/attention_output_1/Reshape_1", "op": "Const", "attr": {"dtype": {"type": "DT_FLOAT"}, "value": {"tensor": {"dtype": "DT_FLOAT", "tensorShape": {"dim": [{"size": "128"}, {"size": "128"}]}}}}}, {"name": "StatefulPartitionedCall/functional_8_1/moe_block_2_1/pool_mha_0_1/multi_head_attention_12_1/attention_output_1/BiasAdd/ReadVariableOp", "op": "Const", "attr": {"dtype": {"type": "DT_FLOAT"}, "value": {"tensor": {"dtype": "DT_FLOAT", "tensorShape": {"dim": [{"size": "128"}]}}}}}, {"name": "StatefulPartitionedCall/functional_8_1/moe_block_2_1/pool_mha_1_1/multi_head_attention_13_1/query_1/Reshape", "op": "Const", "attr": {"dtype": {"type": "DT_FLOAT"}, "value": {"tensor": {"dtype": "DT_FLOAT", "tensorShape": {"dim": [{"size": "128"}, {"size": "128"}]}}}}}, {"name": "StatefulPartitionedCall/functional_8_1/moe_block_2_1/pool_mha_1_1/multi_head_attention_13_1/query_1/Reshape_1/shape", "op": "Const", "attr": {"dtype": {"type": "DT_INT32"}, "value": {"tensor": {"dtype": "DT_INT32", "tensorShape": {"dim": [{"size": "4"}]}}}}}, {"name": "StatefulPartitionedCall/functional_8_1/moe_block_2_1/pool_mha_1_1/multi_head_attention_13_1/query_1/Add/ReadVariableOp", "op": "Const", "attr": {"dtype": {"type": "DT_FLOAT"}, "value": {"tensor": {"dtype": "DT_FLOAT", "tensorShape": {"dim": [{"size": "4"}, {"size": "32"}]}}}}}, {"name": "StatefulPartitionedCall/functional_8_1/moe_block_2_1/pool_mha_1_1/multi_head_attention_13_1/key_1/Reshape", "op": "Const", "attr": {"dtype": {"type": "DT_FLOAT"}, "value": {"tensor": {"dtype": "DT_FLOAT", "tensorShape": {"dim": [{"size": "128"}, {"size": "128"}]}}}}}, {"name": "StatefulPartitionedCall/functional_8_1/moe_block_2_1/pool_mha_1_1/multi_head_attention_13_1/key_1/Reshape_1/shape", "op": "Const", "attr": {"dtype": {"type": "DT_INT32"}, "value": {"tensor": {"dtype": "DT_INT32", "tensorShape": {"dim": [{"size": "4"}]}}}}}, {"name": "StatefulPartitionedCall/functional_8_1/moe_block_2_1/pool_mha_1_1/multi_head_attention_13_1/key_1/Add/ReadVariableOp", "op": "Const", "attr": {"dtype": {"type": "DT_FLOAT"}, "value": {"tensor": {"dtype": "DT_FLOAT", "tensorShape": {"dim": [{"size": "4"}, {"size": "32"}]}}}}}, {"name": "StatefulPartitionedCall/functional_8_1/moe_block_2_1/pool_mha_1_1/multi_head_attention_13_1/Cast/x", "op": "Const", "attr": {"dtype": {"type": "DT_FLOAT"}, "value": {"tensor": {"dtype": "DT_FLOAT", "tensorShape": {}}}}}, {"name": "StatefulPartitionedCall/functional_8_1/moe_block_2_1/pool_mha_1_1/layer_normalization_25_1/moments/mean/reduction_indices", "op": "Const", "attr": {"dtype": {"type": "DT_INT32"}, "value": {"tensor": {"dtype": "DT_INT32", "tensorShape": {"dim": [{"size": "1"}]}}}}}, {"name": "StatefulPartitionedCall/functional_8_1/moe_block_2_1/pool_mha_1_1/layer_normalization_25_1/moments/variance/reduction_indices", "op": "Const", "attr": {"dtype": {"type": "DT_INT32"}, "value": {"tensor": {"dtype": "DT_INT32", "tensorShape": {"dim": [{"size": "1"}]}}}}}, {"name": "StatefulPartitionedCall/functional_8_1/moe_block_2_1/pool_mha_1_1/layer_normalization_25_1/add/y", "op": "Const", "attr": {"dtype": {"type": "DT_FLOAT"}, "value": {"tensor": {"dtype": "DT_FLOAT", "tensorShape": {}}}}}, {"name": "StatefulPartitionedCall/functional_8_1/moe_block_2_1/pool_mha_1_1/layer_normalization_25_1/Reshape", "op": "Const", "attr": {"dtype": {"type": "DT_FLOAT"}, "value": {"tensor": {"dtype": "DT_FLOAT", "tensorShape": {"dim": [{"size": "1"}, {"size": "1"}, {"size": "128"}]}}}}}, {"name": "StatefulPartitionedCall/functional_8_1/moe_block_2_1/pool_mha_1_1/layer_normalization_25_1/Reshape_1", "op": "Const", "attr": {"dtype": {"type": "DT_FLOAT"}, "value": {"tensor": {"dtype": "DT_FLOAT", "tensorShape": {"dim": [{"size": "1"}, {"size": "1"}, {"size": "128"}]}}}}}, {"name": "StatefulPartitionedCall/functional_8_1/moe_block_2_1/pool_mha_1_1/multi_head_attention_13_1/value_1/Reshape", "op": "Const", "attr": {"dtype": {"type": "DT_FLOAT"}, "value": {"tensor": {"dtype": "DT_FLOAT", "tensorShape": {"dim": [{"size": "128"}, {"size": "128"}]}}}}}, {"name": "StatefulPartitionedCall/functional_8_1/moe_block_2_1/pool_mha_1_1/multi_head_attention_13_1/value_1/Reshape_1/shape", "op": "Const", "attr": {"dtype": {"type": "DT_INT32"}, "value": {"tensor": {"dtype": "DT_INT32", "tensorShape": {"dim": [{"size": "4"}]}}}}}, {"name": "StatefulPartitionedCall/functional_8_1/moe_block_2_1/pool_mha_1_1/multi_head_attention_13_1/value_1/Add/ReadVariableOp", "op": "Const", "attr": {"dtype": {"type": "DT_FLOAT"}, "value": {"tensor": {"dtype": "DT_FLOAT", "tensorShape": {"dim": [{"size": "4"}, {"size": "32"}]}}}}}, {"name": "StatefulPartitionedCall/functional_8_1/moe_block_2_1/pool_mha_1_1/multi_head_attention_13_1/attention_output_1/Reshape/shape", "op": "Const", "attr": {"dtype": {"type": "DT_INT32"}, "value": {"tensor": {"dtype": "DT_INT32", "tensorShape": {"dim": [{"size": "3"}]}}}}}, {"name": "StatefulPartitionedCall/functional_8_1/moe_block_2_1/pool_mha_1_1/multi_head_attention_13_1/attention_output_1/Reshape_1", "op": "Const", "attr": {"dtype": {"type": "DT_FLOAT"}, "value": {"tensor": {"dtype": "DT_FLOAT", "tensorShape": {"dim": [{"size": "128"}, {"size": "128"}]}}}}}, {"name": "StatefulPartitionedCall/functional_8_1/moe_block_2_1/pool_mha_1_1/multi_head_attention_13_1/attention_output_1/BiasAdd/ReadVariableOp", "op": "Const", "attr": {"dtype": {"type": "DT_FLOAT"}, "value": {"tensor": {"dtype": "DT_FLOAT", "tensorShape": {"dim": [{"size": "128"}]}}}}}, {"name": "StatefulPartitionedCall/functional_8_1/moe_block_2_1/pool_ffn_0_1/dense_25_1/mul_1/x", "op": "Const", "attr": {"dtype": {"type": "DT_FLOAT"}, "value": {"tensor": {"dtype": "DT_FLOAT", "tensorShape": {}}}}}, {"name": "StatefulPartitionedCall/functional_8_1/moe_block_2_1/pool_ffn_0_1/dense_25_1/mul/x", "op": "Const", "attr": {"dtype": {"type": "DT_FLOAT"}, "value": {"tensor": {"dtype": "DT_FLOAT", "tensorShape": {}}}}}, {"name": "StatefulPartitionedCall/functional_8_1/moe_block_2_1/pool_ffn_0_1/layer_normalization_26_1/moments/mean/reduction_indices", "op": "Const", "attr": {"dtype": {"type": "DT_INT32"}, "value": {"tensor": {"dtype": "DT_INT32", "tensorShape": {"dim": [{"size": "1"}]}}}}}, {"name": "StatefulPartitionedCall/functional_8_1/moe_block_2_1/pool_ffn_0_1/layer_normalization_26_1/moments/variance/reduction_indices", "op": "Const", "attr": {"dtype": {"type": "DT_INT32"}, "value": {"tensor": {"dtype": "DT_INT32", "tensorShape": {"dim": [{"size": "1"}]}}}}}, {"name": "StatefulPartitionedCall/functional_8_1/moe_block_2_1/pool_ffn_0_1/layer_normalization_26_1/add/y", "op": "Const", "attr": {"dtype": {"type": "DT_FLOAT"}, "value": {"tensor": {"dtype": "DT_FLOAT", "tensorShape": {}}}}}, {"name": "StatefulPartitionedCall/functional_8_1/moe_block_2_1/pool_ffn_0_1/layer_normalization_26_1/Reshape", "op": "Const", "attr": {"dtype": {"type": "DT_FLOAT"}, "value": {"tensor": {"dtype": "DT_FLOAT", "tensorShape": {"dim": [{"size": "1"}, {"size": "1"}, {"size": "128"}]}}}}}, {"name": "StatefulPartitionedCall/functional_8_1/moe_block_2_1/pool_ffn_0_1/layer_normalization_26_1/Reshape_1", "op": "Const", "attr": {"dtype": {"type": "DT_FLOAT"}, "value": {"tensor": {"dtype": "DT_FLOAT", "tensorShape": {"dim": [{"size": "1"}, {"size": "1"}, {"size": "128"}]}}}}}, {"name": "StatefulPartitionedCall/functional_8_1/moe_block_2_1/pool_ffn_0_1/dense_25_1/Cast/ReadVariableOp", "op": "Const", "attr": {"dtype": {"type": "DT_FLOAT"}, "value": {"tensor": {"dtype": "DT_FLOAT", "tensorShape": {"dim": [{"size": "128"}, {"size": "512"}]}}}}}, {"name": "StatefulPartitionedCall/functional_8_1/moe_block_2_1/pool_ffn_0_1/dense_25_1/BiasAdd/ReadVariableOp", "op": "Const", "attr": {"dtype": {"type": "DT_FLOAT"}, "value": {"tensor": {"dtype": "DT_FLOAT", "tensorShape": {"dim": [{"size": "512"}]}}}}}, {"name": "StatefulPartitionedCall/functional_8_1/moe_block_2_1/pool_ffn_0_1/dense_25_1/Pow/y", "op": "Const", "attr": {"dtype": {"type": "DT_FLOAT"}, "value": {"tensor": {"dtype": "DT_FLOAT", "tensorShape": {}}}}}, {"name": "StatefulPartitionedCall/functional_8_1/moe_block_2_1/pool_ffn_0_1/dense_26_1/Cast/ReadVariableOp", "op": "Const", "attr": {"dtype": {"type": "DT_FLOAT"}, "value": {"tensor": {"dtype": "DT_FLOAT", "tensorShape": {"dim": [{"size": "512"}, {"size": "128"}]}}}}}, {"name": "StatefulPartitionedCall/functional_8_1/moe_block_2_1/pool_ffn_0_1/dense_26_1/BiasAdd/ReadVariableOp", "op": "Const", "attr": {"dtype": {"type": "DT_FLOAT"}, "value": {"tensor": {"dtype": "DT_FLOAT", "tensorShape": {"dim": [{"size": "128"}]}}}}}, {"name": "StatefulPartitionedCall/functional_8_1/moe_block_2_1/pool_ffn_1_1/dense_27_1/mul_1/x", "op": "Const", "attr": {"dtype": {"type": "DT_FLOAT"}, "value": {"tensor": {"dtype": "DT_FLOAT", "tensorShape": {}}}}}, {"name": "StatefulPartitionedCall/functional_8_1/moe_block_2_1/pool_ffn_1_1/dense_27_1/mul/x", "op": "Const", "attr": {"dtype": {"type": "DT_FLOAT"}, "value": {"tensor": {"dtype": "DT_FLOAT", "tensorShape": {}}}}}, {"name": "StatefulPartitionedCall/functional_8_1/moe_block_2_1/pool_ffn_1_1/layer_normalization_27_1/moments/mean/reduction_indices", "op": "Const", "attr": {"dtype": {"type": "DT_INT32"}, "value": {"tensor": {"dtype": "DT_INT32", "tensorShape": {"dim": [{"size": "1"}]}}}}}, {"name": "StatefulPartitionedCall/functional_8_1/moe_block_2_1/pool_ffn_1_1/layer_normalization_27_1/moments/variance/reduction_indices", "op": "Const", "attr": {"dtype": {"type": "DT_INT32"}, "value": {"tensor": {"dtype": "DT_INT32", "tensorShape": {"dim": [{"size": "1"}]}}}}}, {"name": "StatefulPartitionedCall/functional_8_1/moe_block_2_1/pool_ffn_1_1/layer_normalization_27_1/add/y", "op": "Const", "attr": {"dtype": {"type": "DT_FLOAT"}, "value": {"tensor": {"dtype": "DT_FLOAT", "tensorShape": {}}}}}, {"name": "StatefulPartitionedCall/functional_8_1/moe_block_2_1/pool_ffn_1_1/layer_normalization_27_1/Reshape", "op": "Const", "attr": {"dtype": {"type": "DT_FLOAT"}, "value": {"tensor": {"dtype": "DT_FLOAT", "tensorShape": {"dim": [{"size": "1"}, {"size": "1"}, {"size": "128"}]}}}}}, {"name": "StatefulPartitionedCall/functional_8_1/moe_block_2_1/pool_ffn_1_1/layer_normalization_27_1/Reshape_1", "op": "Const", "attr": {"dtype": {"type": "DT_FLOAT"}, "value": {"tensor": {"dtype": "DT_FLOAT", "tensorShape": {"dim": [{"size": "1"}, {"size": "1"}, {"size": "128"}]}}}}}, {"name": "StatefulPartitionedCall/functional_8_1/moe_block_2_1/pool_ffn_1_1/dense_27_1/Cast/ReadVariableOp", "op": "Const", "attr": {"dtype": {"type": "DT_FLOAT"}, "value": {"tensor": {"dtype": "DT_FLOAT", "tensorShape": {"dim": [{"size": "128"}, {"size": "512"}]}}}}}, {"name": "StatefulPartitionedCall/functional_8_1/moe_block_2_1/pool_ffn_1_1/dense_27_1/BiasAdd/ReadVariableOp", "op": "Const", "attr": {"dtype": {"type": "DT_FLOAT"}, "value": {"tensor": {"dtype": "DT_FLOAT", "tensorShape": {"dim": [{"size": "512"}]}}}}}, {"name": "StatefulPartitionedCall/functional_8_1/moe_block_2_1/pool_ffn_1_1/dense_27_1/Pow/y", "op": "Const", "attr": {"dtype": {"type": "DT_FLOAT"}, "value": {"tensor": {"dtype": "DT_FLOAT", "tensorShape": {}}}}}, {"name": "StatefulPartitionedCall/functional_8_1/moe_block_2_1/pool_ffn_1_1/dense_28_1/Cast/ReadVariableOp", "op": "Const", "attr": {"dtype": {"type": "DT_FLOAT"}, "value": {"tensor": {"dtype": "DT_FLOAT", "tensorShape": {"dim": [{"size": "512"}, {"size": "128"}]}}}}}, {"name": "StatefulPartitionedCall/functional_8_1/moe_block_2_1/pool_ffn_1_1/dense_28_1/BiasAdd/ReadVariableOp", "op": "Const", "attr": {"dtype": {"type": "DT_FLOAT"}, "value": {"tensor": {"dtype": "DT_FLOAT", "tensorShape": {"dim": [{"size": "128"}]}}}}}, {"name": "StatefulPartitionedCall/functional_8_1/moe_block_1_1/pool_mha_0_3/multi_head_attention_10_1/query_1/Reshape", "op": "Const", "attr": {"dtype": {"type": "DT_FLOAT"}, "value": {"tensor": {"dtype": "DT_FLOAT", "tensorShape": {"dim": [{"size": "128"}, {"size": "128"}]}}}}}, {"name": "StatefulPartitionedCall/functional_8_1/moe_block_1_1/pool_mha_0_3/multi_head_attention_10_1/query_1/Reshape_1/shape", "op": "Const", "attr": {"dtype": {"type": "DT_INT32"}, "value": {"tensor": {"dtype": "DT_INT32", "tensorShape": {"dim": [{"size": "4"}]}}}}}, {"name": "StatefulPartitionedCall/functional_8_1/moe_block_1_1/pool_mha_0_3/multi_head_attention_10_1/query_1/Add/ReadVariableOp", "op": "Const", "attr": {"dtype": {"type": "DT_FLOAT"}, "value": {"tensor": {"dtype": "DT_FLOAT", "tensorShape": {"dim": [{"size": "4"}, {"size": "32"}]}}}}}, {"name": "StatefulPartitionedCall/functional_8_1/moe_block_1_1/pool_mha_0_3/multi_head_attention_10_1/key_1/Reshape", "op": "Const", "attr": {"dtype": {"type": "DT_FLOAT"}, "value": {"tensor": {"dtype": "DT_FLOAT", "tensorShape": {"dim": [{"size": "128"}, {"size": "128"}]}}}}}, {"name": "StatefulPartitionedCall/functional_8_1/moe_block_1_1/pool_mha_0_3/multi_head_attention_10_1/key_1/Reshape_1/shape", "op": "Const", "attr": {"dtype": {"type": "DT_INT32"}, "value": {"tensor": {"dtype": "DT_INT32", "tensorShape": {"dim": [{"size": "4"}]}}}}}, {"name": "StatefulPartitionedCall/functional_8_1/moe_block_1_1/pool_mha_0_3/multi_head_attention_10_1/key_1/Add/ReadVariableOp", "op": "Const", "attr": {"dtype": {"type": "DT_FLOAT"}, "value": {"tensor": {"dtype": "DT_FLOAT", "tensorShape": {"dim": [{"size": "4"}, {"size": "32"}]}}}}}, {"name": "StatefulPartitionedCall/functional_8_1/moe_block_1_1/pool_mha_0_3/multi_head_attention_10_1/Cast/x", "op": "Const", "attr": {"dtype": {"type": "DT_FLOAT"}, "value": {"tensor": {"dtype": "DT_FLOAT", "tensorShape": {}}}}}, {"name": "StatefulPartitionedCall/functional_8_1/moe_block_1_1/pool_mha_0_3/layer_normalization_20_1/moments/mean/reduction_indices", "op": "Const", "attr": {"dtype": {"type": "DT_INT32"}, "value": {"tensor": {"dtype": "DT_INT32", "tensorShape": {"dim": [{"size": "1"}]}}}}}, {"name": "StatefulPartitionedCall/functional_8_1/moe_block_1_1/pool_mha_0_3/layer_normalization_20_1/moments/variance/reduction_indices", "op": "Const", "attr": {"dtype": {"type": "DT_INT32"}, "value": {"tensor": {"dtype": "DT_INT32", "tensorShape": {"dim": [{"size": "1"}]}}}}}, {"name": "StatefulPartitionedCall/functional_8_1/moe_block_1_1/pool_mha_0_3/layer_normalization_20_1/add/y", "op": "Const", "attr": {"dtype": {"type": "DT_FLOAT"}, "value": {"tensor": {"dtype": "DT_FLOAT", "tensorShape": {}}}}}, {"name": "StatefulPartitionedCall/functional_8_1/moe_block_1_1/pool_mha_0_3/layer_normalization_20_1/Reshape", "op": "Const", "attr": {"dtype": {"type": "DT_FLOAT"}, "value": {"tensor": {"dtype": "DT_FLOAT", "tensorShape": {"dim": [{"size": "1"}, {"size": "1"}, {"size": "128"}]}}}}}, {"name": "StatefulPartitionedCall/functional_8_1/moe_block_1_1/pool_mha_0_3/layer_normalization_20_1/Reshape_1", "op": "Const", "attr": {"dtype": {"type": "DT_FLOAT"}, "value": {"tensor": {"dtype": "DT_FLOAT", "tensorShape": {"dim": [{"size": "1"}, {"size": "1"}, {"size": "128"}]}}}}}, {"name": "StatefulPartitionedCall/functional_8_1/moe_block_1_1/pool_mha_0_3/multi_head_attention_10_1/value_1/Reshape", "op": "Const", "attr": {"dtype": {"type": "DT_FLOAT"}, "value": {"tensor": {"dtype": "DT_FLOAT", "tensorShape": {"dim": [{"size": "128"}, {"size": "128"}]}}}}}, {"name": "StatefulPartitionedCall/functional_8_1/moe_block_1_1/pool_mha_0_3/multi_head_attention_10_1/value_1/Reshape_1/shape", "op": "Const", "attr": {"dtype": {"type": "DT_INT32"}, "value": {"tensor": {"dtype": "DT_INT32", "tensorShape": {"dim": [{"size": "4"}]}}}}}, {"name": "StatefulPartitionedCall/functional_8_1/moe_block_1_1/pool_mha_0_3/multi_head_attention_10_1/value_1/Add/ReadVariableOp", "op": "Const", "attr": {"dtype": {"type": "DT_FLOAT"}, "value": {"tensor": {"dtype": "DT_FLOAT", "tensorShape": {"dim": [{"size": "4"}, {"size": "32"}]}}}}}, {"name": "StatefulPartitionedCall/functional_8_1/moe_block_1_1/pool_mha_0_3/multi_head_attention_10_1/attention_output_1/Reshape/shape", "op": "Const", "attr": {"dtype": {"type": "DT_INT32"}, "value": {"tensor": {"dtype": "DT_INT32", "tensorShape": {"dim": [{"size": "3"}]}}}}}, {"name": "StatefulPartitionedCall/functional_8_1/moe_block_1_1/pool_mha_0_3/multi_head_attention_10_1/attention_output_1/Reshape_1", "op": "Const", "attr": {"dtype": {"type": "DT_FLOAT"}, "value": {"tensor": {"dtype": "DT_FLOAT", "tensorShape": {"dim": [{"size": "128"}, {"size": "128"}]}}}}}, {"name": "StatefulPartitionedCall/functional_8_1/moe_block_1_1/pool_mha_0_3/multi_head_attention_10_1/attention_output_1/BiasAdd/ReadVariableOp", "op": "Const", "attr": {"dtype": {"type": "DT_FLOAT"}, "value": {"tensor": {"dtype": "DT_FLOAT", "tensorShape": {"dim": [{"size": "128"}]}}}}}, {"name": "StatefulPartitionedCall/functional_8_1/moe_block_1_1/pool_mha_1_3/multi_head_attention_11_1/query_1/Reshape", "op": "Const", "attr": {"dtype": {"type": "DT_FLOAT"}, "value": {"tensor": {"dtype": "DT_FLOAT", "tensorShape": {"dim": [{"size": "128"}, {"size": "128"}]}}}}}, {"name": "StatefulPartitionedCall/functional_8_1/moe_block_1_1/pool_mha_1_3/multi_head_attention_11_1/query_1/Reshape_1/shape", "op": "Const", "attr": {"dtype": {"type": "DT_INT32"}, "value": {"tensor": {"dtype": "DT_INT32", "tensorShape": {"dim": [{"size": "4"}]}}}}}, {"name": "StatefulPartitionedCall/functional_8_1/moe_block_1_1/pool_mha_1_3/multi_head_attention_11_1/query_1/Add/ReadVariableOp", "op": "Const", "attr": {"dtype": {"type": "DT_FLOAT"}, "value": {"tensor": {"dtype": "DT_FLOAT", "tensorShape": {"dim": [{"size": "4"}, {"size": "32"}]}}}}}, {"name": "StatefulPartitionedCall/functional_8_1/moe_block_1_1/pool_mha_1_3/multi_head_attention_11_1/key_1/Reshape", "op": "Const", "attr": {"dtype": {"type": "DT_FLOAT"}, "value": {"tensor": {"dtype": "DT_FLOAT", "tensorShape": {"dim": [{"size": "128"}, {"size": "128"}]}}}}}, {"name": "StatefulPartitionedCall/functional_8_1/moe_block_1_1/pool_mha_1_3/multi_head_attention_11_1/key_1/Reshape_1/shape", "op": "Const", "attr": {"dtype": {"type": "DT_INT32"}, "value": {"tensor": {"dtype": "DT_INT32", "tensorShape": {"dim": [{"size": "4"}]}}}}}, {"name": "StatefulPartitionedCall/functional_8_1/moe_block_1_1/pool_mha_1_3/multi_head_attention_11_1/key_1/Add/ReadVariableOp", "op": "Const", "attr": {"dtype": {"type": "DT_FLOAT"}, "value": {"tensor": {"dtype": "DT_FLOAT", "tensorShape": {"dim": [{"size": "4"}, {"size": "32"}]}}}}}, {"name": "StatefulPartitionedCall/functional_8_1/moe_block_1_1/pool_mha_1_3/multi_head_attention_11_1/Cast/x", "op": "Const", "attr": {"dtype": {"type": "DT_FLOAT"}, "value": {"tensor": {"dtype": "DT_FLOAT", "tensorShape": {}}}}}, {"name": "StatefulPartitionedCall/functional_8_1/moe_block_1_1/pool_mha_1_3/layer_normalization_21_1/moments/mean/reduction_indices", "op": "Const", "attr": {"dtype": {"type": "DT_INT32"}, "value": {"tensor": {"dtype": "DT_INT32", "tensorShape": {"dim": [{"size": "1"}]}}}}}, {"name": "StatefulPartitionedCall/functional_8_1/moe_block_1_1/pool_mha_1_3/layer_normalization_21_1/moments/variance/reduction_indices", "op": "Const", "attr": {"dtype": {"type": "DT_INT32"}, "value": {"tensor": {"dtype": "DT_INT32", "tensorShape": {"dim": [{"size": "1"}]}}}}}, {"name": "StatefulPartitionedCall/functional_8_1/moe_block_1_1/pool_mha_1_3/layer_normalization_21_1/add/y", "op": "Const", "attr": {"dtype": {"type": "DT_FLOAT"}, "value": {"tensor": {"dtype": "DT_FLOAT", "tensorShape": {}}}}}, {"name": "StatefulPartitionedCall/functional_8_1/moe_block_1_1/pool_mha_1_3/layer_normalization_21_1/Reshape", "op": "Const", "attr": {"dtype": {"type": "DT_FLOAT"}, "value": {"tensor": {"dtype": "DT_FLOAT", "tensorShape": {"dim": [{"size": "1"}, {"size": "1"}, {"size": "128"}]}}}}}, {"name": "StatefulPartitionedCall/functional_8_1/moe_block_1_1/pool_mha_1_3/layer_normalization_21_1/Reshape_1", "op": "Const", "attr": {"dtype": {"type": "DT_FLOAT"}, "value": {"tensor": {"dtype": "DT_FLOAT", "tensorShape": {"dim": [{"size": "1"}, {"size": "1"}, {"size": "128"}]}}}}}, {"name": "StatefulPartitionedCall/functional_8_1/moe_block_1_1/pool_mha_1_3/multi_head_attention_11_1/value_1/Reshape", "op": "Const", "attr": {"dtype": {"type": "DT_FLOAT"}, "value": {"tensor": {"dtype": "DT_FLOAT", "tensorShape": {"dim": [{"size": "128"}, {"size": "128"}]}}}}}, {"name": "StatefulPartitionedCall/functional_8_1/moe_block_1_1/pool_mha_1_3/multi_head_attention_11_1/value_1/Reshape_1/shape", "op": "Const", "attr": {"dtype": {"type": "DT_INT32"}, "value": {"tensor": {"dtype": "DT_INT32", "tensorShape": {"dim": [{"size": "4"}]}}}}}, {"name": "StatefulPartitionedCall/functional_8_1/moe_block_1_1/pool_mha_1_3/multi_head_attention_11_1/value_1/Add/ReadVariableOp", "op": "Const", "attr": {"dtype": {"type": "DT_FLOAT"}, "value": {"tensor": {"dtype": "DT_FLOAT", "tensorShape": {"dim": [{"size": "4"}, {"size": "32"}]}}}}}, {"name": "StatefulPartitionedCall/functional_8_1/moe_block_1_1/pool_mha_1_3/multi_head_attention_11_1/attention_output_1/Reshape/shape", "op": "Const", "attr": {"dtype": {"type": "DT_INT32"}, "value": {"tensor": {"dtype": "DT_INT32", "tensorShape": {"dim": [{"size": "3"}]}}}}}, {"name": "StatefulPartitionedCall/functional_8_1/moe_block_1_1/pool_mha_1_3/multi_head_attention_11_1/attention_output_1/Reshape_1", "op": "Const", "attr": {"dtype": {"type": "DT_FLOAT"}, "value": {"tensor": {"dtype": "DT_FLOAT", "tensorShape": {"dim": [{"size": "128"}, {"size": "128"}]}}}}}, {"name": "StatefulPartitionedCall/functional_8_1/moe_block_1_1/pool_mha_1_3/multi_head_attention_11_1/attention_output_1/BiasAdd/ReadVariableOp", "op": "Const", "attr": {"dtype": {"type": "DT_FLOAT"}, "value": {"tensor": {"dtype": "DT_FLOAT", "tensorShape": {"dim": [{"size": "128"}]}}}}}, {"name": "StatefulPartitionedCall/functional_8_1/moe_block_1_1/pool_ffn_0_3/dense_21_1/mul_1/x", "op": "Const", "attr": {"dtype": {"type": "DT_FLOAT"}, "value": {"tensor": {"dtype": "DT_FLOAT", "tensorShape": {}}}}}, {"name": "StatefulPartitionedCall/functional_8_1/moe_block_1_1/pool_ffn_0_3/dense_21_1/mul/x", "op": "Const", "attr": {"dtype": {"type": "DT_FLOAT"}, "value": {"tensor": {"dtype": "DT_FLOAT", "tensorShape": {}}}}}, {"name": "StatefulPartitionedCall/functional_8_1/moe_block_1_1/pool_ffn_0_3/layer_normalization_22_1/moments/mean/reduction_indices", "op": "Const", "attr": {"dtype": {"type": "DT_INT32"}, "value": {"tensor": {"dtype": "DT_INT32", "tensorShape": {"dim": [{"size": "1"}]}}}}}, {"name": "StatefulPartitionedCall/functional_8_1/moe_block_1_1/pool_ffn_0_3/layer_normalization_22_1/moments/variance/reduction_indices", "op": "Const", "attr": {"dtype": {"type": "DT_INT32"}, "value": {"tensor": {"dtype": "DT_INT32", "tensorShape": {"dim": [{"size": "1"}]}}}}}, {"name": "StatefulPartitionedCall/functional_8_1/moe_block_1_1/pool_ffn_0_3/layer_normalization_22_1/add/y", "op": "Const", "attr": {"dtype": {"type": "DT_FLOAT"}, "value": {"tensor": {"dtype": "DT_FLOAT", "tensorShape": {}}}}}, {"name": "StatefulPartitionedCall/functional_8_1/moe_block_1_1/pool_ffn_0_3/layer_normalization_22_1/Reshape", "op": "Const", "attr": {"dtype": {"type": "DT_FLOAT"}, "value": {"tensor": {"dtype": "DT_FLOAT", "tensorShape": {"dim": [{"size": "1"}, {"size": "1"}, {"size": "128"}]}}}}}, {"name": "StatefulPartitionedCall/functional_8_1/moe_block_1_1/pool_ffn_0_3/layer_normalization_22_1/Reshape_1", "op": "Const", "attr": {"dtype": {"type": "DT_FLOAT"}, "value": {"tensor": {"dtype": "DT_FLOAT", "tensorShape": {"dim": [{"size": "1"}, {"size": "1"}, {"size": "128"}]}}}}}, {"name": "StatefulPartitionedCall/functional_8_1/moe_block_1_1/pool_ffn_0_3/dense_21_1/Cast/ReadVariableOp", "op": "Const", "attr": {"dtype": {"type": "DT_FLOAT"}, "value": {"tensor": {"dtype": "DT_FLOAT", "tensorShape": {"dim": [{"size": "128"}, {"size": "512"}]}}}}}, {"name": "StatefulPartitionedCall/functional_8_1/moe_block_1_1/pool_ffn_0_3/dense_21_1/BiasAdd/ReadVariableOp", "op": "Const", "attr": {"dtype": {"type": "DT_FLOAT"}, "value": {"tensor": {"dtype": "DT_FLOAT", "tensorShape": {"dim": [{"size": "512"}]}}}}}, {"name": "StatefulPartitionedCall/functional_8_1/moe_block_1_1/pool_ffn_0_3/dense_21_1/Pow/y", "op": "Const", "attr": {"dtype": {"type": "DT_FLOAT"}, "value": {"tensor": {"dtype": "DT_FLOAT", "tensorShape": {}}}}}, {"name": "StatefulPartitionedCall/functional_8_1/moe_block_1_1/pool_ffn_0_3/dense_22_1/Cast/ReadVariableOp", "op": "Const", "attr": {"dtype": {"type": "DT_FLOAT"}, "value": {"tensor": {"dtype": "DT_FLOAT", "tensorShape": {"dim": [{"size": "512"}, {"size": "128"}]}}}}}, {"name": "StatefulPartitionedCall/functional_8_1/moe_block_1_1/pool_ffn_0_3/dense_22_1/BiasAdd/ReadVariableOp", "op": "Const", "attr": {"dtype": {"type": "DT_FLOAT"}, "value": {"tensor": {"dtype": "DT_FLOAT", "tensorShape": {"dim": [{"size": "128"}]}}}}}, {"name": "StatefulPartitionedCall/functional_8_1/moe_block_1_1/pool_ffn_1_3/dense_23_1/mul_1/x", "op": "Const", "attr": {"dtype": {"type": "DT_FLOAT"}, "value": {"tensor": {"dtype": "DT_FLOAT", "tensorShape": {}}}}}, {"name": "StatefulPartitionedCall/functional_8_1/moe_block_1_1/pool_ffn_1_3/dense_23_1/mul/x", "op": "Const", "attr": {"dtype": {"type": "DT_FLOAT"}, "value": {"tensor": {"dtype": "DT_FLOAT", "tensorShape": {}}}}}, {"name": "StatefulPartitionedCall/functional_8_1/moe_block_1_1/pool_ffn_1_3/layer_normalization_23_1/moments/mean/reduction_indices", "op": "Const", "attr": {"dtype": {"type": "DT_INT32"}, "value": {"tensor": {"dtype": "DT_INT32", "tensorShape": {"dim": [{"size": "1"}]}}}}}, {"name": "StatefulPartitionedCall/functional_8_1/moe_block_1_1/pool_ffn_1_3/layer_normalization_23_1/moments/variance/reduction_indices", "op": "Const", "attr": {"dtype": {"type": "DT_INT32"}, "value": {"tensor": {"dtype": "DT_INT32", "tensorShape": {"dim": [{"size": "1"}]}}}}}, {"name": "StatefulPartitionedCall/functional_8_1/moe_block_1_1/pool_ffn_1_3/layer_normalization_23_1/add/y", "op": "Const", "attr": {"dtype": {"type": "DT_FLOAT"}, "value": {"tensor": {"dtype": "DT_FLOAT", "tensorShape": {}}}}}, {"name": "StatefulPartitionedCall/functional_8_1/moe_block_1_1/pool_ffn_1_3/layer_normalization_23_1/Reshape", "op": "Const", "attr": {"dtype": {"type": "DT_FLOAT"}, "value": {"tensor": {"dtype": "DT_FLOAT", "tensorShape": {"dim": [{"size": "1"}, {"size": "1"}, {"size": "128"}]}}}}}, {"name": "StatefulPartitionedCall/functional_8_1/moe_block_1_1/pool_ffn_1_3/layer_normalization_23_1/Reshape_1", "op": "Const", "attr": {"dtype": {"type": "DT_FLOAT"}, "value": {"tensor": {"dtype": "DT_FLOAT", "tensorShape": {"dim": [{"size": "1"}, {"size": "1"}, {"size": "128"}]}}}}}, {"name": "StatefulPartitionedCall/functional_8_1/moe_block_1_1/pool_ffn_1_3/dense_23_1/Cast/ReadVariableOp", "op": "Const", "attr": {"dtype": {"type": "DT_FLOAT"}, "value": {"tensor": {"dtype": "DT_FLOAT", "tensorShape": {"dim": [{"size": "128"}, {"size": "512"}]}}}}}, {"name": "StatefulPartitionedCall/functional_8_1/moe_block_1_1/pool_ffn_1_3/dense_23_1/BiasAdd/ReadVariableOp", "op": "Const", "attr": {"dtype": {"type": "DT_FLOAT"}, "value": {"tensor": {"dtype": "DT_FLOAT", "tensorShape": {"dim": [{"size": "512"}]}}}}}, {"name": "StatefulPartitionedCall/functional_8_1/moe_block_1_1/pool_ffn_1_3/dense_23_1/Pow/y", "op": "Const", "attr": {"dtype": {"type": "DT_FLOAT"}, "value": {"tensor": {"dtype": "DT_FLOAT", "tensorShape": {}}}}}, {"name": "StatefulPartitionedCall/functional_8_1/moe_block_1_1/pool_ffn_1_3/dense_24_1/Cast/ReadVariableOp", "op": "Const", "attr": {"dtype": {"type": "DT_FLOAT"}, "value": {"tensor": {"dtype": "DT_FLOAT", "tensorShape": {"dim": [{"size": "512"}, {"size": "128"}]}}}}}, {"name": "StatefulPartitionedCall/functional_8_1/moe_block_1_1/pool_ffn_1_3/dense_24_1/BiasAdd/ReadVariableOp", "op": "Const", "attr": {"dtype": {"type": "DT_FLOAT"}, "value": {"tensor": {"dtype": "DT_FLOAT", "tensorShape": {"dim": [{"size": "128"}]}}}}}, {"name": "StatefulPartitionedCall/functional_8_1/moe_block_1_1/pool_mha_0_1/multi_head_attention_10_1/query_1/Reshape", "op": "Const", "attr": {"dtype": {"type": "DT_FLOAT"}, "value": {"tensor": {"dtype": "DT_FLOAT", "tensorShape": {"dim": [{"size": "128"}, {"size": "128"}]}}}}}, {"name": "StatefulPartitionedCall/functional_8_1/moe_block_1_1/pool_mha_0_1/multi_head_attention_10_1/query_1/Reshape_1/shape", "op": "Const", "attr": {"dtype": {"type": "DT_INT32"}, "value": {"tensor": {"dtype": "DT_INT32", "tensorShape": {"dim": [{"size": "4"}]}}}}}, {"name": "StatefulPartitionedCall/functional_8_1/moe_block_1_1/pool_mha_0_1/multi_head_attention_10_1/query_1/Add/ReadVariableOp", "op": "Const", "attr": {"dtype": {"type": "DT_FLOAT"}, "value": {"tensor": {"dtype": "DT_FLOAT", "tensorShape": {"dim": [{"size": "4"}, {"size": "32"}]}}}}}, {"name": "StatefulPartitionedCall/functional_8_1/moe_block_1_1/pool_mha_0_1/multi_head_attention_10_1/key_1/Reshape", "op": "Const", "attr": {"dtype": {"type": "DT_FLOAT"}, "value": {"tensor": {"dtype": "DT_FLOAT", "tensorShape": {"dim": [{"size": "128"}, {"size": "128"}]}}}}}, {"name": "StatefulPartitionedCall/functional_8_1/moe_block_1_1/pool_mha_0_1/multi_head_attention_10_1/key_1/Reshape_1/shape", "op": "Const", "attr": {"dtype": {"type": "DT_INT32"}, "value": {"tensor": {"dtype": "DT_INT32", "tensorShape": {"dim": [{"size": "4"}]}}}}}, {"name": "StatefulPartitionedCall/functional_8_1/moe_block_1_1/pool_mha_0_1/multi_head_attention_10_1/key_1/Add/ReadVariableOp", "op": "Const", "attr": {"dtype": {"type": "DT_FLOAT"}, "value": {"tensor": {"dtype": "DT_FLOAT", "tensorShape": {"dim": [{"size": "4"}, {"size": "32"}]}}}}}, {"name": "StatefulPartitionedCall/functional_8_1/moe_block_1_1/pool_mha_0_1/multi_head_attention_10_1/Cast/x", "op": "Const", "attr": {"dtype": {"type": "DT_FLOAT"}, "value": {"tensor": {"dtype": "DT_FLOAT", "tensorShape": {}}}}}, {"name": "StatefulPartitionedCall/functional_8_1/moe_block_1_1/pool_mha_0_1/layer_normalization_20_1/moments/mean/reduction_indices", "op": "Const", "attr": {"dtype": {"type": "DT_INT32"}, "value": {"tensor": {"dtype": "DT_INT32", "tensorShape": {"dim": [{"size": "1"}]}}}}}, {"name": "StatefulPartitionedCall/functional_8_1/moe_block_1_1/pool_mha_0_1/layer_normalization_20_1/moments/variance/reduction_indices", "op": "Const", "attr": {"dtype": {"type": "DT_INT32"}, "value": {"tensor": {"dtype": "DT_INT32", "tensorShape": {"dim": [{"size": "1"}]}}}}}, {"name": "StatefulPartitionedCall/functional_8_1/moe_block_1_1/pool_mha_0_1/layer_normalization_20_1/add/y", "op": "Const", "attr": {"dtype": {"type": "DT_FLOAT"}, "value": {"tensor": {"dtype": "DT_FLOAT", "tensorShape": {}}}}}, {"name": "StatefulPartitionedCall/functional_8_1/moe_block_1_1/pool_mha_0_1/layer_normalization_20_1/Reshape", "op": "Const", "attr": {"dtype": {"type": "DT_FLOAT"}, "value": {"tensor": {"dtype": "DT_FLOAT", "tensorShape": {"dim": [{"size": "1"}, {"size": "1"}, {"size": "128"}]}}}}}, {"name": "StatefulPartitionedCall/functional_8_1/moe_block_1_1/pool_mha_0_1/layer_normalization_20_1/Reshape_1", "op": "Const", "attr": {"dtype": {"type": "DT_FLOAT"}, "value": {"tensor": {"dtype": "DT_FLOAT", "tensorShape": {"dim": [{"size": "1"}, {"size": "1"}, {"size": "128"}]}}}}}, {"name": "StatefulPartitionedCall/functional_8_1/moe_block_1_1/pool_mha_0_1/multi_head_attention_10_1/value_1/Reshape", "op": "Const", "attr": {"dtype": {"type": "DT_FLOAT"}, "value": {"tensor": {"dtype": "DT_FLOAT", "tensorShape": {"dim": [{"size": "128"}, {"size": "128"}]}}}}}, {"name": "StatefulPartitionedCall/functional_8_1/moe_block_1_1/pool_mha_0_1/multi_head_attention_10_1/value_1/Reshape_1/shape", "op": "Const", "attr": {"dtype": {"type": "DT_INT32"}, "value": {"tensor": {"dtype": "DT_INT32", "tensorShape": {"dim": [{"size": "4"}]}}}}}, {"name": "StatefulPartitionedCall/functional_8_1/moe_block_1_1/pool_mha_0_1/multi_head_attention_10_1/value_1/Add/ReadVariableOp", "op": "Const", "attr": {"dtype": {"type": "DT_FLOAT"}, "value": {"tensor": {"dtype": "DT_FLOAT", "tensorShape": {"dim": [{"size": "4"}, {"size": "32"}]}}}}}, {"name": "StatefulPartitionedCall/functional_8_1/moe_block_1_1/pool_mha_0_1/multi_head_attention_10_1/attention_output_1/Reshape/shape", "op": "Const", "attr": {"dtype": {"type": "DT_INT32"}, "value": {"tensor": {"dtype": "DT_INT32", "tensorShape": {"dim": [{"size": "3"}]}}}}}, {"name": "StatefulPartitionedCall/functional_8_1/moe_block_1_1/pool_mha_0_1/multi_head_attention_10_1/attention_output_1/Reshape_1", "op": "Const", "attr": {"dtype": {"type": "DT_FLOAT"}, "value": {"tensor": {"dtype": "DT_FLOAT", "tensorShape": {"dim": [{"size": "128"}, {"size": "128"}]}}}}}, {"name": "StatefulPartitionedCall/functional_8_1/moe_block_1_1/pool_mha_0_1/multi_head_attention_10_1/attention_output_1/BiasAdd/ReadVariableOp", "op": "Const", "attr": {"dtype": {"type": "DT_FLOAT"}, "value": {"tensor": {"dtype": "DT_FLOAT", "tensorShape": {"dim": [{"size": "128"}]}}}}}, {"name": "StatefulPartitionedCall/functional_8_1/moe_block_1_1/pool_mha_1_1/multi_head_attention_11_1/query_1/Reshape", "op": "Const", "attr": {"dtype": {"type": "DT_FLOAT"}, "value": {"tensor": {"dtype": "DT_FLOAT", "tensorShape": {"dim": [{"size": "128"}, {"size": "128"}]}}}}}, {"name": "StatefulPartitionedCall/functional_8_1/moe_block_1_1/pool_mha_1_1/multi_head_attention_11_1/query_1/Reshape_1/shape", "op": "Const", "attr": {"dtype": {"type": "DT_INT32"}, "value": {"tensor": {"dtype": "DT_INT32", "tensorShape": {"dim": [{"size": "4"}]}}}}}, {"name": "StatefulPartitionedCall/functional_8_1/moe_block_1_1/pool_mha_1_1/multi_head_attention_11_1/query_1/Add/ReadVariableOp", "op": "Const", "attr": {"dtype": {"type": "DT_FLOAT"}, "value": {"tensor": {"dtype": "DT_FLOAT", "tensorShape": {"dim": [{"size": "4"}, {"size": "32"}]}}}}}, {"name": "StatefulPartitionedCall/functional_8_1/moe_block_1_1/pool_mha_1_1/multi_head_attention_11_1/key_1/Reshape", "op": "Const", "attr": {"dtype": {"type": "DT_FLOAT"}, "value": {"tensor": {"dtype": "DT_FLOAT", "tensorShape": {"dim": [{"size": "128"}, {"size": "128"}]}}}}}, {"name": "StatefulPartitionedCall/functional_8_1/moe_block_1_1/pool_mha_1_1/multi_head_attention_11_1/key_1/Reshape_1/shape", "op": "Const", "attr": {"dtype": {"type": "DT_INT32"}, "value": {"tensor": {"dtype": "DT_INT32", "tensorShape": {"dim": [{"size": "4"}]}}}}}, {"name": "StatefulPartitionedCall/functional_8_1/moe_block_1_1/pool_mha_1_1/multi_head_attention_11_1/key_1/Add/ReadVariableOp", "op": "Const", "attr": {"dtype": {"type": "DT_FLOAT"}, "value": {"tensor": {"dtype": "DT_FLOAT", "tensorShape": {"dim": [{"size": "4"}, {"size": "32"}]}}}}}, {"name": "StatefulPartitionedCall/functional_8_1/moe_block_1_1/pool_mha_1_1/multi_head_attention_11_1/Cast/x", "op": "Const", "attr": {"dtype": {"type": "DT_FLOAT"}, "value": {"tensor": {"dtype": "DT_FLOAT", "tensorShape": {}}}}}, {"name": "StatefulPartitionedCall/functional_8_1/moe_block_1_1/pool_mha_1_1/layer_normalization_21_1/moments/mean/reduction_indices", "op": "Const", "attr": {"dtype": {"type": "DT_INT32"}, "value": {"tensor": {"dtype": "DT_INT32", "tensorShape": {"dim": [{"size": "1"}]}}}}}, {"name": "StatefulPartitionedCall/functional_8_1/moe_block_1_1/pool_mha_1_1/layer_normalization_21_1/moments/variance/reduction_indices", "op": "Const", "attr": {"dtype": {"type": "DT_INT32"}, "value": {"tensor": {"dtype": "DT_INT32", "tensorShape": {"dim": [{"size": "1"}]}}}}}, {"name": "StatefulPartitionedCall/functional_8_1/moe_block_1_1/pool_mha_1_1/layer_normalization_21_1/add/y", "op": "Const", "attr": {"dtype": {"type": "DT_FLOAT"}, "value": {"tensor": {"dtype": "DT_FLOAT", "tensorShape": {}}}}}, {"name": "StatefulPartitionedCall/functional_8_1/moe_block_1_1/pool_mha_1_1/layer_normalization_21_1/Reshape", "op": "Const", "attr": {"dtype": {"type": "DT_FLOAT"}, "value": {"tensor": {"dtype": "DT_FLOAT", "tensorShape": {"dim": [{"size": "1"}, {"size": "1"}, {"size": "128"}]}}}}}, {"name": "StatefulPartitionedCall/functional_8_1/moe_block_1_1/pool_mha_1_1/layer_normalization_21_1/Reshape_1", "op": "Const", "attr": {"dtype": {"type": "DT_FLOAT"}, "value": {"tensor": {"dtype": "DT_FLOAT", "tensorShape": {"dim": [{"size": "1"}, {"size": "1"}, {"size": "128"}]}}}}}, {"name": "StatefulPartitionedCall/functional_8_1/moe_block_1_1/pool_mha_1_1/multi_head_attention_11_1/value_1/Reshape", "op": "Const", "attr": {"dtype": {"type": "DT_FLOAT"}, "value": {"tensor": {"dtype": "DT_FLOAT", "tensorShape": {"dim": [{"size": "128"}, {"size": "128"}]}}}}}, {"name": "StatefulPartitionedCall/functional_8_1/moe_block_1_1/pool_mha_1_1/multi_head_attention_11_1/value_1/Reshape_1/shape", "op": "Const", "attr": {"dtype": {"type": "DT_INT32"}, "value": {"tensor": {"dtype": "DT_INT32", "tensorShape": {"dim": [{"size": "4"}]}}}}}, {"name": "StatefulPartitionedCall/functional_8_1/moe_block_1_1/pool_mha_1_1/multi_head_attention_11_1/value_1/Add/ReadVariableOp", "op": "Const", "attr": {"dtype": {"type": "DT_FLOAT"}, "value": {"tensor": {"dtype": "DT_FLOAT", "tensorShape": {"dim": [{"size": "4"}, {"size": "32"}]}}}}}, {"name": "StatefulPartitionedCall/functional_8_1/moe_block_1_1/pool_mha_1_1/multi_head_attention_11_1/attention_output_1/Reshape/shape", "op": "Const", "attr": {"dtype": {"type": "DT_INT32"}, "value": {"tensor": {"dtype": "DT_INT32", "tensorShape": {"dim": [{"size": "3"}]}}}}}, {"name": "StatefulPartitionedCall/functional_8_1/moe_block_1_1/pool_mha_1_1/multi_head_attention_11_1/attention_output_1/Reshape_1", "op": "Const", "attr": {"dtype": {"type": "DT_FLOAT"}, "value": {"tensor": {"dtype": "DT_FLOAT", "tensorShape": {"dim": [{"size": "128"}, {"size": "128"}]}}}}}, {"name": "StatefulPartitionedCall/functional_8_1/moe_block_1_1/pool_mha_1_1/multi_head_attention_11_1/attention_output_1/BiasAdd/ReadVariableOp", "op": "Const", "attr": {"dtype": {"type": "DT_FLOAT"}, "value": {"tensor": {"dtype": "DT_FLOAT", "tensorShape": {"dim": [{"size": "128"}]}}}}}, {"name": "StatefulPartitionedCall/functional_8_1/moe_block_1_1/pool_ffn_0_1/dense_21_1/mul_1/x", "op": "Const", "attr": {"dtype": {"type": "DT_FLOAT"}, "value": {"tensor": {"dtype": "DT_FLOAT", "tensorShape": {}}}}}, {"name": "StatefulPartitionedCall/functional_8_1/moe_block_1_1/pool_ffn_0_1/dense_21_1/mul/x", "op": "Const", "attr": {"dtype": {"type": "DT_FLOAT"}, "value": {"tensor": {"dtype": "DT_FLOAT", "tensorShape": {}}}}}, {"name": "StatefulPartitionedCall/functional_8_1/moe_block_1_1/pool_ffn_0_1/layer_normalization_22_1/moments/mean/reduction_indices", "op": "Const", "attr": {"dtype": {"type": "DT_INT32"}, "value": {"tensor": {"dtype": "DT_INT32", "tensorShape": {"dim": [{"size": "1"}]}}}}}, {"name": "StatefulPartitionedCall/functional_8_1/moe_block_1_1/pool_ffn_0_1/layer_normalization_22_1/moments/variance/reduction_indices", "op": "Const", "attr": {"dtype": {"type": "DT_INT32"}, "value": {"tensor": {"dtype": "DT_INT32", "tensorShape": {"dim": [{"size": "1"}]}}}}}, {"name": "StatefulPartitionedCall/functional_8_1/moe_block_1_1/pool_ffn_0_1/layer_normalization_22_1/add/y", "op": "Const", "attr": {"dtype": {"type": "DT_FLOAT"}, "value": {"tensor": {"dtype": "DT_FLOAT", "tensorShape": {}}}}}, {"name": "StatefulPartitionedCall/functional_8_1/moe_block_1_1/pool_ffn_0_1/layer_normalization_22_1/Reshape", "op": "Const", "attr": {"dtype": {"type": "DT_FLOAT"}, "value": {"tensor": {"dtype": "DT_FLOAT", "tensorShape": {"dim": [{"size": "1"}, {"size": "1"}, {"size": "128"}]}}}}}, {"name": "StatefulPartitionedCall/functional_8_1/moe_block_1_1/pool_ffn_0_1/layer_normalization_22_1/Reshape_1", "op": "Const", "attr": {"dtype": {"type": "DT_FLOAT"}, "value": {"tensor": {"dtype": "DT_FLOAT", "tensorShape": {"dim": [{"size": "1"}, {"size": "1"}, {"size": "128"}]}}}}}, {"name": "StatefulPartitionedCall/functional_8_1/moe_block_1_1/pool_ffn_0_1/dense_21_1/Cast/ReadVariableOp", "op": "Const", "attr": {"dtype": {"type": "DT_FLOAT"}, "value": {"tensor": {"dtype": "DT_FLOAT", "tensorShape": {"dim": [{"size": "128"}, {"size": "512"}]}}}}}, {"name": "StatefulPartitionedCall/functional_8_1/moe_block_1_1/pool_ffn_0_1/dense_21_1/BiasAdd/ReadVariableOp", "op": "Const", "attr": {"dtype": {"type": "DT_FLOAT"}, "value": {"tensor": {"dtype": "DT_FLOAT", "tensorShape": {"dim": [{"size": "512"}]}}}}}, {"name": "StatefulPartitionedCall/functional_8_1/moe_block_1_1/pool_ffn_0_1/dense_21_1/Pow/y", "op": "Const", "attr": {"dtype": {"type": "DT_FLOAT"}, "value": {"tensor": {"dtype": "DT_FLOAT", "tensorShape": {}}}}}, {"name": "StatefulPartitionedCall/functional_8_1/moe_block_1_1/pool_ffn_0_1/dense_22_1/Cast/ReadVariableOp", "op": "Const", "attr": {"dtype": {"type": "DT_FLOAT"}, "value": {"tensor": {"dtype": "DT_FLOAT", "tensorShape": {"dim": [{"size": "512"}, {"size": "128"}]}}}}}, {"name": "StatefulPartitionedCall/functional_8_1/moe_block_1_1/pool_ffn_0_1/dense_22_1/BiasAdd/ReadVariableOp", "op": "Const", "attr": {"dtype": {"type": "DT_FLOAT"}, "value": {"tensor": {"dtype": "DT_FLOAT", "tensorShape": {"dim": [{"size": "128"}]}}}}}, {"name": "StatefulPartitionedCall/functional_8_1/moe_block_1_1/pool_ffn_1_1/dense_23_1/mul_1/x", "op": "Const", "attr": {"dtype": {"type": "DT_FLOAT"}, "value": {"tensor": {"dtype": "DT_FLOAT", "tensorShape": {}}}}}, {"name": "StatefulPartitionedCall/functional_8_1/moe_block_1_1/pool_ffn_1_1/dense_23_1/mul/x", "op": "Const", "attr": {"dtype": {"type": "DT_FLOAT"}, "value": {"tensor": {"dtype": "DT_FLOAT", "tensorShape": {}}}}}, {"name": "StatefulPartitionedCall/functional_8_1/moe_block_1_1/pool_ffn_1_1/layer_normalization_23_1/moments/mean/reduction_indices", "op": "Const", "attr": {"dtype": {"type": "DT_INT32"}, "value": {"tensor": {"dtype": "DT_INT32", "tensorShape": {"dim": [{"size": "1"}]}}}}}, {"name": "StatefulPartitionedCall/functional_8_1/moe_block_1_1/pool_ffn_1_1/layer_normalization_23_1/moments/variance/reduction_indices", "op": "Const", "attr": {"dtype": {"type": "DT_INT32"}, "value": {"tensor": {"dtype": "DT_INT32", "tensorShape": {"dim": [{"size": "1"}]}}}}}, {"name": "StatefulPartitionedCall/functional_8_1/moe_block_1_1/pool_ffn_1_1/layer_normalization_23_1/add/y", "op": "Const", "attr": {"dtype": {"type": "DT_FLOAT"}, "value": {"tensor": {"dtype": "DT_FLOAT", "tensorShape": {}}}}}, {"name": "StatefulPartitionedCall/functional_8_1/moe_block_1_1/pool_ffn_1_1/layer_normalization_23_1/Reshape", "op": "Const", "attr": {"dtype": {"type": "DT_FLOAT"}, "value": {"tensor": {"dtype": "DT_FLOAT", "tensorShape": {"dim": [{"size": "1"}, {"size": "1"}, {"size": "128"}]}}}}}, {"name": "StatefulPartitionedCall/functional_8_1/moe_block_1_1/pool_ffn_1_1/layer_normalization_23_1/Reshape_1", "op": "Const", "attr": {"dtype": {"type": "DT_FLOAT"}, "value": {"tensor": {"dtype": "DT_FLOAT", "tensorShape": {"dim": [{"size": "1"}, {"size": "1"}, {"size": "128"}]}}}}}, {"name": "StatefulPartitionedCall/functional_8_1/moe_block_1_1/pool_ffn_1_1/dense_23_1/Cast/ReadVariableOp", "op": "Const", "attr": {"dtype": {"type": "DT_FLOAT"}, "value": {"tensor": {"dtype": "DT_FLOAT", "tensorShape": {"dim": [{"size": "128"}, {"size": "512"}]}}}}}, {"name": "StatefulPartitionedCall/functional_8_1/moe_block_1_1/pool_ffn_1_1/dense_23_1/BiasAdd/ReadVariableOp", "op": "Const", "attr": {"dtype": {"type": "DT_FLOAT"}, "value": {"tensor": {"dtype": "DT_FLOAT", "tensorShape": {"dim": [{"size": "512"}]}}}}}, {"name": "StatefulPartitionedCall/functional_8_1/moe_block_1_1/pool_ffn_1_1/dense_23_1/Pow/y", "op": "Const", "attr": {"dtype": {"type": "DT_FLOAT"}, "value": {"tensor": {"dtype": "DT_FLOAT", "tensorShape": {}}}}}, {"name": "StatefulPartitionedCall/functional_8_1/moe_block_1_1/pool_ffn_1_1/dense_24_1/Cast/ReadVariableOp", "op": "Const", "attr": {"dtype": {"type": "DT_FLOAT"}, "value": {"tensor": {"dtype": "DT_FLOAT", "tensorShape": {"dim": [{"size": "512"}, {"size": "128"}]}}}}}, {"name": "StatefulPartitionedCall/functional_8_1/moe_block_1_1/pool_ffn_1_1/dense_24_1/BiasAdd/ReadVariableOp", "op": "Const", "attr": {"dtype": {"type": "DT_FLOAT"}, "value": {"tensor": {"dtype": "DT_FLOAT", "tensorShape": {"dim": [{"size": "128"}]}}}}}, {"name": "StatefulPartitionedCall/functional_8_1/moe_block_0_1/pool_mha_0_3/multi_head_attention_8_1/query_1/Reshape", "op": "Const", "attr": {"dtype": {"type": "DT_FLOAT"}, "value": {"tensor": {"dtype": "DT_FLOAT", "tensorShape": {"dim": [{"size": "128"}, {"size": "128"}]}}}}}, {"name": "StatefulPartitionedCall/functional_8_1/moe_block_0_1/pool_mha_0_3/multi_head_attention_8_1/query_1/Reshape_1/shape", "op": "Const", "attr": {"dtype": {"type": "DT_INT32"}, "value": {"tensor": {"dtype": "DT_INT32", "tensorShape": {"dim": [{"size": "4"}]}}}}}, {"name": "StatefulPartitionedCall/functional_8_1/moe_block_0_1/pool_mha_0_3/multi_head_attention_8_1/query_1/Add/ReadVariableOp", "op": "Const", "attr": {"dtype": {"type": "DT_FLOAT"}, "value": {"tensor": {"dtype": "DT_FLOAT", "tensorShape": {"dim": [{"size": "4"}, {"size": "32"}]}}}}}, {"name": "StatefulPartitionedCall/functional_8_1/moe_block_0_1/pool_mha_0_3/multi_head_attention_8_1/key_1/Reshape", "op": "Const", "attr": {"dtype": {"type": "DT_FLOAT"}, "value": {"tensor": {"dtype": "DT_FLOAT", "tensorShape": {"dim": [{"size": "128"}, {"size": "128"}]}}}}}, {"name": "StatefulPartitionedCall/functional_8_1/moe_block_0_1/pool_mha_0_3/multi_head_attention_8_1/key_1/Reshape_1/shape", "op": "Const", "attr": {"dtype": {"type": "DT_INT32"}, "value": {"tensor": {"dtype": "DT_INT32", "tensorShape": {"dim": [{"size": "4"}]}}}}}, {"name": "StatefulPartitionedCall/functional_8_1/moe_block_0_1/pool_mha_0_3/multi_head_attention_8_1/key_1/Add/ReadVariableOp", "op": "Const", "attr": {"dtype": {"type": "DT_FLOAT"}, "value": {"tensor": {"dtype": "DT_FLOAT", "tensorShape": {"dim": [{"size": "4"}, {"size": "32"}]}}}}}, {"name": "StatefulPartitionedCall/functional_8_1/moe_block_0_1/pool_mha_0_3/multi_head_attention_8_1/Cast/x", "op": "Const", "attr": {"dtype": {"type": "DT_FLOAT"}, "value": {"tensor": {"dtype": "DT_FLOAT", "tensorShape": {}}}}}, {"name": "StatefulPartitionedCall/functional_8_1/moe_block_0_1/pool_mha_0_3/layer_normalization_16_1/moments/mean/reduction_indices", "op": "Const", "attr": {"dtype": {"type": "DT_INT32"}, "value": {"tensor": {"dtype": "DT_INT32", "tensorShape": {"dim": [{"size": "1"}]}}}}}, {"name": "StatefulPartitionedCall/functional_8_1/moe_block_0_1/pool_mha_0_3/layer_normalization_16_1/moments/variance/reduction_indices", "op": "Const", "attr": {"dtype": {"type": "DT_INT32"}, "value": {"tensor": {"dtype": "DT_INT32", "tensorShape": {"dim": [{"size": "1"}]}}}}}, {"name": "StatefulPartitionedCall/functional_8_1/moe_block_0_1/pool_mha_0_3/layer_normalization_16_1/add/y", "op": "Const", "attr": {"dtype": {"type": "DT_FLOAT"}, "value": {"tensor": {"dtype": "DT_FLOAT", "tensorShape": {}}}}}, {"name": "StatefulPartitionedCall/functional_8_1/moe_block_0_1/pool_mha_0_3/layer_normalization_16_1/Reshape", "op": "Const", "attr": {"dtype": {"type": "DT_FLOAT"}, "value": {"tensor": {"dtype": "DT_FLOAT", "tensorShape": {"dim": [{"size": "1"}, {"size": "1"}, {"size": "128"}]}}}}}, {"name": "StatefulPartitionedCall/functional_8_1/moe_block_0_1/pool_mha_0_3/layer_normalization_16_1/Reshape_1", "op": "Const", "attr": {"dtype": {"type": "DT_FLOAT"}, "value": {"tensor": {"dtype": "DT_FLOAT", "tensorShape": {"dim": [{"size": "1"}, {"size": "1"}, {"size": "128"}]}}}}}, {"name": "StatefulPartitionedCall/functional_8_1/moe_block_0_1/pool_mha_0_3/multi_head_attention_8_1/value_1/Reshape", "op": "Const", "attr": {"dtype": {"type": "DT_FLOAT"}, "value": {"tensor": {"dtype": "DT_FLOAT", "tensorShape": {"dim": [{"size": "128"}, {"size": "128"}]}}}}}, {"name": "StatefulPartitionedCall/functional_8_1/moe_block_0_1/pool_mha_0_3/multi_head_attention_8_1/value_1/Reshape_1/shape", "op": "Const", "attr": {"dtype": {"type": "DT_INT32"}, "value": {"tensor": {"dtype": "DT_INT32", "tensorShape": {"dim": [{"size": "4"}]}}}}}, {"name": "StatefulPartitionedCall/functional_8_1/moe_block_0_1/pool_mha_0_3/multi_head_attention_8_1/value_1/Add/ReadVariableOp", "op": "Const", "attr": {"dtype": {"type": "DT_FLOAT"}, "value": {"tensor": {"dtype": "DT_FLOAT", "tensorShape": {"dim": [{"size": "4"}, {"size": "32"}]}}}}}, {"name": "StatefulPartitionedCall/functional_8_1/moe_block_0_1/pool_mha_0_3/multi_head_attention_8_1/attention_output_1/Reshape/shape", "op": "Const", "attr": {"dtype": {"type": "DT_INT32"}, "value": {"tensor": {"dtype": "DT_INT32", "tensorShape": {"dim": [{"size": "3"}]}}}}}, {"name": "StatefulPartitionedCall/functional_8_1/moe_block_0_1/pool_mha_0_3/multi_head_attention_8_1/attention_output_1/Reshape_1", "op": "Const", "attr": {"dtype": {"type": "DT_FLOAT"}, "value": {"tensor": {"dtype": "DT_FLOAT", "tensorShape": {"dim": [{"size": "128"}, {"size": "128"}]}}}}}, {"name": "StatefulPartitionedCall/functional_8_1/moe_block_0_1/pool_mha_0_3/multi_head_attention_8_1/attention_output_1/BiasAdd/ReadVariableOp", "op": "Const", "attr": {"dtype": {"type": "DT_FLOAT"}, "value": {"tensor": {"dtype": "DT_FLOAT", "tensorShape": {"dim": [{"size": "128"}]}}}}}, {"name": "StatefulPartitionedCall/functional_8_1/moe_block_0_1/pool_mha_1_3/multi_head_attention_9_1/query_1/Reshape", "op": "Const", "attr": {"dtype": {"type": "DT_FLOAT"}, "value": {"tensor": {"dtype": "DT_FLOAT", "tensorShape": {"dim": [{"size": "128"}, {"size": "128"}]}}}}}, {"name": "StatefulPartitionedCall/functional_8_1/moe_block_0_1/pool_mha_1_3/multi_head_attention_9_1/query_1/Reshape_1/shape", "op": "Const", "attr": {"dtype": {"type": "DT_INT32"}, "value": {"tensor": {"dtype": "DT_INT32", "tensorShape": {"dim": [{"size": "4"}]}}}}}, {"name": "StatefulPartitionedCall/functional_8_1/moe_block_0_1/pool_mha_1_3/multi_head_attention_9_1/query_1/Add/ReadVariableOp", "op": "Const", "attr": {"dtype": {"type": "DT_FLOAT"}, "value": {"tensor": {"dtype": "DT_FLOAT", "tensorShape": {"dim": [{"size": "4"}, {"size": "32"}]}}}}}, {"name": "StatefulPartitionedCall/functional_8_1/moe_block_0_1/pool_mha_1_3/multi_head_attention_9_1/key_1/Reshape", "op": "Const", "attr": {"dtype": {"type": "DT_FLOAT"}, "value": {"tensor": {"dtype": "DT_FLOAT", "tensorShape": {"dim": [{"size": "128"}, {"size": "128"}]}}}}}, {"name": "StatefulPartitionedCall/functional_8_1/moe_block_0_1/pool_mha_1_3/multi_head_attention_9_1/key_1/Reshape_1/shape", "op": "Const", "attr": {"dtype": {"type": "DT_INT32"}, "value": {"tensor": {"dtype": "DT_INT32", "tensorShape": {"dim": [{"size": "4"}]}}}}}, {"name": "StatefulPartitionedCall/functional_8_1/moe_block_0_1/pool_mha_1_3/multi_head_attention_9_1/key_1/Add/ReadVariableOp", "op": "Const", "attr": {"dtype": {"type": "DT_FLOAT"}, "value": {"tensor": {"dtype": "DT_FLOAT", "tensorShape": {"dim": [{"size": "4"}, {"size": "32"}]}}}}}, {"name": "StatefulPartitionedCall/functional_8_1/moe_block_0_1/pool_mha_1_3/multi_head_attention_9_1/Cast/x", "op": "Const", "attr": {"dtype": {"type": "DT_FLOAT"}, "value": {"tensor": {"dtype": "DT_FLOAT", "tensorShape": {}}}}}, {"name": "StatefulPartitionedCall/functional_8_1/moe_block_0_1/pool_mha_1_3/layer_normalization_17_1/moments/mean/reduction_indices", "op": "Const", "attr": {"dtype": {"type": "DT_INT32"}, "value": {"tensor": {"dtype": "DT_INT32", "tensorShape": {"dim": [{"size": "1"}]}}}}}, {"name": "StatefulPartitionedCall/functional_8_1/moe_block_0_1/pool_mha_1_3/layer_normalization_17_1/moments/variance/reduction_indices", "op": "Const", "attr": {"dtype": {"type": "DT_INT32"}, "value": {"tensor": {"dtype": "DT_INT32", "tensorShape": {"dim": [{"size": "1"}]}}}}}, {"name": "StatefulPartitionedCall/functional_8_1/moe_block_0_1/pool_mha_1_3/layer_normalization_17_1/add/y", "op": "Const", "attr": {"dtype": {"type": "DT_FLOAT"}, "value": {"tensor": {"dtype": "DT_FLOAT", "tensorShape": {}}}}}, {"name": "StatefulPartitionedCall/functional_8_1/moe_block_0_1/pool_mha_1_3/layer_normalization_17_1/Reshape", "op": "Const", "attr": {"dtype": {"type": "DT_FLOAT"}, "value": {"tensor": {"dtype": "DT_FLOAT", "tensorShape": {"dim": [{"size": "1"}, {"size": "1"}, {"size": "128"}]}}}}}, {"name": "StatefulPartitionedCall/functional_8_1/moe_block_0_1/pool_mha_1_3/layer_normalization_17_1/Reshape_1", "op": "Const", "attr": {"dtype": {"type": "DT_FLOAT"}, "value": {"tensor": {"dtype": "DT_FLOAT", "tensorShape": {"dim": [{"size": "1"}, {"size": "1"}, {"size": "128"}]}}}}}, {"name": "StatefulPartitionedCall/functional_8_1/moe_block_0_1/pool_mha_1_3/multi_head_attention_9_1/value_1/Reshape", "op": "Const", "attr": {"dtype": {"type": "DT_FLOAT"}, "value": {"tensor": {"dtype": "DT_FLOAT", "tensorShape": {"dim": [{"size": "128"}, {"size": "128"}]}}}}}, {"name": "StatefulPartitionedCall/functional_8_1/moe_block_0_1/pool_mha_1_3/multi_head_attention_9_1/value_1/Reshape_1/shape", "op": "Const", "attr": {"dtype": {"type": "DT_INT32"}, "value": {"tensor": {"dtype": "DT_INT32", "tensorShape": {"dim": [{"size": "4"}]}}}}}, {"name": "StatefulPartitionedCall/functional_8_1/moe_block_0_1/pool_mha_1_3/multi_head_attention_9_1/value_1/Add/ReadVariableOp", "op": "Const", "attr": {"dtype": {"type": "DT_FLOAT"}, "value": {"tensor": {"dtype": "DT_FLOAT", "tensorShape": {"dim": [{"size": "4"}, {"size": "32"}]}}}}}, {"name": "StatefulPartitionedCall/functional_8_1/moe_block_0_1/pool_mha_1_3/multi_head_attention_9_1/attention_output_1/Reshape/shape", "op": "Const", "attr": {"dtype": {"type": "DT_INT32"}, "value": {"tensor": {"dtype": "DT_INT32", "tensorShape": {"dim": [{"size": "3"}]}}}}}, {"name": "StatefulPartitionedCall/functional_8_1/moe_block_0_1/pool_mha_1_3/multi_head_attention_9_1/attention_output_1/Reshape_1", "op": "Const", "attr": {"dtype": {"type": "DT_FLOAT"}, "value": {"tensor": {"dtype": "DT_FLOAT", "tensorShape": {"dim": [{"size": "128"}, {"size": "128"}]}}}}}, {"name": "StatefulPartitionedCall/functional_8_1/moe_block_0_1/pool_mha_1_3/multi_head_attention_9_1/attention_output_1/BiasAdd/ReadVariableOp", "op": "Const", "attr": {"dtype": {"type": "DT_FLOAT"}, "value": {"tensor": {"dtype": "DT_FLOAT", "tensorShape": {"dim": [{"size": "128"}]}}}}}, {"name": "StatefulPartitionedCall/functional_8_1/moe_block_0_1/pool_ffn_0_3/dense_17_1/mul_1/x", "op": "Const", "attr": {"dtype": {"type": "DT_FLOAT"}, "value": {"tensor": {"dtype": "DT_FLOAT", "tensorShape": {}}}}}, {"name": "StatefulPartitionedCall/functional_8_1/moe_block_0_1/pool_ffn_0_3/dense_17_1/mul/x", "op": "Const", "attr": {"dtype": {"type": "DT_FLOAT"}, "value": {"tensor": {"dtype": "DT_FLOAT", "tensorShape": {}}}}}, {"name": "StatefulPartitionedCall/functional_8_1/moe_block_0_1/pool_ffn_0_3/layer_normalization_18_1/moments/mean/reduction_indices", "op": "Const", "attr": {"dtype": {"type": "DT_INT32"}, "value": {"tensor": {"dtype": "DT_INT32", "tensorShape": {"dim": [{"size": "1"}]}}}}}, {"name": "StatefulPartitionedCall/functional_8_1/moe_block_0_1/pool_ffn_0_3/layer_normalization_18_1/moments/variance/reduction_indices", "op": "Const", "attr": {"dtype": {"type": "DT_INT32"}, "value": {"tensor": {"dtype": "DT_INT32", "tensorShape": {"dim": [{"size": "1"}]}}}}}, {"name": "StatefulPartitionedCall/functional_8_1/moe_block_0_1/pool_ffn_0_3/layer_normalization_18_1/add/y", "op": "Const", "attr": {"dtype": {"type": "DT_FLOAT"}, "value": {"tensor": {"dtype": "DT_FLOAT", "tensorShape": {}}}}}, {"name": "StatefulPartitionedCall/functional_8_1/moe_block_0_1/pool_ffn_0_3/layer_normalization_18_1/Reshape", "op": "Const", "attr": {"dtype": {"type": "DT_FLOAT"}, "value": {"tensor": {"dtype": "DT_FLOAT", "tensorShape": {"dim": [{"size": "1"}, {"size": "1"}, {"size": "128"}]}}}}}, {"name": "StatefulPartitionedCall/functional_8_1/moe_block_0_1/pool_ffn_0_3/layer_normalization_18_1/Reshape_1", "op": "Const", "attr": {"dtype": {"type": "DT_FLOAT"}, "value": {"tensor": {"dtype": "DT_FLOAT", "tensorShape": {"dim": [{"size": "1"}, {"size": "1"}, {"size": "128"}]}}}}}, {"name": "StatefulPartitionedCall/functional_8_1/moe_block_0_1/pool_ffn_0_3/dense_17_1/Cast/ReadVariableOp", "op": "Const", "attr": {"dtype": {"type": "DT_FLOAT"}, "value": {"tensor": {"dtype": "DT_FLOAT", "tensorShape": {"dim": [{"size": "128"}, {"size": "512"}]}}}}}, {"name": "StatefulPartitionedCall/functional_8_1/moe_block_0_1/pool_ffn_0_3/dense_17_1/BiasAdd/ReadVariableOp", "op": "Const", "attr": {"dtype": {"type": "DT_FLOAT"}, "value": {"tensor": {"dtype": "DT_FLOAT", "tensorShape": {"dim": [{"size": "512"}]}}}}}, {"name": "StatefulPartitionedCall/functional_8_1/moe_block_0_1/pool_ffn_0_3/dense_17_1/Pow/y", "op": "Const", "attr": {"dtype": {"type": "DT_FLOAT"}, "value": {"tensor": {"dtype": "DT_FLOAT", "tensorShape": {}}}}}, {"name": "StatefulPartitionedCall/functional_8_1/moe_block_0_1/pool_ffn_0_3/dense_18_1/Cast/ReadVariableOp", "op": "Const", "attr": {"dtype": {"type": "DT_FLOAT"}, "value": {"tensor": {"dtype": "DT_FLOAT", "tensorShape": {"dim": [{"size": "512"}, {"size": "128"}]}}}}}, {"name": "StatefulPartitionedCall/functional_8_1/moe_block_0_1/pool_ffn_0_3/dense_18_1/BiasAdd/ReadVariableOp", "op": "Const", "attr": {"dtype": {"type": "DT_FLOAT"}, "value": {"tensor": {"dtype": "DT_FLOAT", "tensorShape": {"dim": [{"size": "128"}]}}}}}, {"name": "StatefulPartitionedCall/functional_8_1/moe_block_0_1/pool_ffn_1_3/dense_19_1/mul_1/x", "op": "Const", "attr": {"dtype": {"type": "DT_FLOAT"}, "value": {"tensor": {"dtype": "DT_FLOAT", "tensorShape": {}}}}}, {"name": "StatefulPartitionedCall/functional_8_1/moe_block_0_1/pool_ffn_1_3/dense_19_1/mul/x", "op": "Const", "attr": {"dtype": {"type": "DT_FLOAT"}, "value": {"tensor": {"dtype": "DT_FLOAT", "tensorShape": {}}}}}, {"name": "StatefulPartitionedCall/functional_8_1/moe_block_0_1/pool_ffn_1_3/layer_normalization_19_1/moments/mean/reduction_indices", "op": "Const", "attr": {"dtype": {"type": "DT_INT32"}, "value": {"tensor": {"dtype": "DT_INT32", "tensorShape": {"dim": [{"size": "1"}]}}}}}, {"name": "StatefulPartitionedCall/functional_8_1/moe_block_0_1/pool_ffn_1_3/layer_normalization_19_1/moments/variance/reduction_indices", "op": "Const", "attr": {"dtype": {"type": "DT_INT32"}, "value": {"tensor": {"dtype": "DT_INT32", "tensorShape": {"dim": [{"size": "1"}]}}}}}, {"name": "StatefulPartitionedCall/functional_8_1/moe_block_0_1/pool_ffn_1_3/layer_normalization_19_1/add/y", "op": "Const", "attr": {"dtype": {"type": "DT_FLOAT"}, "value": {"tensor": {"dtype": "DT_FLOAT", "tensorShape": {}}}}}, {"name": "StatefulPartitionedCall/functional_8_1/moe_block_0_1/pool_ffn_1_3/layer_normalization_19_1/Reshape", "op": "Const", "attr": {"dtype": {"type": "DT_FLOAT"}, "value": {"tensor": {"dtype": "DT_FLOAT", "tensorShape": {"dim": [{"size": "1"}, {"size": "1"}, {"size": "128"}]}}}}}, {"name": "StatefulPartitionedCall/functional_8_1/moe_block_0_1/pool_ffn_1_3/layer_normalization_19_1/Reshape_1", "op": "Const", "attr": {"dtype": {"type": "DT_FLOAT"}, "value": {"tensor": {"dtype": "DT_FLOAT", "tensorShape": {"dim": [{"size": "1"}, {"size": "1"}, {"size": "128"}]}}}}}, {"name": "StatefulPartitionedCall/functional_8_1/moe_block_0_1/pool_ffn_1_3/dense_19_1/Cast/ReadVariableOp", "op": "Const", "attr": {"dtype": {"type": "DT_FLOAT"}, "value": {"tensor": {"dtype": "DT_FLOAT", "tensorShape": {"dim": [{"size": "128"}, {"size": "512"}]}}}}}, {"name": "StatefulPartitionedCall/functional_8_1/moe_block_0_1/pool_ffn_1_3/dense_19_1/BiasAdd/ReadVariableOp", "op": "Const", "attr": {"dtype": {"type": "DT_FLOAT"}, "value": {"tensor": {"dtype": "DT_FLOAT", "tensorShape": {"dim": [{"size": "512"}]}}}}}, {"name": "StatefulPartitionedCall/functional_8_1/moe_block_0_1/pool_ffn_1_3/dense_19_1/Pow/y", "op": "Const", "attr": {"dtype": {"type": "DT_FLOAT"}, "value": {"tensor": {"dtype": "DT_FLOAT", "tensorShape": {}}}}}, {"name": "StatefulPartitionedCall/functional_8_1/moe_block_0_1/pool_ffn_1_3/dense_20_1/Cast/ReadVariableOp", "op": "Const", "attr": {"dtype": {"type": "DT_FLOAT"}, "value": {"tensor": {"dtype": "DT_FLOAT", "tensorShape": {"dim": [{"size": "512"}, {"size": "128"}]}}}}}, {"name": "StatefulPartitionedCall/functional_8_1/moe_block_0_1/pool_ffn_1_3/dense_20_1/BiasAdd/ReadVariableOp", "op": "Const", "attr": {"dtype": {"type": "DT_FLOAT"}, "value": {"tensor": {"dtype": "DT_FLOAT", "tensorShape": {"dim": [{"size": "128"}]}}}}}, {"name": "StatefulPartitionedCall/functional_8_1/moe_block_0_1/pool_mha_0_1/multi_head_attention_8_1/query_1/Reshape", "op": "Const", "attr": {"dtype": {"type": "DT_FLOAT"}, "value": {"tensor": {"dtype": "DT_FLOAT", "tensorShape": {"dim": [{"size": "128"}, {"size": "128"}]}}}}}, {"name": "StatefulPartitionedCall/functional_8_1/moe_block_0_1/pool_mha_0_1/multi_head_attention_8_1/query_1/Reshape_1/shape", "op": "Const", "attr": {"dtype": {"type": "DT_INT32"}, "value": {"tensor": {"dtype": "DT_INT32", "tensorShape": {"dim": [{"size": "4"}]}}}}}, {"name": "StatefulPartitionedCall/functional_8_1/moe_block_0_1/pool_mha_0_1/multi_head_attention_8_1/query_1/Add/ReadVariableOp", "op": "Const", "attr": {"dtype": {"type": "DT_FLOAT"}, "value": {"tensor": {"dtype": "DT_FLOAT", "tensorShape": {"dim": [{"size": "4"}, {"size": "32"}]}}}}}, {"name": "StatefulPartitionedCall/functional_8_1/moe_block_0_1/pool_mha_0_1/multi_head_attention_8_1/key_1/Reshape", "op": "Const", "attr": {"dtype": {"type": "DT_FLOAT"}, "value": {"tensor": {"dtype": "DT_FLOAT", "tensorShape": {"dim": [{"size": "128"}, {"size": "128"}]}}}}}, {"name": "StatefulPartitionedCall/functional_8_1/moe_block_0_1/pool_mha_0_1/multi_head_attention_8_1/key_1/Reshape_1/shape", "op": "Const", "attr": {"dtype": {"type": "DT_INT32"}, "value": {"tensor": {"dtype": "DT_INT32", "tensorShape": {"dim": [{"size": "4"}]}}}}}, {"name": "StatefulPartitionedCall/functional_8_1/moe_block_0_1/pool_mha_0_1/multi_head_attention_8_1/key_1/Add/ReadVariableOp", "op": "Const", "attr": {"dtype": {"type": "DT_FLOAT"}, "value": {"tensor": {"dtype": "DT_FLOAT", "tensorShape": {"dim": [{"size": "4"}, {"size": "32"}]}}}}}, {"name": "StatefulPartitionedCall/functional_8_1/moe_block_0_1/pool_mha_0_1/multi_head_attention_8_1/Cast/x", "op": "Const", "attr": {"dtype": {"type": "DT_FLOAT"}, "value": {"tensor": {"dtype": "DT_FLOAT", "tensorShape": {}}}}}, {"name": "StatefulPartitionedCall/functional_8_1/moe_block_0_1/pool_mha_0_1/layer_normalization_16_1/moments/mean/reduction_indices", "op": "Const", "attr": {"dtype": {"type": "DT_INT32"}, "value": {"tensor": {"dtype": "DT_INT32", "tensorShape": {"dim": [{"size": "1"}]}}}}}, {"name": "StatefulPartitionedCall/functional_8_1/moe_block_0_1/pool_mha_0_1/layer_normalization_16_1/moments/variance/reduction_indices", "op": "Const", "attr": {"dtype": {"type": "DT_INT32"}, "value": {"tensor": {"dtype": "DT_INT32", "tensorShape": {"dim": [{"size": "1"}]}}}}}, {"name": "StatefulPartitionedCall/functional_8_1/moe_block_0_1/pool_mha_0_1/layer_normalization_16_1/add/y", "op": "Const", "attr": {"dtype": {"type": "DT_FLOAT"}, "value": {"tensor": {"dtype": "DT_FLOAT", "tensorShape": {}}}}}, {"name": "StatefulPartitionedCall/functional_8_1/moe_block_0_1/pool_mha_0_1/layer_normalization_16_1/Reshape", "op": "Const", "attr": {"dtype": {"type": "DT_FLOAT"}, "value": {"tensor": {"dtype": "DT_FLOAT", "tensorShape": {"dim": [{"size": "1"}, {"size": "1"}, {"size": "128"}]}}}}}, {"name": "StatefulPartitionedCall/functional_8_1/moe_block_0_1/pool_mha_0_1/layer_normalization_16_1/Reshape_1", "op": "Const", "attr": {"dtype": {"type": "DT_FLOAT"}, "value": {"tensor": {"dtype": "DT_FLOAT", "tensorShape": {"dim": [{"size": "1"}, {"size": "1"}, {"size": "128"}]}}}}}, {"name": "StatefulPartitionedCall/functional_8_1/moe_block_0_1/pool_mha_0_1/multi_head_attention_8_1/value_1/Reshape", "op": "Const", "attr": {"dtype": {"type": "DT_FLOAT"}, "value": {"tensor": {"dtype": "DT_FLOAT", "tensorShape": {"dim": [{"size": "128"}, {"size": "128"}]}}}}}, {"name": "StatefulPartitionedCall/functional_8_1/moe_block_0_1/pool_mha_0_1/multi_head_attention_8_1/value_1/Reshape_1/shape", "op": "Const", "attr": {"dtype": {"type": "DT_INT32"}, "value": {"tensor": {"dtype": "DT_INT32", "tensorShape": {"dim": [{"size": "4"}]}}}}}, {"name": "StatefulPartitionedCall/functional_8_1/moe_block_0_1/pool_mha_0_1/multi_head_attention_8_1/value_1/Add/ReadVariableOp", "op": "Const", "attr": {"dtype": {"type": "DT_FLOAT"}, "value": {"tensor": {"dtype": "DT_FLOAT", "tensorShape": {"dim": [{"size": "4"}, {"size": "32"}]}}}}}, {"name": "StatefulPartitionedCall/functional_8_1/moe_block_0_1/pool_mha_0_1/multi_head_attention_8_1/attention_output_1/Reshape/shape", "op": "Const", "attr": {"dtype": {"type": "DT_INT32"}, "value": {"tensor": {"dtype": "DT_INT32", "tensorShape": {"dim": [{"size": "3"}]}}}}}, {"name": "StatefulPartitionedCall/functional_8_1/moe_block_0_1/pool_mha_0_1/multi_head_attention_8_1/attention_output_1/Reshape_1", "op": "Const", "attr": {"dtype": {"type": "DT_FLOAT"}, "value": {"tensor": {"dtype": "DT_FLOAT", "tensorShape": {"dim": [{"size": "128"}, {"size": "128"}]}}}}}, {"name": "StatefulPartitionedCall/functional_8_1/moe_block_0_1/pool_mha_0_1/multi_head_attention_8_1/attention_output_1/BiasAdd/ReadVariableOp", "op": "Const", "attr": {"dtype": {"type": "DT_FLOAT"}, "value": {"tensor": {"dtype": "DT_FLOAT", "tensorShape": {"dim": [{"size": "128"}]}}}}}, {"name": "StatefulPartitionedCall/functional_8_1/moe_block_0_1/pool_mha_1_1/multi_head_attention_9_1/query_1/Reshape", "op": "Const", "attr": {"dtype": {"type": "DT_FLOAT"}, "value": {"tensor": {"dtype": "DT_FLOAT", "tensorShape": {"dim": [{"size": "128"}, {"size": "128"}]}}}}}, {"name": "StatefulPartitionedCall/functional_8_1/moe_block_0_1/pool_mha_1_1/multi_head_attention_9_1/query_1/Reshape_1/shape", "op": "Const", "attr": {"dtype": {"type": "DT_INT32"}, "value": {"tensor": {"dtype": "DT_INT32", "tensorShape": {"dim": [{"size": "4"}]}}}}}, {"name": "StatefulPartitionedCall/functional_8_1/moe_block_0_1/pool_mha_1_1/multi_head_attention_9_1/query_1/Add/ReadVariableOp", "op": "Const", "attr": {"dtype": {"type": "DT_FLOAT"}, "value": {"tensor": {"dtype": "DT_FLOAT", "tensorShape": {"dim": [{"size": "4"}, {"size": "32"}]}}}}}, {"name": "StatefulPartitionedCall/functional_8_1/moe_block_0_1/pool_mha_1_1/multi_head_attention_9_1/key_1/Reshape", "op": "Const", "attr": {"dtype": {"type": "DT_FLOAT"}, "value": {"tensor": {"dtype": "DT_FLOAT", "tensorShape": {"dim": [{"size": "128"}, {"size": "128"}]}}}}}, {"name": "StatefulPartitionedCall/functional_8_1/moe_block_0_1/pool_mha_1_1/multi_head_attention_9_1/key_1/Reshape_1/shape", "op": "Const", "attr": {"dtype": {"type": "DT_INT32"}, "value": {"tensor": {"dtype": "DT_INT32", "tensorShape": {"dim": [{"size": "4"}]}}}}}, {"name": "StatefulPartitionedCall/functional_8_1/moe_block_0_1/pool_mha_1_1/multi_head_attention_9_1/key_1/Add/ReadVariableOp", "op": "Const", "attr": {"dtype": {"type": "DT_FLOAT"}, "value": {"tensor": {"dtype": "DT_FLOAT", "tensorShape": {"dim": [{"size": "4"}, {"size": "32"}]}}}}}, {"name": "StatefulPartitionedCall/functional_8_1/moe_block_0_1/pool_mha_1_1/multi_head_attention_9_1/Cast/x", "op": "Const", "attr": {"dtype": {"type": "DT_FLOAT"}, "value": {"tensor": {"dtype": "DT_FLOAT", "tensorShape": {}}}}}, {"name": "StatefulPartitionedCall/functional_8_1/moe_block_0_1/pool_mha_1_1/layer_normalization_17_1/moments/mean/reduction_indices", "op": "Const", "attr": {"dtype": {"type": "DT_INT32"}, "value": {"tensor": {"dtype": "DT_INT32", "tensorShape": {"dim": [{"size": "1"}]}}}}}, {"name": "StatefulPartitionedCall/functional_8_1/moe_block_0_1/pool_mha_1_1/layer_normalization_17_1/moments/variance/reduction_indices", "op": "Const", "attr": {"dtype": {"type": "DT_INT32"}, "value": {"tensor": {"dtype": "DT_INT32", "tensorShape": {"dim": [{"size": "1"}]}}}}}, {"name": "StatefulPartitionedCall/functional_8_1/moe_block_0_1/pool_mha_1_1/layer_normalization_17_1/add/y", "op": "Const", "attr": {"dtype": {"type": "DT_FLOAT"}, "value": {"tensor": {"dtype": "DT_FLOAT", "tensorShape": {}}}}}, {"name": "StatefulPartitionedCall/functional_8_1/moe_block_0_1/pool_mha_1_1/layer_normalization_17_1/Reshape", "op": "Const", "attr": {"dtype": {"type": "DT_FLOAT"}, "value": {"tensor": {"dtype": "DT_FLOAT", "tensorShape": {"dim": [{"size": "1"}, {"size": "1"}, {"size": "128"}]}}}}}, {"name": "StatefulPartitionedCall/functional_8_1/moe_block_0_1/pool_mha_1_1/layer_normalization_17_1/Reshape_1", "op": "Const", "attr": {"dtype": {"type": "DT_FLOAT"}, "value": {"tensor": {"dtype": "DT_FLOAT", "tensorShape": {"dim": [{"size": "1"}, {"size": "1"}, {"size": "128"}]}}}}}, {"name": "StatefulPartitionedCall/functional_8_1/moe_block_0_1/pool_mha_1_1/multi_head_attention_9_1/value_1/Reshape", "op": "Const", "attr": {"dtype": {"type": "DT_FLOAT"}, "value": {"tensor": {"dtype": "DT_FLOAT", "tensorShape": {"dim": [{"size": "128"}, {"size": "128"}]}}}}}, {"name": "StatefulPartitionedCall/functional_8_1/moe_block_0_1/pool_mha_1_1/multi_head_attention_9_1/value_1/Reshape_1/shape", "op": "Const", "attr": {"dtype": {"type": "DT_INT32"}, "value": {"tensor": {"dtype": "DT_INT32", "tensorShape": {"dim": [{"size": "4"}]}}}}}, {"name": "StatefulPartitionedCall/functional_8_1/moe_block_0_1/pool_mha_1_1/multi_head_attention_9_1/value_1/Add/ReadVariableOp", "op": "Const", "attr": {"dtype": {"type": "DT_FLOAT"}, "value": {"tensor": {"dtype": "DT_FLOAT", "tensorShape": {"dim": [{"size": "4"}, {"size": "32"}]}}}}}, {"name": "StatefulPartitionedCall/functional_8_1/moe_block_0_1/pool_mha_1_1/multi_head_attention_9_1/attention_output_1/Reshape/shape", "op": "Const", "attr": {"dtype": {"type": "DT_INT32"}, "value": {"tensor": {"dtype": "DT_INT32", "tensorShape": {"dim": [{"size": "3"}]}}}}}, {"name": "StatefulPartitionedCall/functional_8_1/moe_block_0_1/pool_mha_1_1/multi_head_attention_9_1/attention_output_1/Reshape_1", "op": "Const", "attr": {"dtype": {"type": "DT_FLOAT"}, "value": {"tensor": {"dtype": "DT_FLOAT", "tensorShape": {"dim": [{"size": "128"}, {"size": "128"}]}}}}}, {"name": "StatefulPartitionedCall/functional_8_1/moe_block_0_1/pool_mha_1_1/multi_head_attention_9_1/attention_output_1/BiasAdd/ReadVariableOp", "op": "Const", "attr": {"dtype": {"type": "DT_FLOAT"}, "value": {"tensor": {"dtype": "DT_FLOAT", "tensorShape": {"dim": [{"size": "128"}]}}}}}, {"name": "StatefulPartitionedCall/functional_8_1/moe_block_0_1/pool_ffn_0_1/dense_17_1/mul_1/x", "op": "Const", "attr": {"dtype": {"type": "DT_FLOAT"}, "value": {"tensor": {"dtype": "DT_FLOAT", "tensorShape": {}}}}}, {"name": "StatefulPartitionedCall/functional_8_1/moe_block_0_1/pool_ffn_0_1/dense_17_1/mul/x", "op": "Const", "attr": {"dtype": {"type": "DT_FLOAT"}, "value": {"tensor": {"dtype": "DT_FLOAT", "tensorShape": {}}}}}, {"name": "StatefulPartitionedCall/functional_8_1/moe_block_0_1/pool_ffn_0_1/layer_normalization_18_1/moments/mean/reduction_indices", "op": "Const", "attr": {"dtype": {"type": "DT_INT32"}, "value": {"tensor": {"dtype": "DT_INT32", "tensorShape": {"dim": [{"size": "1"}]}}}}}, {"name": "StatefulPartitionedCall/functional_8_1/moe_block_0_1/pool_ffn_0_1/layer_normalization_18_1/moments/variance/reduction_indices", "op": "Const", "attr": {"dtype": {"type": "DT_INT32"}, "value": {"tensor": {"dtype": "DT_INT32", "tensorShape": {"dim": [{"size": "1"}]}}}}}, {"name": "StatefulPartitionedCall/functional_8_1/moe_block_0_1/pool_ffn_0_1/layer_normalization_18_1/add/y", "op": "Const", "attr": {"dtype": {"type": "DT_FLOAT"}, "value": {"tensor": {"dtype": "DT_FLOAT", "tensorShape": {}}}}}, {"name": "StatefulPartitionedCall/functional_8_1/moe_block_0_1/pool_ffn_0_1/layer_normalization_18_1/Reshape", "op": "Const", "attr": {"dtype": {"type": "DT_FLOAT"}, "value": {"tensor": {"dtype": "DT_FLOAT", "tensorShape": {"dim": [{"size": "1"}, {"size": "1"}, {"size": "128"}]}}}}}, {"name": "StatefulPartitionedCall/functional_8_1/moe_block_0_1/pool_ffn_0_1/layer_normalization_18_1/Reshape_1", "op": "Const", "attr": {"dtype": {"type": "DT_FLOAT"}, "value": {"tensor": {"dtype": "DT_FLOAT", "tensorShape": {"dim": [{"size": "1"}, {"size": "1"}, {"size": "128"}]}}}}}, {"name": "StatefulPartitionedCall/functional_8_1/moe_block_0_1/pool_ffn_0_1/dense_17_1/Cast/ReadVariableOp", "op": "Const", "attr": {"dtype": {"type": "DT_FLOAT"}, "value": {"tensor": {"dtype": "DT_FLOAT", "tensorShape": {"dim": [{"size": "128"}, {"size": "512"}]}}}}}, {"name": "StatefulPartitionedCall/functional_8_1/moe_block_0_1/pool_ffn_0_1/dense_17_1/BiasAdd/ReadVariableOp", "op": "Const", "attr": {"dtype": {"type": "DT_FLOAT"}, "value": {"tensor": {"dtype": "DT_FLOAT", "tensorShape": {"dim": [{"size": "512"}]}}}}}, {"name": "StatefulPartitionedCall/functional_8_1/moe_block_0_1/pool_ffn_0_1/dense_17_1/Pow/y", "op": "Const", "attr": {"dtype": {"type": "DT_FLOAT"}, "value": {"tensor": {"dtype": "DT_FLOAT", "tensorShape": {}}}}}, {"name": "StatefulPartitionedCall/functional_8_1/moe_block_0_1/pool_ffn_0_1/dense_18_1/Cast/ReadVariableOp", "op": "Const", "attr": {"dtype": {"type": "DT_FLOAT"}, "value": {"tensor": {"dtype": "DT_FLOAT", "tensorShape": {"dim": [{"size": "512"}, {"size": "128"}]}}}}}, {"name": "StatefulPartitionedCall/functional_8_1/moe_block_0_1/pool_ffn_0_1/dense_18_1/BiasAdd/ReadVariableOp", "op": "Const", "attr": {"dtype": {"type": "DT_FLOAT"}, "value": {"tensor": {"dtype": "DT_FLOAT", "tensorShape": {"dim": [{"size": "128"}]}}}}}, {"name": "StatefulPartitionedCall/functional_8_1/moe_block_0_1/pool_ffn_1_1/dense_19_1/mul_1/x", "op": "Const", "attr": {"dtype": {"type": "DT_FLOAT"}, "value": {"tensor": {"dtype": "DT_FLOAT", "tensorShape": {}}}}}, {"name": "StatefulPartitionedCall/functional_8_1/moe_block_0_1/pool_ffn_1_1/dense_19_1/mul/x", "op": "Const", "attr": {"dtype": {"type": "DT_FLOAT"}, "value": {"tensor": {"dtype": "DT_FLOAT", "tensorShape": {}}}}}, {"name": "StatefulPartitionedCall/functional_8_1/moe_block_0_1/pool_ffn_1_1/layer_normalization_19_1/moments/mean/reduction_indices", "op": "Const", "attr": {"dtype": {"type": "DT_INT32"}, "value": {"tensor": {"dtype": "DT_INT32", "tensorShape": {"dim": [{"size": "1"}]}}}}}, {"name": "StatefulPartitionedCall/functional_8_1/moe_block_0_1/pool_ffn_1_1/layer_normalization_19_1/moments/variance/reduction_indices", "op": "Const", "attr": {"dtype": {"type": "DT_INT32"}, "value": {"tensor": {"dtype": "DT_INT32", "tensorShape": {"dim": [{"size": "1"}]}}}}}, {"name": "StatefulPartitionedCall/functional_8_1/moe_block_0_1/pool_ffn_1_1/layer_normalization_19_1/add/y", "op": "Const", "attr": {"dtype": {"type": "DT_FLOAT"}, "value": {"tensor": {"dtype": "DT_FLOAT", "tensorShape": {}}}}}, {"name": "StatefulPartitionedCall/functional_8_1/moe_block_0_1/pool_ffn_1_1/layer_normalization_19_1/Reshape", "op": "Const", "attr": {"dtype": {"type": "DT_FLOAT"}, "value": {"tensor": {"dtype": "DT_FLOAT", "tensorShape": {"dim": [{"size": "1"}, {"size": "1"}, {"size": "128"}]}}}}}, {"name": "StatefulPartitionedCall/functional_8_1/moe_block_0_1/pool_ffn_1_1/layer_normalization_19_1/Reshape_1", "op": "Const", "attr": {"dtype": {"type": "DT_FLOAT"}, "value": {"tensor": {"dtype": "DT_FLOAT", "tensorShape": {"dim": [{"size": "1"}, {"size": "1"}, {"size": "128"}]}}}}}, {"name": "StatefulPartitionedCall/functional_8_1/moe_block_0_1/pool_ffn_1_1/dense_19_1/Cast/ReadVariableOp", "op": "Const", "attr": {"dtype": {"type": "DT_FLOAT"}, "value": {"tensor": {"dtype": "DT_FLOAT", "tensorShape": {"dim": [{"size": "128"}, {"size": "512"}]}}}}}, {"name": "StatefulPartitionedCall/functional_8_1/moe_block_0_1/pool_ffn_1_1/dense_19_1/BiasAdd/ReadVariableOp", "op": "Const", "attr": {"dtype": {"type": "DT_FLOAT"}, "value": {"tensor": {"dtype": "DT_FLOAT", "tensorShape": {"dim": [{"size": "512"}]}}}}}, {"name": "StatefulPartitionedCall/functional_8_1/moe_block_0_1/pool_ffn_1_1/dense_19_1/Pow/y", "op": "Const", "attr": {"dtype": {"type": "DT_FLOAT"}, "value": {"tensor": {"dtype": "DT_FLOAT", "tensorShape": {}}}}}, {"name": "StatefulPartitionedCall/functional_8_1/moe_block_0_1/pool_ffn_1_1/dense_20_1/Cast/ReadVariableOp", "op": "Const", "attr": {"dtype": {"type": "DT_FLOAT"}, "value": {"tensor": {"dtype": "DT_FLOAT", "tensorShape": {"dim": [{"size": "512"}, {"size": "128"}]}}}}}, {"name": "StatefulPartitionedCall/functional_8_1/moe_block_0_1/pool_ffn_1_1/dense_20_1/BiasAdd/ReadVariableOp", "op": "Const", "attr": {"dtype": {"type": "DT_FLOAT"}, "value": {"tensor": {"dtype": "DT_FLOAT", "tensorShape": {"dim": [{"size": "128"}]}}}}}, {"name": "StatefulPartitionedCall/functional_8_1/reshape_1/strided_slice/stack", "op": "Const", "attr": {"dtype": {"type": "DT_INT32"}, "value": {"tensor": {"dtype": "DT_INT32", "tensorShape": {"dim": [{"size": "1"}]}}}}}, {"name": "StatefulPartitionedCall/functional_8_1/reshape_1/strided_slice/stack_1", "op": "Const", "attr": {"dtype": {"type": "DT_INT32"}, "value": {"tensor": {"dtype": "DT_INT32", "tensorShape": {"dim": [{"size": "1"}]}}}}}, {"name": "StatefulPartitionedCall/functional_8_1/reshape_1/strided_slice/stack_2", "op": "Const", "attr": {"dtype": {"type": "DT_INT32"}, "value": {"tensor": {"dtype": "DT_INT32", "tensorShape": {"dim": [{"size": "1"}]}}}}}, {"name": "StatefulPartitionedCall/functional_8_1/reshape_1/Reshape/shape/1", "op": "Const", "attr": {"dtype": {"type": "DT_INT32"}, "value": {"tensor": {"dtype": "DT_INT32", "tensorShape": {}}}}}, {"name": "StatefulPartitionedCall/functional_8_1/reshape_1/Reshape/shape/2", "op": "Const", "attr": {"dtype": {"type": "DT_INT32"}, "value": {"tensor": {"dtype": "DT_INT32", "tensorShape": {}}}}}, {"name": "StatefulPartitionedCall/functional_8_1/dense_16_1/Cast/ReadVariableOp", "op": "Const", "attr": {"dtype": {"type": "DT_FLOAT"}, "value": {"tensor": {"dtype": "DT_FLOAT", "tensorShape": {"dim": [{"size": "2"}, {"size": "128"}]}}}}}, {"name": "StatefulPartitionedCall/functional_8_1/dense_16_1/BiasAdd/ReadVariableOp", "op": "Const", "attr": {"dtype": {"type": "DT_FLOAT"}, "value": {"tensor": {"dtype": "DT_FLOAT", "tensorShape": {"dim": [{"size": "128"}]}}}}}, {"name": "StatefulPartitionedCall/functional_8_1/token_and_position_embedding_1/add", "op": "Const", "attr": {"dtype": {"type": "DT_FLOAT"}, "value": {"tensor": {"dtype": "DT_FLOAT", "tensorShape": {"dim": [{"size": "64"}, {"size": "128"}]}}}}}, {"name": "StatefulPartitionedCall/functional_8_1/token_and_position_embedding_1/time_emb_1/GatherV2/ReadVariableOp", "op": "Const", "attr": {"dtype": {"type": "DT_FLOAT"}, "value": {"tensor": {"dtype": "DT_FLOAT", "tensorShape": {"dim": [{"size": "65"}, {"size": "128"}]}}}}}, {"name": "StatefulPartitionedCall/functional_8_1/token_and_position_embedding_1/time_emb_1/Less/y", "op": "Const", "attr": {"dtype": {"type": "DT_INT32"}, "value": {"tensor": {"dtype": "DT_INT32", "tensorShape": {}}}}}, {"name": "StatefulPartitionedCall/functional_8_1/token_and_position_embedding_1/time_emb_1/strided_slice", "op": "Const", "attr": {"dtype": {"type": "DT_INT32"}, "value": {"tensor": {"dtype": "DT_INT32", "tensorShape": {}}}}}, {"name": "StatefulPartitionedCall/functional_8_1/token_and_position_embedding_1/Sum/reduction_indices", "op": "Const", "attr": {"dtype": {"type": "DT_INT32"}, "value": {"tensor": {"dtype": "DT_INT32", "tensorShape": {"dim": [{"size": "3"}]}}}}}, {"name": "StatefulPartitionedCall/functional_8_1/token_and_position_embedding_1/sub/y", "op": "Const", "attr": {"dtype": {"type": "DT_INT32"}, "value": {"tensor": {"dtype": "DT_INT32", "tensorShape": {}}}}}, {"name": "StatefulPartitionedCall/functional_8_1/token_and_position_embedding_1/Maximum/y", "op": "Const", "attr": {"dtype": {"type": "DT_INT32"}, "value": {"tensor": {"dtype": "DT_INT32", "tensorShape": {}}}}}, {"name": "StatefulPartitionedCall/functional_8_1/token_and_position_embedding_1/time_emb_1/GatherV2/axis", "op": "Const", "attr": {"dtype": {"type": "DT_INT32"}, "value": {"tensor": {"dtype": "DT_INT32", "tensorShape": {}}}}}, {"name": "StatefulPartitionedCall/functional_8_1/token_and_position_embedding_1/ExpandDims/dim", "op": "Const", "attr": {"dtype": {"type": "DT_INT32"}, "value": {"tensor": {"dtype": "DT_INT32", "tensorShape": {}}}}}, {"name": "StatefulPartitionedCall/functional_8_1/moe_block_0_1/Mean/reduction_indices", "op": "Const", "attr": {"dtype": {"type": "DT_INT32"}, "value": {"tensor": {"dtype": "DT_INT32", "tensorShape": {}}}}}, {"name": "StatefulPartitionedCall/functional_8_1/moe_block_0_1/embedding_4_1/GatherV2", "op": "Const", "attr": {"dtype": {"type": "DT_FLOAT"}, "value": {"tensor": {"dtype": "DT_FLOAT", "tensorShape": {"dim": [{"size": "1"}, {"size": "128"}]}}}}}, {"name": "StatefulPartitionedCall/functional_8_1/moe_block_0_1/router_1/Cast/ReadVariableOp", "op": "Const", "attr": {"dtype": {"type": "DT_FLOAT"}, "value": {"tensor": {"dtype": "DT_FLOAT", "tensorShape": {"dim": [{"size": "128"}, {"size": "4"}]}}}}}, {"name": "StatefulPartitionedCall/functional_8_1/moe_block_0_1/router_1/BiasAdd/ReadVariableOp", "op": "Const", "attr": {"dtype": {"type": "DT_FLOAT"}, "value": {"tensor": {"dtype": "DT_FLOAT", "tensorShape": {"dim": [{"size": "4"}]}}}}}, {"name": "StatefulPartitionedCall/functional_8_1/moe_block_0_1/Reshape/shape", "op": "Const", "attr": {"dtype": {"type": "DT_INT32"}, "value": {"tensor": {"dtype": "DT_INT32", "tensorShape": {"dim": [{"size": "4"}]}}}}}, {"name": "StatefulPartitionedCall/functional_8_1/moe_block_0_1/Sum/reduction_indices", "op": "Const", "attr": {"dtype": {"type": "DT_INT32"}, "value": {"tensor": {"dtype": "DT_INT32", "tensorShape": {}}}}}, {"name": "StatefulPartitionedCall/functional_8_1/moe_block_0_1/Mean_1/reduction_indices", "op": "Const", "attr": {"dtype": {"type": "DT_INT32"}, "value": {"tensor": {"dtype": "DT_INT32", "tensorShape": {}}}}}, {"name": "StatefulPartitionedCall/functional_8_1/moe_block_0_1/embedding_4_3/GatherV2", "op": "Const", "attr": {"dtype": {"type": "DT_FLOAT"}, "value": {"tensor": {"dtype": "DT_FLOAT", "tensorShape": {"dim": [{"size": "1"}, {"size": "128"}]}}}}}, {"name": "StatefulPartitionedCall/functional_8_1/moe_block_0_1/router_3/Cast/ReadVariableOp", "op": "Const", "attr": {"dtype": {"type": "DT_FLOAT"}, "value": {"tensor": {"dtype": "DT_FLOAT", "tensorShape": {"dim": [{"size": "128"}, {"size": "4"}]}}}}}, {"name": "StatefulPartitionedCall/functional_8_1/moe_block_0_1/router_3/BiasAdd/ReadVariableOp", "op": "Const", "attr": {"dtype": {"type": "DT_FLOAT"}, "value": {"tensor": {"dtype": "DT_FLOAT", "tensorShape": {"dim": [{"size": "4"}]}}}}}, {"name": "StatefulPartitionedCall/functional_8_1/moe_block_0_1/Reshape_1/shape", "op": "Const", "attr": {"dtype": {"type": "DT_INT32"}, "value": {"tensor": {"dtype": "DT_INT32", "tensorShape": {"dim": [{"size": "4"}]}}}}}, {"name": "StatefulPartitionedCall/functional_8_1/moe_block_0_1/Sum_1/reduction_indices", "op": "Const", "attr": {"dtype": {"type": "DT_INT32"}, "value": {"tensor": {"dtype": "DT_INT32", "tensorShape": {}}}}}, {"name": "StatefulPartitionedCall/functional_8_1/moe_block_1_1/Mean/reduction_indices", "op": "Const", "attr": {"dtype": {"type": "DT_INT32"}, "value": {"tensor": {"dtype": "DT_INT32", "tensorShape": {}}}}}, {"name": "StatefulPartitionedCall/functional_8_1/moe_block_1_1/embedding_5_1/GatherV2", "op": "Const", "attr": {"dtype": {"type": "DT_FLOAT"}, "value": {"tensor": {"dtype": "DT_FLOAT", "tensorShape": {"dim": [{"size": "1"}, {"size": "128"}]}}}}}, {"name": "StatefulPartitionedCall/functional_8_1/moe_block_1_1/router_1/Cast/ReadVariableOp", "op": "Const", "attr": {"dtype": {"type": "DT_FLOAT"}, "value": {"tensor": {"dtype": "DT_FLOAT", "tensorShape": {"dim": [{"size": "128"}, {"size": "4"}]}}}}}, {"name": "StatefulPartitionedCall/functional_8_1/moe_block_1_1/router_1/BiasAdd/ReadVariableOp", "op": "Const", "attr": {"dtype": {"type": "DT_FLOAT"}, "value": {"tensor": {"dtype": "DT_FLOAT", "tensorShape": {"dim": [{"size": "4"}]}}}}}, {"name": "StatefulPartitionedCall/functional_8_1/moe_block_1_1/Reshape/shape", "op": "Const", "attr": {"dtype": {"type": "DT_INT32"}, "value": {"tensor": {"dtype": "DT_INT32", "tensorShape": {"dim": [{"size": "4"}]}}}}}, {"name": "StatefulPartitionedCall/functional_8_1/moe_block_1_1/Sum/reduction_indices", "op": "Const", "attr": {"dtype": {"type": "DT_INT32"}, "value": {"tensor": {"dtype": "DT_INT32", "tensorShape": {}}}}}, {"name": "StatefulPartitionedCall/functional_8_1/moe_block_1_1/Mean_1/reduction_indices", "op": "Const", "attr": {"dtype": {"type": "DT_INT32"}, "value": {"tensor": {"dtype": "DT_INT32", "tensorShape": {}}}}}, {"name": "StatefulPartitionedCall/functional_8_1/moe_block_1_1/embedding_5_3/GatherV2", "op": "Const", "attr": {"dtype": {"type": "DT_FLOAT"}, "value": {"tensor": {"dtype": "DT_FLOAT", "tensorShape": {"dim": [{"size": "1"}, {"size": "128"}]}}}}}, {"name": "StatefulPartitionedCall/functional_8_1/moe_block_1_1/router_3/Cast/ReadVariableOp", "op": "Const", "attr": {"dtype": {"type": "DT_FLOAT"}, "value": {"tensor": {"dtype": "DT_FLOAT", "tensorShape": {"dim": [{"size": "128"}, {"size": "4"}]}}}}}, {"name": "StatefulPartitionedCall/functional_8_1/moe_block_1_1/router_3/BiasAdd/ReadVariableOp", "op": "Const", "attr": {"dtype": {"type": "DT_FLOAT"}, "value": {"tensor": {"dtype": "DT_FLOAT", "tensorShape": {"dim": [{"size": "4"}]}}}}}, {"name": "StatefulPartitionedCall/functional_8_1/moe_block_1_1/Reshape_1/shape", "op": "Const", "attr": {"dtype": {"type": "DT_INT32"}, "value": {"tensor": {"dtype": "DT_INT32", "tensorShape": {"dim": [{"size": "4"}]}}}}}, {"name": "StatefulPartitionedCall/functional_8_1/moe_block_1_1/Sum_1/reduction_indices", "op": "Const", "attr": {"dtype": {"type": "DT_INT32"}, "value": {"tensor": {"dtype": "DT_INT32", "tensorShape": {}}}}}, {"name": "StatefulPartitionedCall/functional_8_1/moe_block_2_1/Mean/reduction_indices", "op": "Const", "attr": {"dtype": {"type": "DT_INT32"}, "value": {"tensor": {"dtype": "DT_INT32", "tensorShape": {}}}}}, {"name": "StatefulPartitionedCall/functional_8_1/moe_block_2_1/embedding_6_1/GatherV2", "op": "Const", "attr": {"dtype": {"type": "DT_FLOAT"}, "value": {"tensor": {"dtype": "DT_FLOAT", "tensorShape": {"dim": [{"size": "1"}, {"size": "128"}]}}}}}, {"name": "StatefulPartitionedCall/functional_8_1/moe_block_2_1/router_1/Cast/ReadVariableOp", "op": "Const", "attr": {"dtype": {"type": "DT_FLOAT"}, "value": {"tensor": {"dtype": "DT_FLOAT", "tensorShape": {"dim": [{"size": "128"}, {"size": "4"}]}}}}}, {"name": "StatefulPartitionedCall/functional_8_1/moe_block_2_1/router_1/BiasAdd/ReadVariableOp", "op": "Const", "attr": {"dtype": {"type": "DT_FLOAT"}, "value": {"tensor": {"dtype": "DT_FLOAT", "tensorShape": {"dim": [{"size": "4"}]}}}}}, {"name": "StatefulPartitionedCall/functional_8_1/moe_block_2_1/Reshape/shape", "op": "Const", "attr": {"dtype": {"type": "DT_INT32"}, "value": {"tensor": {"dtype": "DT_INT32", "tensorShape": {"dim": [{"size": "4"}]}}}}}, {"name": "StatefulPartitionedCall/functional_8_1/moe_block_2_1/Sum/reduction_indices", "op": "Const", "attr": {"dtype": {"type": "DT_INT32"}, "value": {"tensor": {"dtype": "DT_INT32", "tensorShape": {}}}}}, {"name": "StatefulPartitionedCall/functional_8_1/moe_block_2_1/Mean_1/reduction_indices", "op": "Const", "attr": {"dtype": {"type": "DT_INT32"}, "value": {"tensor": {"dtype": "DT_INT32", "tensorShape": {}}}}}, {"name": "StatefulPartitionedCall/functional_8_1/moe_block_2_1/embedding_6_3/GatherV2", "op": "Const", "attr": {"dtype": {"type": "DT_FLOAT"}, "value": {"tensor": {"dtype": "DT_FLOAT", "tensorShape": {"dim": [{"size": "1"}, {"size": "128"}]}}}}}, {"name": "StatefulPartitionedCall/functional_8_1/moe_block_2_1/router_3/Cast/ReadVariableOp", "op": "Const", "attr": {"dtype": {"type": "DT_FLOAT"}, "value": {"tensor": {"dtype": "DT_FLOAT", "tensorShape": {"dim": [{"size": "128"}, {"size": "4"}]}}}}}, {"name": "StatefulPartitionedCall/functional_8_1/moe_block_2_1/router_3/BiasAdd/ReadVariableOp", "op": "Const", "attr": {"dtype": {"type": "DT_FLOAT"}, "value": {"tensor": {"dtype": "DT_FLOAT", "tensorShape": {"dim": [{"size": "4"}]}}}}}, {"name": "StatefulPartitionedCall/functional_8_1/moe_block_2_1/Reshape_1/shape", "op": "Const", "attr": {"dtype": {"type": "DT_INT32"}, "value": {"tensor": {"dtype": "DT_INT32", "tensorShape": {"dim": [{"size": "4"}]}}}}}, {"name": "StatefulPartitionedCall/functional_8_1/moe_block_2_1/Sum_1/reduction_indices", "op": "Const", "attr": {"dtype": {"type": "DT_INT32"}, "value": {"tensor": {"dtype": "DT_INT32", "tensorShape": {}}}}}, {"name": "StatefulPartitionedCall/functional_8_1/moe_block_3_1/Mean/reduction_indices", "op": "Const", "attr": {"dtype": {"type": "DT_INT32"}, "value": {"tensor": {"dtype": "DT_INT32", "tensorShape": {}}}}}, {"name": "StatefulPartitionedCall/functional_8_1/moe_block_3_1/embedding_7_1/GatherV2", "op": "Const", "attr": {"dtype": {"type": "DT_FLOAT"}, "value": {"tensor": {"dtype": "DT_FLOAT", "tensorShape": {"dim": [{"size": "1"}, {"size": "128"}]}}}}}, {"name": "StatefulPartitionedCall/functional_8_1/moe_block_3_1/router_1/Cast/ReadVariableOp", "op": "Const", "attr": {"dtype": {"type": "DT_FLOAT"}, "value": {"tensor": {"dtype": "DT_FLOAT", "tensorShape": {"dim": [{"size": "128"}, {"size": "4"}]}}}}}, {"name": "StatefulPartitionedCall/functional_8_1/moe_block_3_1/router_1/BiasAdd/ReadVariableOp", "op": "Const", "attr": {"dtype": {"type": "DT_FLOAT"}, "value": {"tensor": {"dtype": "DT_FLOAT", "tensorShape": {"dim": [{"size": "4"}]}}}}}, {"name": "StatefulPartitionedCall/functional_8_1/moe_block_3_1/Reshape/shape", "op": "Const", "attr": {"dtype": {"type": "DT_INT32"}, "value": {"tensor": {"dtype": "DT_INT32", "tensorShape": {"dim": [{"size": "4"}]}}}}}, {"name": "StatefulPartitionedCall/functional_8_1/moe_block_3_1/Sum/reduction_indices", "op": "Const", "attr": {"dtype": {"type": "DT_INT32"}, "value": {"tensor": {"dtype": "DT_INT32", "tensorShape": {}}}}}, {"name": "StatefulPartitionedCall/functional_8_1/moe_block_3_1/Mean_1/reduction_indices", "op": "Const", "attr": {"dtype": {"type": "DT_INT32"}, "value": {"tensor": {"dtype": "DT_INT32", "tensorShape": {}}}}}, {"name": "StatefulPartitionedCall/functional_8_1/moe_block_3_1/embedding_7_3/GatherV2", "op": "Const", "attr": {"dtype": {"type": "DT_FLOAT"}, "value": {"tensor": {"dtype": "DT_FLOAT", "tensorShape": {"dim": [{"size": "1"}, {"size": "128"}]}}}}}, {"name": "StatefulPartitionedCall/functional_8_1/moe_block_3_1/router_3/Cast/ReadVariableOp", "op": "Const", "attr": {"dtype": {"type": "DT_FLOAT"}, "value": {"tensor": {"dtype": "DT_FLOAT", "tensorShape": {"dim": [{"size": "128"}, {"size": "4"}]}}}}}, {"name": "StatefulPartitionedCall/functional_8_1/moe_block_3_1/router_3/BiasAdd/ReadVariableOp", "op": "Const", "attr": {"dtype": {"type": "DT_FLOAT"}, "value": {"tensor": {"dtype": "DT_FLOAT", "tensorShape": {"dim": [{"size": "4"}]}}}}}, {"name": "StatefulPartitionedCall/functional_8_1/moe_block_3_1/Reshape_1/shape", "op": "Const", "attr": {"dtype": {"type": "DT_INT32"}, "value": {"tensor": {"dtype": "DT_INT32", "tensorShape": {"dim": [{"size": "4"}]}}}}}, {"name": "StatefulPartitionedCall/functional_8_1/moe_block_3_1/Sum_1/reduction_indices", "op": "Const", "attr": {"dtype": {"type": "DT_INT32"}, "value": {"tensor": {"dtype": "DT_INT32", "tensorShape": {}}}}}, {"name": "StatefulPartitionedCall/functional_8_1/conv1d_1/convolution/ExpandDims/dim", "op": "Const", "attr": {"dtype": {"type": "DT_INT32"}, "value": {"tensor": {"dtype": "DT_INT32", "tensorShape": {}}}}}, {"name": "StatefulPartitionedCall/functional_8_1/conv1d_1/convolution/ExpandDims_1", "op": "Const", "attr": {"dtype": {"type": "DT_FLOAT"}, "value": {"tensor": {"dtype": "DT_FLOAT", "tensorShape": {"dim": [{"size": "1"}, {"size": "1"}, {"size": "128"}, {"size": "8"}]}}}}}, {"name": "StatefulPartitionedCall/functional_8_1/conv1d_1/Squeeze", "op": "Const", "attr": {"dtype": {"type": "DT_FLOAT"}, "value": {"tensor": {"dtype": "DT_FLOAT", "tensorShape": {"dim": [{"size": "8"}]}}}}}, {"name": "StatefulPartitionedCall/functional_8_1/conv1d_1/Pow/y", "op": "Const", "attr": {"dtype": {"type": "DT_FLOAT"}, "value": {"tensor": {"dtype": "DT_FLOAT", "tensorShape": {}}}}}, {"name": "StatefulPartitionedCall/functional_8_1/flatten_1/Reshape/shape", "op": "Const", "attr": {"dtype": {"type": "DT_INT32"}, "value": {"tensor": {"dtype": "DT_INT32", "tensorShape": {"dim": [{"size": "2"}]}}}}}, {"name": "StatefulPartitionedCall/functional_8_1/value_hidden_1/Cast/ReadVariableOp", "op": "Const", "attr": {"dtype": {"type": "DT_FLOAT"}, "value": {"tensor": {"dtype": "DT_FLOAT", "tensorShape": {"dim": [{"size": "512"}, {"size": "128"}]}}}}}, {"name": "StatefulPartitionedCall/functional_8_1/value_hidden_1/BiasAdd/ReadVariableOp", "op": "Const", "attr": {"dtype": {"type": "DT_FLOAT"}, "value": {"tensor": {"dtype": "DT_FLOAT", "tensorShape": {"dim": [{"size": "128"}]}}}}}, {"name": "StatefulPartitionedCall/functional_8_1/value_hidden_1/Pow/y", "op": "Const", "attr": {"dtype": {"type": "DT_FLOAT"}, "value": {"tensor": {"dtype": "DT_FLOAT", "tensorShape": {}}}}}, {"name": "StatefulPartitionedCall/functional_8_1/value_1/Cast/ReadVariableOp", "op": "Const", "attr": {"dtype": {"type": "DT_FLOAT"}, "value": {"tensor": {"dtype": "DT_FLOAT", "tensorShape": {"dim": [{"size": "128"}, {"size": "1"}]}}}}}, {"name": "StatefulPartitionedCall/functional_8_1/value_1/Add/ReadVariableOp", "op": "Const", "attr": {"dtype": {"type": "DT_FLOAT"}, "value": {"tensor": {"dtype": "DT_FLOAT", "tensorShape": {"dim": [{"size": "1"}]}}}}}, {"name": "StatefulPartitionedCall/functional_8_1/value_1/sub/y", "op": "Const", "attr": {"dtype": {"type": "DT_FLOAT"}, "value": {"tensor": {"dtype": "DT_FLOAT", "tensorShape": {}}}}}, {"name": "keras_tensor_80", "op": "Placeholder", "attr": {"shape": {"shape": {"dim": [{"size": "-1"}, {"size": "8"}, {"size": "8"}, {"size": "2"}]}}, "dtype": {"type": "DT_FLOAT"}}}, {"name": "StatefulPartitionedCall/functional_8_1/reshape_1/Shape", "op": "Shape", "input": ["keras_tensor_80"], "attr": {"out_type": {"type": "DT_INT32"}, "T": {"type": "DT_FLOAT"}}, "experimentalType": {"typeId": "TFT_PRODUCT", "args": [{"typeId": "TFT_SHAPE_TENSOR", "args": [{"typeId": "TFT_INT32"}]}]}}, {"name": "StatefulPartitionedCall/functional_8_1/token_and_position_emb…
ffn_0_1/layer_normalization_26_1/moments/variance/reduction_indices", "shape": [1], "dtype": "int32"}, {"name": "StatefulPartitionedCall/functional_8_1/moe_block_2_1/pool_ffn_0_1/layer_normalization_26_1/add/y", "shape": [], "dtype": "float32"}, {"name": "StatefulPartitionedCall/functional_8_1/moe_block_2_1/pool_ffn_0_1/layer_normalization_26_1/Reshape", "shape": [1, 1, 128], "dtype": "float32"}, {"name": "StatefulPartitionedCall/functional_8_1/moe_block_2_1/pool_ffn_0_1/layer_normalization_26_1/Reshape_1", "shape": [1, 1, 128], "dtype": "float32"}, {"name": "StatefulPartitionedCall/functional_8_1/moe_block_2_1/pool_ffn_0_1/dense_25_1/Cast/ReadVariableOp", "shape": [128, 512], "dtype": "float32"}, {"name": "StatefulPartitionedCall/functional_8_1/moe_block_2_1/pool_ffn_0_1/dense_25_1/BiasAdd/ReadVariableOp", "shape": [512], "dtype": "float32"}, {"name": "StatefulPartitionedCall/functional_8_1/moe_block_2_1/pool_ffn_0_1/dense_25_1/Pow/y", "shape": [], "dtype": "float32"}, {"name": "StatefulPartitionedCall/functional_8_1/moe_block_2_1/pool_ffn_0_1/dense_26_1/Cast/ReadVariableOp", "shape": [512, 128], "dtype": "float32"}, {"name": "StatefulPartitionedCall/functional_8_1/moe_block_2_1/pool_ffn_0_1/dense_26_1/BiasAdd/ReadVariableOp", "shape": [128], "dtype": "float32"}, {"name": "StatefulPartitionedCall/functional_8_1/moe_block_2_1/pool_ffn_1_1/dense_27_1/mul_1/x", "shape": [], "dtype": "float32"}, {"name": "StatefulPartitionedCall/functional_8_1/moe_block_2_1/pool_ffn_1_1/dense_27_1/mul/x", "shape": [], "dtype": "float32"}, {"name": "StatefulPartitionedCall/functional_8_1/moe_block_2_1/pool_ffn_1_1/layer_normalization_27_1/moments/mean/reduction_indices", "shape": [1], "dtype": "int32"}, {"name": "StatefulPartitionedCall/functional_8_1/moe_block_2_1/pool_ffn_1_1/layer_normalization_27_1/moments/variance/reduction_indices", "shape": [1], "dtype": "int32"}, {"name": "StatefulPartitionedCall/functional_8_1/moe_block_2_1/pool_ffn_1_1/layer_normalization_27_1/add/y", "shape": [], "dtype": "float32"}, {"name": "StatefulPartitionedCall/functional_8_1/moe_block_2_1/pool_ffn_1_1/layer_normalization_27_1/Reshape", "shape": [1, 1, 128], "dtype": "float32"}, {"name": "StatefulPartitionedCall/functional_8_1/moe_block_2_1/pool_ffn_1_1/layer_normalization_27_1/Reshape_1", "shape": [1, 1, 128], "dtype": "float32"}, {"name": "StatefulPartitionedCall/functional_8_1/moe_block_2_1/pool_ffn_1_1/dense_27_1/Cast/ReadVariableOp", "shape": [128, 512], "dtype": "float32"}, {"name": "StatefulPartitionedCall/functional_8_1/moe_block_2_1/pool_ffn_1_1/dense_27_1/BiasAdd/ReadVariableOp", "shape": [512], "dtype": "float32"}, {"name": "StatefulPartitionedCall/functional_8_1/moe_block_2_1/pool_ffn_1_1/dense_27_1/Pow/y", "shape": [], "dtype": "float32"}, {"name": "StatefulPartitionedCall/functional_8_1/moe_block_2_1/pool_ffn_1_1/dense_28_1/Cast/ReadVariableOp", "shape": [512, 128], "dtype": "float32"}, {"name": "StatefulPartitionedCall/functional_8_1/moe_block_2_1/pool_ffn_1_1/dense_28_1/BiasAdd/ReadVariableOp", "shape": [128], "dtype": "float32"}, {"name": "StatefulPartitionedCall/functional_8_1/moe_block_1_1/pool_mha_0_3/multi_head_attention_10_1/query_1/Reshape", "shape": [128, 128], "dtype": "float32"}, {"name": "StatefulPartitionedCall/functional_8_1/moe_block_1_1/pool_mha_0_3/multi_head_attention_10_1/query_1/Reshape_1/shape", "shape": [4], "dtype": "int32"}, {"name": "StatefulPartitionedCall/functional_8_1/moe_block_1_1/pool_mha_0_3/multi_head_attention_10_1/query_1/Add/ReadVariableOp", "shape": [4, 32], "dtype": "float32"}, {"name": "StatefulPartitionedCall/functional_8_1/moe_block_1_1/pool_mha_0_3/multi_head_attention_10_1/key_1/Reshape", "shape": [128, 128], "dtype": "float32"}, {"name": "StatefulPartitionedCall/functional_8_1/moe_block_1_1/pool_mha_0_3/multi_head_attention_10_1/key_1/Reshape_1/shape", "shape": [4], "dtype": "int32"}, {"name": "StatefulPartitionedCall/functional_8_1/moe_block_1_1/pool_mha_0_3/multi_head_attention_10_1/key_1/Add/ReadVariableOp", "shape": [4, 32], "dtype": "float32"}, {"name": "StatefulPartitionedCall/functional_8_1/moe_block_1_1/pool_mha_0_3/multi_head_attention_10_1/Cast/x", "shape": [], "dtype": "float32"}, {"name": "StatefulPartitionedCall/functional_8_1/moe_block_1_1/pool_mha_0_3/layer_normalization_20_1/moments/mean/reduction_indices", "shape": [1], "dtype": "int32"}, {"name": "StatefulPartitionedCall/functional_8_1/moe_block_1_1/pool_mha_0_3/layer_normalization_20_1/moments/variance/reduction_indices", "shape": [1], "dtype": "int32"}, {"name": "StatefulPartitionedCall/functional_8_1/moe_block_1_1/pool_mha_0_3/layer_normalization_20_1/add/y", "shape": [], "dtype": "float32"}, {"name": "StatefulPartitionedCall/functional_8_1/moe_block_1_1/pool_mha_0_3/layer_normalization_20_1/Reshape", "shape": [1, 1, 128], "dtype": "float32"}, {"name": "StatefulPartitionedCall/functional_8_1/moe_block_1_1/pool_mha_0_3/layer_normalization_20_1/Reshape_1", "shape": [1, 1, 128], "dtype": "float32"}, {"name": "StatefulPartitionedCall/functional_8_1/moe_block_1_1/pool_mha_0_3/multi_head_attention_10_1/value_1/Reshape", "shape": [128, 128], "dtype": "float32"}, {"name": "StatefulPartitionedCall/functional_8_1/moe_block_1_1/pool_mha_0_3/multi_head_attention_10_1/value_1/Reshape_1/shape", "shape": [4], "dtype": "int32"}, {"name": "StatefulPartitionedCall/functional_8_1/moe_block_1_1/pool_mha_0_3/multi_head_attention_10_1/value_1/Add/ReadVariableOp", "shape": [4, 32], "dtype": "float32"}, {"name": "StatefulPartitionedCall/functional_8_1/moe_block_1_1/pool_mha_0_3/multi_head_attention_10_1/attention_output_1/Reshape/shape", "shape": [3], "dtype": "int32"}, {"name": "StatefulPartitionedCall/functional_8_1/moe_block_1_1/pool_mha_0_3/multi_head_attention_10_1/attention_output_1/Reshape_1", "shape": [128, 128], "dtype": "float32"}, {"name": "StatefulPartitionedCall/functional_8_1/moe_block_1_1/pool_mha_0_3/multi_head_attention_10_1/attention_output_1/BiasAdd/ReadVariableOp", "shape": [128], "dtype": "float32"}, {"name": "StatefulPartitionedCall/functional_8_1/moe_block_1_1/pool_mha_1_3/multi_head_attention_11_1/query_1/Reshape", "shape": [128, 128], "dtype": "float32"}, {"name": "StatefulPartitionedCall/functional_8_1/moe_block_1_1/pool_mha_1_3/multi_head_attention_11_1/query_1/Reshape_1/shape", "shape": [4], "dtype": "int32"}, {"name": "StatefulPartitionedCall/functional_8_1/moe_block_1_1/pool_mha_1_3/multi_head_attention_11_1/query_1/Add/ReadVariableOp", "shape": [4, 32], "dtype": "float32"}, {"name": "StatefulPartitionedCall/functional_8_1/moe_block_1_1/pool_mha_1_3/multi_head_attention_11_1/key_1/Reshape", "shape": [128, 128], "dtype": "float32"}, {"name": "StatefulPartitionedCall/functional_8_1/moe_block_1_1/pool_mha_1_3/multi_head_attention_11_1/key_1/Reshape_1/shape", "shape": [4], "dtype": "int32"}, {"name": "StatefulPartitionedCall/functional_8_1/moe_block_1_1/pool_mha_1_3/multi_head_attention_11_1/key_1/Add/ReadVariableOp", "shape": [4, 32], "dtype": "float32"}, {"name": "StatefulPartitionedCall/functional_8_1/moe_block_1_1/pool_mha_1_3/multi_head_attention_11_1/Cast/x", "shape": [], "dtype": "float32"}, {"name": "StatefulPartitionedCall/functional_8_1/moe_block_1_1/pool_mha_1_3/layer_normalization_21_1/moments/mean/reduction_indices", "shape": [1], "dtype": "int32"}, {"name": "StatefulPartitionedCall/functional_8_1/moe_block_1_1/pool_mha_1_3/layer_normalization_21_1/moments/variance/reduction_indices", "shape": [1], "dtype": "int32"}, {"name": "StatefulPartitionedCall/functional_8_1/moe_block_1_1/pool_mha_1_3/layer_normalization_21_1/add/y", "shape": [], "dtype": "float32"}, {"name": "StatefulPartitionedCall/functional_8_1/moe_block_1_1/pool_mha_1_3/layer_normalization_21_1/Reshape", "shape": [1, 1, 128], "dtype": "float32"}, {"name": "StatefulPartitionedCall/functional_8_1/moe_block_1_1/pool_mha_1_3/layer_normalization_21_1/Reshape_1", "shape": [1, 1, 128], "dtype": "float32"}, {"name": "StatefulPartitionedCall/functional_8_1/moe_block_1_1/pool_mha_1_3/multi_head_attention_11_1/value_1/Reshape", "shape": [128, 128], "dtype": "float32"}, {"name": "StatefulPartitionedCall/functional_8_1/moe_block_1_1/pool_mha_1_3/multi_head_attention_11_1/value_1/Reshape_1/shape", "shape": [4], "dtype": "int32"}, {"name": "StatefulPartitionedCall/functional_8_1/moe_block_1_1/pool_mha_1_3/multi_head_attention_11_1/value_1/Add/ReadVariableOp", "shape": [4, 32], "dtype": "float32"}, {"name": "StatefulPartitionedCall/functional_8_1/moe_block_1_1/pool_mha_1_3/multi_head_attention_11_1/attention_output_1/Reshape/shape", "shape": [3], "dtype": "int32"}, {"name": "StatefulPartitionedCall/functional_8_1/moe_block_1_1/pool_mha_1_3/multi_head_attention_11_1/attention_output_1/Reshape_1", "shape": [128, 128], "dtype": "float32"}, {"name": "StatefulPartitionedCall/functional_8_1/moe_block_1_1/pool_mha_1_3/multi_head_attention_11_1/attention_output_1/BiasAdd/ReadVariableOp", "shape": [128], "dtype": "float32"}, {"name": "StatefulPartitionedCall/functional_8_1/moe_block_1_1/pool_ffn_0_3/dense_21_1/mul_1/x", "shape": [], "dtype": "float32"}, {"name": "StatefulPartitionedCall/functional_8_1/moe_block_1_1/pool_ffn_0_3/dense_21_1/mul/x", "shape": [], "dtype": "float32"}, {"name": "StatefulPartitionedCall/functional_8_1/moe_block_1_1/pool_ffn_0_3/layer_normalization_22_1/moments/mean/reduction_indices", "shape": [1], "dtype": "int32"}, {"name": "StatefulPartitionedCall/functional_8_1/moe_block_1_1/pool_ffn_0_3/layer_normalization_22_1/moments/variance/reduction_indices", "shape": [1], "dtype": "int32"}, {"name": "StatefulPartitionedCall/functional_8_1/moe_block_1_1/pool_ffn_0_3/layer_normalization_22_1/add/y", "shape": [], "dtype": "float32"}, {"name": "StatefulPartitionedCall/functional_8_1/moe_block_1_1/pool_ffn_0_3/layer_normalization_22_1/Reshape", "shape": [1, 1, 128], "dtype": "float32"}, {"name": "StatefulPartitionedCall/functional_8_1/moe_block_1_1/pool_ffn_0_3/layer_normalization_22_1/Reshape_1", "shape": [1, 1, 128], "dtype": "float32"}, {"name": "StatefulPartitionedCall/functional_8_1/moe_block_1_1/pool_ffn_0_3/dense_21_1/Cast/ReadVariableOp", "shape": [128, 512], "dtype": "float32"}, {"name": "StatefulPartitionedCall/functional_8_1/moe_block_1_1/pool_ffn_0_3/dense_21_1/BiasAdd/ReadVariableOp", "shape": [512], "dtype": "float32"}, {"name": "StatefulPartitionedCall/functional_8_1/moe_block_1_1/pool_ffn_0_3/dense_21_1/Pow/y", "shape": [], "dtype": "float32"}, {"name": "StatefulPartitionedCall/functional_8_1/moe_block_1_1/pool_ffn_0_3/dense_22_1/Cast/ReadVariableOp", "shape": [512, 128], "dtype": "float32"}, {"name": "StatefulPartitionedCall/functional_8_1/moe_block_1_1/pool_ffn_0_3/dense_22_1/BiasAdd/ReadVariableOp", "shape": [128], "dtype": "float32"}, {"name": "StatefulPartitionedCall/functional_8_1/moe_block_1_1/pool_ffn_1_3/dense_23_1/mul_1/x", "shape": [], "dtype": "float32"}, {"name": "StatefulPartitionedCall/functional_8_1/moe_block_1_1/pool_ffn_1_3/dense_23_1/mul/x", "shape": [], "dtype": "float32"}, {"name": "StatefulPartitionedCall/functional_8_1/moe_block_1_1/pool_ffn_1_3/layer_normalization_23_1/moments/mean/reduction_indices", "shape": [1], "dtype": "int32"}, {"name": "StatefulPartitionedCall/functional_8_1/moe_block_1_1/pool_ffn_1_3/layer_normalization_23_1/moments/variance/reduction_indices", "shape": [1], "dtype": "int32"}, {"name": "StatefulPartitionedCall/functional_8_1/moe_block_1_1/pool_ffn_1_3/layer_normalization_23_1/add/y", "shape": [], "dtype": "float32"}, {"name": "StatefulPartitionedCall/functional_8_1/moe_block_1_1/pool_ffn_1_3/layer_normalization_23_1/Reshape", "shape": [1, 1, 128], "dtype": "float32"}, {"name": "StatefulPartitionedCall/functional_8_1/moe_block_1_1/pool_ffn_1_3/layer_normalization_23_1/Reshape_1", "shape": [1, 1, 128], "dtype": "float32"}, {"name": "StatefulPartitionedCall/functional_8_1/moe_block_1_1/pool_ffn_1_3/dense_23_1/Cast/ReadVariableOp", "shape": [128, 512], "dtype": "float32"}, {"name": "StatefulPartitionedCall/functional_8_1/moe_block_1_1/pool_ffn_1_3/dense_23_1/BiasAdd/ReadVariableOp", "shape": [512], "dtype": "float32"}, {"name": "StatefulPartitionedCall/functional_8_1/moe_block_1_1/pool_ffn_1_3/dense_23_1/Pow/y", "shape": [], "dtype": "float32"}, {"name": "StatefulPartitionedCall/functional_8_1/moe_block_1_1/pool_ffn_1_3/dense_24_1/Cast/ReadVariableOp", "shape": [512, 128], "dtype": "float32"}, {"name": "StatefulPartitionedCall/functional_8_1/moe_block_1_1/pool_ffn_1_3/dense_24_1/BiasAdd/ReadVariableOp", "shape": [128], "dtype": "float32"}, {"name": "StatefulPartitionedCall/functional_8_1/moe_block_1_1/pool_mha_0_1/multi_head_attention_10_1/query_1/Reshape", "shape": [128, 128], "dtype": "float32"}, {"name": "StatefulPartitionedCall/functional_8_1/moe_block_1_1/pool_mha_0_1/multi_head_attention_10_1/query_1/Reshape_1/shape", "shape": [4], "dtype": "int32"}, {"name": "StatefulPartitionedCall/functional_8_1/moe_block_1_1/pool_mha_0_1/multi_head_attention_10_1/query_1/Add/ReadVariableOp", "shape": [4, 32], "dtype": "float32"}, {"name": "StatefulPartitionedCall/functional_8_1/moe_block_1_1/pool_mha_0_1/multi_head_attention_10_1/key_1/Reshape", "shape": [128, 128], "dtype": "float32"}, {"name": "StatefulPartitionedCall/functional_8_1/moe_block_1_1/pool_mha_0_1/multi_head_attention_10_1/key_1/Reshape_1/shape", "shape": [4], "dtype": "int32"}, {"name": "StatefulPartitionedCall/functional_8_1/moe_block_1_1/pool_mha_0_1/multi_head_attention_10_1/key_1/Add/ReadVariableOp", "shape": [4, 32], "dtype": "float32"}, {"name": "StatefulPartitionedCall/functional_8_1/moe_block_1_1/pool_mha_0_1/multi_head_attention_10_1/Cast/x", "shape": [], "dtype": "float32"}, {"name": "StatefulPartitionedCall/functional_8_1/moe_block_1_1/pool_mha_0_1/layer_normalization_20_1/moments/mean/reduction_indices", "shape": [1], "dtype": "int32"}, {"name": "StatefulPartitionedCall/functional_8_1/moe_block_1_1/pool_mha_0_1/layer_normalization_20_1/moments/variance/reduction_indices", "shape": [1], "dtype": "int32"}, {"name": "StatefulPartitionedCall/functional_8_1/moe_block_1_1/pool_mha_0_1/layer_normalization_20_1/add/y", "shape": [], "dtype": "float32"}, {"name": "StatefulPartitionedCall/functional_8_1/moe_block_1_1/pool_mha_0_1/layer_normalization_20_1/Reshape", "shape": [1, 1, 128], "dtype": "float32"}, {"name": "StatefulPartitionedCall/functional_8_1/moe_block_1_1/pool_mha_0_1/layer_normalization_20_1/Reshape_1", "shape": [1, 1, 128], "dtype": "float32"}, {"name": "StatefulPartitionedCall/functional_8_1/moe_block_1_1/pool_mha_0_1/multi_head_attention_10_1/value_1/Reshape", "shape": [128, 128], "dtype": "float32"}, {"name": "StatefulPartitionedCall/functional_8_1/moe_block_1_1/pool_mha_0_1/multi_head_attention_10_1/value_1/Reshape_1/shape", "shape": [4], "dtype": "int32"}, {"name": "StatefulPartitionedCall/functional_8_1/moe_block_1_1/pool_mha_0_1/multi_head_attention_10_1/value_1/Add/ReadVariableOp", "shape": [4, 32], "dtype": "float32"}, {"name": "StatefulPartitionedCall/functional_8_1/moe_block_1_1/pool_mha_0_1/multi_head_attention_10_1/attention_output_1/Reshape/shape", "shape": [3], "dtype": "int32"}, {"name": "StatefulPartitionedCall/functional_8_1/moe_block_1_1/pool_mha_0_1/multi_head_attention_10_1/attention_output_1/Reshape_1", "shape": [128, 128], "dtype": "float32"}, {"name": "StatefulPartitionedCall/functional_8_1/moe_block_1_1/pool_mha_0_1/multi_head_attention_10_1/attention_output_1/BiasAdd/ReadVariableOp", "shape": [128], "dtype": "float32"}, {"name": "StatefulPartitionedCall/functional_8_1/moe_block_1_1/pool_mha_1_1/multi_head_attention_11_1/query_1/Reshape", "shape": [128, 128], "dtype": "float32"}, {"name": "StatefulPartitionedCall/functional_8_1/moe_block_1_1/pool_mha_1_1/multi_head_attention_11_1/query_1/Reshape_1/shape", "shape": [4], "dtype": "int32"}, {"name": "StatefulPartitionedCall/functional_8_1/moe_block_1_1/pool_mha_1_1/multi_head_attention_11_1/query_1/Add/ReadVariableOp", "shape": [4, 32], "dtype": "float32"}, {"name": "StatefulPartitionedCall/functional_8_1/moe_block_1_1/pool_mha_1_1/multi_head_attention_11_1/key_1/Reshape", "shape": [128, 128], "dtype": "float32"}, {"name": "StatefulPartitionedCall/functional_8_1/moe_block_1_1/pool_mha_1_1/multi_head_attention_11_1/key_1/Reshape_1/shape", "shape": [4], "dtype": "int32"}, {"name": "StatefulPartitionedCall/functional_8_1/moe_block_1_1/pool_mha_1_1/multi_head_attention_11_1/key_1/Add/ReadVariableOp", "shape": [4, 32], "dtype": "float32"}, {"name": "StatefulPartitionedCall/functional_8_1/moe_block_1_1/pool_mha_1_1/multi_head_attention_11_1/Cast/x", "shape": [], "dtype": "float32"}, {"name": "StatefulPartitionedCall/functional_8_1/moe_block_1_1/pool_mha_1_1/layer_normalization_21_1/moments/mean/reduction_indices", "shape": [1], "dtype": "int32"}, {"name": "StatefulPartitionedCall/functional_8_1/moe_block_1_1/pool_mha_1_1/layer_normalization_21_1/moments/variance/reduction_indices", "shape": [1], "dtype": "int32"}, {"name": "StatefulPartitionedCall/functional_8_1/moe_block_1_1/pool_mha_1_1/layer_normalization_21_1/add/y", "shape": [], "dtype": "float32"}, {"name": "StatefulPartitionedCall/functional_8_1/moe_block_1_1/pool_mha_1_1/layer_normalization_21_1/Reshape", "shape": [1, 1, 128], "dtype": "float32"}, {"name": "StatefulPartitionedCall/functional_8_1/moe_block_1_1/pool_mha_1_1/layer_normalization_21_1/Reshape_1", "shape": [1, 1, 128], "dtype": "float32"}, {"name": "StatefulPartitionedCall/functional_8_1/moe_block_1_1/pool_mha_1_1/multi_head_attention_11_1/value_1/Reshape", "shape": [128, 128], "dtype": "float32"}, {"name": "StatefulPartitionedCall/functional_8_1/moe_block_1_1/pool_mha_1_1/multi_head_attention_11_1/value_1/Reshape_1/shape", "shape": [4], "dtype": "int32"}, {"name": "StatefulPartitionedCall/functional_8_1/moe_block_1_1/pool_mha_1_1/multi_head_attention_11_1/value_1/Add/ReadVariableOp", "shape": [4, 32], "dtype": "float32"}, {"name": "StatefulPartitionedCall/functional_8_1/moe_block_1_1/pool_mha_1_1/multi_head_attention_11_1/attention_output_1/Reshape/shape", "shape": [3], "dtype": "int32"}, {"name": "StatefulPartitionedCall/functional_8_1/moe_block_1_1/pool_mha_1_1/multi_head_attention_11_1/attention_output_1/Reshape_1", "shape": [128, 128], "dtype": "float32"}, {"name": "StatefulPartitionedCall/functional_8_1/moe_block_1_1/pool_mha_1_1/multi_head_attention_11_1/attention_output_1/BiasAdd/ReadVariableOp", "shape": [128], "dtype": "float32"}, {"name": "StatefulPartitionedCall/functional_8_1/moe_block_1_1/pool_ffn_0_1/dense_21_1/mul_1/x", "shape": [], "dtype": "float32"}, {"name": "StatefulPartitionedCall/functional_8_1/moe_block_1_1/pool_ffn_0_1/dense_21_1/mul/x", "shape": [], "dtype": "float32"}, {"name": "StatefulPartitionedCall/functional_8_1/moe_block_1_1/pool_ffn_0_1/layer_normalization_22_1/moments/mean/reduction_indices", "shape": [1], "dtype": "int32"}, {"name": "StatefulPartitionedCall/functional_8_1/moe_block_1_1/pool_ffn_0_1/layer_normalization_22_1/moments/variance/reduction_indices", "shape": [1], "dtype": "int32"}, {"name": "StatefulPartitionedCall/functional_8_1/moe_block_1_1/pool_ffn_0_1/layer_normalization_22_1/add/y", "shape": [], "dtype": "float32"}, {"name": "StatefulPartitionedCall/functional_8_1/moe_block_1_1/pool_ffn_0_1/layer_normalization_22_1/Reshape", "shape": [1, 1, 128], "dtype": "float32"}, {"name": "StatefulPartitionedCall/functional_8_1/moe_block_1_1/pool_ffn_0_1/layer_normalization_22_1/Reshape_1", "shape": [1, 1, 128], "dtype": "float32"}, {"name": "StatefulPartitionedCall/functional_8_1/moe_block_1_1/pool_ffn_0_1/dense_21_1/Cast/ReadVariableOp", "shape": [128, 512], "dtype": "float32"}, {"name": "StatefulPartitionedCall/functional_8_1/moe_block_1_1/pool_ffn_0_1/dense_21_1/BiasAdd/ReadVariableOp", "shape": [512], "dtype": "float32"}, {"name": "StatefulPartitionedCall/functional_8_1/moe_block_1_1/pool_ffn_0_1/dense_21_1/Pow/y", "shape": [], "dtype": "float32"}, {"name": "StatefulPartitionedCall/functional_8_1/moe_block_1_1/pool_ffn_0_1/dense_22_1/Cast/ReadVariableOp", "shape": [512, 128], "dtype": "float32"}, {"name": "StatefulPartitionedCall/functional_8_1/moe_block_1_1/pool_ffn_0_1/dense_22_1/BiasAdd/ReadVariableOp", "shape": [128], "dtype": "float32"}, {"name": "StatefulPartitionedCall/functional_8_1/moe_block_1_1/pool_ffn_1_1/dense_23_1/mul_1/x", "shape": [], "dtype": "float32"}, {"name": "StatefulPartitionedCall/functional_8_1/moe_block_1_1/pool_ffn_1_1/dense_23_1/mul/x", "shape": [], "dtype": "float32"}, {"name": "StatefulPartitionedCall/functional_8_1/moe_block_1_1/pool_ffn_1_1/layer_normalization_23_1/moments/mean/reduction_indices", "shape": [1], "dtype": "int32"}, {"name": "StatefulPartitionedCall/functional_8_1/moe_block_1_1/pool_ffn_1_1/layer_normalization_23_1/moments/variance/reduction_indices", "shape": [1], "dtype": "int32"}, {"name": "StatefulPartitionedCall/functional_8_1/moe_block_1_1/pool_ffn_1_1/layer_normalization_23_1/add/y", "shape": [], "dtype": "float32"}, {"name": "StatefulPartitionedCall/functional_8_1/moe_block_1_1/pool_ffn_1_1/layer_normalization_23_1/Reshape", "shape": [1, 1, 128], "dtype": "float32"}, {"name": "StatefulPartitionedCall/functional_8_1/moe_block_1_1/pool_ffn_1_1/layer_normalization_23_1/Reshape_1", "shape": [1, 1, 128], "dtype": "float32"}, {"name": "StatefulPartitionedCall/functional_8_1/moe_block_1_1/pool_ffn_1_1/dense_23_1/Cast/ReadVariableOp", "shape": [128, 512], "dtype": "float32"}, {"name": "StatefulPartitionedCall/functional_8_1/moe_block_1_1/pool_ffn_1_1/dense_23_1/BiasAdd/ReadVariableOp", "shape": [512], "dtype": "float32"}, {"name": "StatefulPartitionedCall/functional_8_1/moe_block_1_1/pool_ffn_1_1/dense_23_1/Pow/y", "shape": [], "dtype": "float32"}, {"name": "StatefulPartitionedCall/functional_8_1/moe_block_1_1/pool_ffn_1_1/dense_24_1/Cast/ReadVariableOp", "shape": [512, 128], "dtype": "float32"}, {"name": "StatefulPartitionedCall/functional_8_1/moe_block_1_1/pool_ffn_1_1/dense_24_1/BiasAdd/ReadVariableOp", "shape": [128], "dtype": "float32"}, {"name": "StatefulPartitionedCall/functional_8_1/moe_block_0_1/pool_mha_0_3/multi_head_attention_8_1/query_1/Reshape", "shape": [128, 128], "dtype": "float32"}, {"name": "StatefulPartitionedCall/functional_8_1/moe_block_0_1/pool_mha_0_3/multi_head_attention_8_1/query_1/Reshape_1/shape", "shape": [4], "dtype": "int32"}, {"name": "StatefulPartitionedCall/functional_8_1/moe_block_0_1/pool_mha_0_3/multi_head_attention_8_1/query_1/Add/ReadVariableOp", "shape": [4, 32], "dtype": "float32"}, {"name": "StatefulPartitionedCall/functional_8_1/moe_block_0_1/pool_mha_0_3/multi_head_attention_8_1/key_1/Reshape", "shape": [128, 128], "dtype": "float32"}, {"name": "StatefulPartitionedCall/functional_8_1/moe_block_0_1/pool_mha_0_3/multi_head_attention_8_1/key_1/Reshape_1/shape", "shape": [4], "dtype": "int32"}, {"name": "StatefulPartitionedCall/functional_8_1/moe_block_0_1/pool_mha_0_3/multi_head_attention_8_1/key_1/Add/ReadVariableOp", "shape": [4, 32], "dtype": "float32"}, {"name": "StatefulPartitionedCall/functional_8_1/moe_block_0_1/pool_mha_0_3/multi_head_attention_8_1/Cast/x", "shape": [], "dtype": "float32"}, {"name": "StatefulPartitionedCall/functional_8_1/moe_block_0_1/pool_mha_0_3/layer_normalization_16_1/moments/mean/reduction_indices", "shape": [1], "dtype": "int32"}, {"name": "StatefulPartitionedCall/functional_8_1/moe_block_0_1/pool_mha_0_3/layer_normalization_16_1/moments/variance/reduction_indices", "shape": [1], "dtype": "int32"}, {"name": "StatefulPartitionedCall/functional_8_1/moe_block_0_1/pool_mha_0_3/layer_normalization_16_1/add/y", "shape": [], "dtype": "float32"}, {"name": "StatefulPartitionedCall/functional_8_1/moe_block_0_1/pool_mha_0_3/layer_normalization_16_1/Reshape", "shape": [1, 1, 128], "dtype": "float32"}, {"name": "StatefulPartitionedCall/functional_8_1/moe_block_0_1/pool_mha_0_3/layer_normalization_16_1/Reshape_1", "shape": [1, 1, 128], "dtype": "float32"}, {"name": "StatefulPartitionedCall/functional_8_1/moe_block_0_1/pool_mha_0_3/multi_head_attention_8_1/value_1/Reshape", "shape": [128, 128], "dtype": "float32"}, {"name": "StatefulPartitionedCall/functional_8_1/moe_block_0_1/pool_mha_0_3/multi_head_attention_8_1/value_1/Reshape_1/shape", "shape": [4], "dtype": "int32"}, {"name": "StatefulPartitionedCall/functional_8_1/moe_block_0_1/pool_mha_0_3/multi_head_attention_8_1/value_1/Add/ReadVariableOp", "shape": [4, 32], "dtype": "float32"}, {"name": "StatefulPartitionedCall/functional_8_1/moe_block_0_1/pool_mha_0_3/multi_head_attention_8_1/attention_output_1/Reshape/shape", "shape": [3], "dtype": "int32"}, {"name": "StatefulPartitionedCall/functional_8_1/moe_block_0_1/pool_mha_0_3/multi_head_attention_8_1/attention_output_1/Reshape_1", "shape": [128, 128], "dtype": "float32"}, {"name": "StatefulPartitionedCall/functional_8_1/moe_block_0_1/pool_mha_0_3/multi_head_attention_8_1/attention_output_1/BiasAdd/ReadVariableOp", "shape": [128], "dtype": "float32"}, {"name": "StatefulPartitionedCall/functional_8_1/moe_block_0_1/pool_mha_1_3/multi_head_attention_9_1/query_1/Reshape", "shape": [128, 128], "dtype": "float32"}, {"name": "StatefulPartitionedCall/functional_8_1/moe_block_0_1/pool_mha_1_3/multi_head_attention_9_1/query_1/Reshape_1/shape", "shape": [4], "dtype": "int32"}, {"name": "StatefulPartitionedCall/functional_8_1/moe_block_0_1/pool_mha_1_3/multi_head_attention_9_1/query_1/Add/ReadVariableOp", "shape": [4, 32], "dtype": "float32"}, {"name": "StatefulPartitionedCall/functional_8_1/moe_block_0_1/pool_mha_1_3/multi_head_attention_9_1/key_1/Reshape", "shape": [128, 128], "dtype": "float32"}, {"name": "StatefulPartitionedCall/functional_8_1/moe_block_0_1/pool_mha_1_3/multi_head_attention_9_1/key_1/Reshape_1/shape", "shape": [4], "dtype": "int32"}, {"name": "StatefulPartitionedCall/functional_8_1/moe_block_0_1/pool_mha_1_3/multi_head_attention_9_1/key_1/Add/ReadVariableOp", "shape": [4, 32], "dtype": "float32"}, {"name": "StatefulPartitionedCall/functional_8_1/moe_block_0_1/pool_mha_1_3/multi_head_attention_9_1/Cast/x", "shape": [], "dtype": "float32"}, {"name": "StatefulPartitionedCall/functional_8_1/moe_block_0_1/pool_mha_1_3/layer_normalization_17_1/moments/mean/reduction_indices", "shape": [1], "dtype": "int32"}, {"name": "StatefulPartitionedCall/functional_8_1/moe_block_0_1/pool_mha_1_3/layer_normalization_17_1/moments/variance/reduction_indices", "shape": [1], "dtype": "int32"}, {"name": "StatefulPartitionedCall/functional_8_1/moe_block_0_1/pool_mha_1_3/layer_normalization_17_1/add/y", "shape": [], "dtype": "float32"}, {"name": "StatefulPartitionedCall/functional_8_1/moe_block_0_1/pool_mha_1_3/layer_normalization_17_1/Reshape", "shape": [1, 1, 128], "dtype": "float32"}, {"name": "StatefulPartitionedCall/functional_8_1/moe_block_0_1/pool_mha_1_3/layer_normalization_17_1/Reshape_1", "shape": [1, 1, 128], "dtype": "float32"}, {"name": "StatefulPartitionedCall/functional_8_1/moe_block_0_1/pool_mha_1_3/multi_head_attention_9_1/value_1/Reshape", "shape": [128, 128], "dtype": "float32"}, {"name": "StatefulPartitionedCall/functional_8_1/moe_block_0_1/pool_mha_1_3/multi_head_attention_9_1/value_1/Reshape_1/shape", "shape": [4], "dtype": "int32"}, {"name": "StatefulPartitionedCall/functional_8_1/moe_block_0_1/pool_mha_1_3/multi_head_attention_9_1/value_1/Add/ReadVariableOp", "shape": [4, 32], "dtype": "float32"}, {"name": "StatefulPartitionedCall/functional_8_1/moe_block_0_1/pool_mha_1_3/multi_head_attention_9_1/attention_output_1/Reshape/shape", "shape": [3], "dtype": "int32"}, {"name": "StatefulPartitionedCall/functional_8_1/moe_block_0_1/pool_mha_1_3/multi_head_attention_9_1/attention_output_1/Reshape_1", "shape": [128, 128], "dtype": "float32"}, {"name": "StatefulPartitionedCall/functional_8_1/moe_block_0_1/pool_mha_1_3/multi_head_attention_9_1/attention_output_1/BiasAdd/ReadVariableOp", "shape": [128], "dtype": "float32"}, {"name": "StatefulPartitionedCall/functional_8_1/moe_block_0_1/pool_ffn_0_3/dense_17_1/mul_1/x", "shape": [], "dtype": "float32"}, {"name": "StatefulPartitionedCall/functional_8_1/moe_block_0_1/pool_ffn_0_3/dense_17_1/mul/x", "shape": [], "dtype": "float32"}, {"name": "StatefulPartitionedCall/functional_8_1/moe_block_0_1/pool_ffn_0_3/layer_normalization_18_1/moments/mean/reduction_indices", "shape": [1], "dtype": "int32"}, {"name": "StatefulPartitionedCall/functional_8_1/moe_block_0_1/pool_ffn_0_3/layer_normalization_18_1/moments/variance/reduction_indices", "shape": [1], "dtype": "int32"}, {"name": "StatefulPartitionedCall/functional_8_1/moe_block_0_1/pool_ffn_0_3/layer_normalization_18_1/add/y", "shape": [], "dtype": "float32"}, {"name": "StatefulPartitionedCall/functional_8_1/moe_block_0_1/pool_ffn_0_3/layer_normalization_18_1/Reshape", "shape": [1, 1, 128], "dtype": "float32"}, {"name": "StatefulPartitionedCall/functional_8_1/moe_block_0_1/pool_ffn_0_3/layer_normalization_18_1/Reshape_1", "shape": [1, 1, 128], "dtype": "float32"}, {"name": "StatefulPartitionedCall/functional_8_1/moe_block_0_1/pool_ffn_0_3/dense_17_1/Cast/ReadVariableOp", "shape": [128, 512], "dtype": "float32"}, {"name": "StatefulPartitionedCall/functional_8_1/moe_block_0_1/pool_ffn_0_3/dense_17_1/BiasAdd/ReadVariableOp", "shape": [512], "dtype": "float32"}, {"name": "StatefulPartitionedCall/functional_8_1/moe_block_0_1/pool_ffn_0_3/dense_17_1/Pow/y", "shape": [], "dtype": "float32"}, {"name": "StatefulPartitionedCall/functional_8_1/moe_block_0_1/pool_ffn_0_3/dense_18_1/Cast/ReadVariableOp", "shape": [512, 128], "dtype": "float32"}, {"name": "StatefulPartitionedCall/functional_8_1/moe_block_0_1/pool_ffn_0_3/dense_18_1/BiasAdd/ReadVariableOp", "shape": [128], "dtype": "float32"}, {"name": "StatefulPartitionedCall/functional_8_1/moe_block_0_1/pool_ffn_1_3/dense_19_1/mul_1/x", "shape": [], "dtype": "float32"}, {"name": "StatefulPartitionedCall/functional_8_1/moe_block_0_1/pool_ffn_1_3/dense_19_1/mul/x", "shape": [], "dtype": "float32"}, {"name": "StatefulPartitionedCall/functional_8_1/moe_block_0_1/pool_ffn_1_3/layer_normalization_19_1/moments/mean/reduction_indices", "shape": [1], "dtype": "int32"}, {"name": "StatefulPartitionedCall/functional_8_1/moe_block_0_1/pool_ffn_1_3/layer_normalization_19_1/moments/variance/reduction_indices", "shape": [1], "dtype": "int32"}, {"name": "StatefulPartitionedCall/functional_8_1/moe_block_0_1/pool_ffn_1_3/layer_normalization_19_1/add/y", "shape": [], "dtype": "float32"}, {"name": "StatefulPartitionedCall/functional_8_1/moe_block_0_1/pool_ffn_1_3/layer_normalization_19_1/Reshape", "shape": [1, 1, 128], "dtype": "float32"}, {"name": "StatefulPartitionedCall/functional_8_1/moe_block_0_1/pool_ffn_1_3/layer_normalization_19_1/Reshape_1", "shape": [1, 1, 128], "dtype": "float32"}, {"name": "StatefulPartitionedCall/functional_8_1/moe_block_0_1/pool_ffn_1_3/dense_19_1/Cast/ReadVariableOp", "shape": [128, 512], "dtype": "float32"}, {"name": "StatefulPartitionedCall/functional_8_1/moe_block_0_1/pool_ffn_1_3/dense_19_1/BiasAdd/ReadVariableOp", "shape": [512], "dtype": "float32"}, {"name": "StatefulPartitionedCall/functional_8_1/moe_block_0_1/pool_ffn_1_3/dense_19_1/Pow/y", "shape": [], "dtype": "float32"}, {"name": "StatefulPartitionedCall/functional_8_1/moe_block_0_1/pool_ffn_1_3/dense_20_1/Cast/ReadVariableOp", "shape": [512, 128], "dtype": "float32"}, {"name": "StatefulPartitionedCall/functional_8_1/moe_block_0_1/pool_ffn_1_3/dense_20_1/BiasAdd/ReadVariableOp", "shape": [128], "dtype": "float32"}, {"name": "StatefulPartitionedCall/functional_8_1/moe_block_0_1/pool_mha_0_1/multi_head_attention_8_1/query_1/Reshape", "shape": [128, 128], "dtype": "float32"}, {"name": "StatefulPartitionedCall/functional_8_1/moe_block_0_1/pool_mha_0_1/multi_head_attention_8_1/query_1/Reshape_1/shape", "shape": [4], "dtype": "int32"}, {"name": "StatefulPartitionedCall/functional_8_1/moe_block_0_1/pool_mha_0_1/multi_head_attention_8_1/query_1/Add/ReadVariableOp", "shape": [4, 32], "dtype": "float32"}, {"name": "StatefulPartitionedCall/functional_8_1/moe_block_0_1/pool_mha_0_1/multi_head_attention_8_1/key_1/Reshape", "shape": [128, 128], "dtype": "float32"}, {"name": "StatefulPartitionedCall/functional_8_1/moe_block_0_1/pool_mha_0_1/multi_head_attention_8_1/key_1/Reshape_1/shape", "shape": [4], "dtype": "int32"}, {"name": "StatefulPartitionedCall/functional_8_1/moe_block_0_1/pool_mha_0_1/multi_head_attention_8_1/key_1/Add/ReadVariableOp", "shape": [4, 32], "dtype": "float32"}, {"name": "StatefulPartitionedCall/functional_8_1/moe_block_0_1/pool_mha_0_1/multi_head_attention_8_1/Cast/x", "shape": [], "dtype": "float32"}, {"name": "StatefulPartitionedCall/functional_8_1/moe_block_0_1/pool_mha_0_1/layer_normalization_16_1/moments/mean/reduction_indices", "shape": [1], "dtype": "int32"}, {"name": "StatefulPartitionedCall/functional_8_1/moe_block_0_1/pool_mha_0_1/layer_normalization_16_1/moments/variance/reduction_indices", "shape": [1], "dtype": "int32"}, {"name": "StatefulPartitionedCall/functional_8_1/moe_block_0_1/pool_mha_0_1/layer_normalization_16_1/add/y", "shape": [], "dtype": "float32"}, {"name": "StatefulPartitionedCall/functional_8_1/moe_block_0_1/pool_mha_0_1/layer_normalization_16_1/Reshape", "shape": [1, 1, 128], "dtype": "float32"}, {"name": "StatefulPartitionedCall/functional_8_1/moe_block_0_1/pool_mha_0_1/layer_normalization_16_1/Reshape_1", "shape": [1, 1, 128], "dtype": "float32"}, {"name": "StatefulPartitionedCall/functional_8_1/moe_block_0_1/pool_mha_0_1/multi_head_attention_8_1/value_1/Reshape", "shape": [128, 128], "dtype": "float32"}, {"name": "StatefulPartitionedCall/functional_8_1/moe_block_0_1/pool_mha_0_1/multi_head_attention_8_1/value_1/Reshape_1/shape", "shape": [4], "dtype": "int32"}, {"name": "StatefulPartitionedCall/functional_8_1/moe_block_0_1/pool_mha_0_1/multi_head_attention_8_1/value_1/Add/ReadVariableOp", "shape": [4, 32], "dtype": "float32"}, {"name": "StatefulPartitionedCall/functional_8_1/moe_block_0_1/pool_mha_0_1/multi_head_attention_8_1/attention_output_1/Reshape/shape", "shape": [3], "dtype": "int32"}, {"name": "StatefulPartitionedCall/functional_8_1/moe_block_0_1/pool_mha_0_1/multi_head_attention_8_1/attention_output_1/Reshape_1", "shape": [128, 128], "dtype": "float32"}, {"name": "StatefulPartitionedCall/functional_8_1/moe_block_0_1/pool_mha_0_1/multi_head_attention_8_1/attention_output_1/BiasAdd/ReadVariableOp", "shape": [128], "dtype": "float32"}, {"name": "StatefulPartitionedCall/functional_8_1/moe_block_0_1/pool_mha_1_1/multi_head_attention_9_1/query_1/Reshape", "shape": [128, 128], "dtype": "float32"}, {"name": "StatefulPartitionedCall/functional_8_1/moe_block_0_1/pool_mha_1_1/multi_head_attention_9_1/query_1/Reshape_1/shape", "shape": [4], "dtype": "int32"}, {"name": "StatefulPartitionedCall/functional_8_1/moe_block_0_1/pool_mha_1_1/multi_head_attention_9_1/query_1/Add/ReadVariableOp", "shape": [4, 32], "dtype": "float32"}, {"name": "StatefulPartitionedCall/functional_8_1/moe_block_0_1/pool_mha_1_1/multi_head_attention_9_1/key_1/Reshape", "shape": [128, 128], "dtype": "float32"}, {"name": "StatefulPartitionedCall/functional_8_1/moe_block_0_1/pool_mha_1_1/multi_head_attention_9_1/key_1/Reshape_1/shape", "shape": [4], "dtype": "int32"}, {"name": "StatefulPartitionedCall/functional_8_1/moe_block_0_1/pool_mha_1_1/multi_head_attention_9_1/key_1/Add/ReadVariableOp", "shape": [4, 32], "dtype": "float32"}, {"name": "StatefulPartitionedCall/functional_8_1/moe_block_0_1/pool_mha_1_1/multi_head_attention_9_1/Cast/x", "shape": [], "dtype": "float32"}, {"name": "StatefulPartitionedCall/functional_8_1/moe_block_0_1/pool_mha_1_1/layer_normalization_17_1/moments/mean/reduction_indices", "shape": [1], "dtype": "int32"}, {"name": "StatefulPartitionedCall/functional_8_1/moe_block_0_1/pool_mha_1_1/layer_normalization_17_1/moments/variance/reduction_indices", "shape": [1], "dtype": "int32"}, {"name": "StatefulPartitionedCall/functional_8_1/moe_block_0_1/pool_mha_1_1/layer_normalization_17_1/add/y", "shape": [], "dtype": "float32"}, {"name": "StatefulPartitionedCall/functional_8_1/moe_block_0_1/pool_mha_1_1/layer_normalization_17_1/Reshape", "shape": [1, 1, 128], "dtype": "float32"}, {"name": "StatefulPartitionedCall/functional_8_1/moe_block_0_1/pool_mha_1_1/layer_normalization_17_1/Reshape_1", "shape": [1, 1, 128], "dtype": "float32"}, {"name": "StatefulPartitionedCall/functional_8_1/moe_block_0_1/pool_mha_1_1/multi_head_attention_9_1/value_1/Reshape", "shape": [128, 128], "dtype": "float32"}, {"name": "StatefulPartitionedCall/functional_8_1/moe_block_0_1/pool_mha_1_1/multi_head_attention_9_1/value_1/Reshape_1/shape", "shape": [4], "dtype": "int32"}, {"name": "StatefulPartitionedCall/functional_8_1/moe_block_0_1/pool_mha_1_1/multi_head_attention_9_1/value_1/Add/ReadVariableOp", "shape": [4, 32], "dtype": "float32"}, {"name": "StatefulPartitionedCall/functional_8_1/moe_block_0_1/pool_mha_1_1/multi_head_attention_9_1/attention_output_1/Reshape/shape", "shape": [3], "dtype": "int32"}, {"name": "StatefulPartitionedCall/functional_8_1/moe_block_0_1/pool_mha_1_1/multi_head_attention_9_1/attention_output_1/Reshape_1", "shape": [128, 128], "dtype": "float32"}, {"name": "StatefulPartitionedCall/functional_8_1/moe_block_0_1/pool_mha_1_1/multi_head_attention_9_1/attention_output_1/BiasAdd/ReadVariableOp", "shape": [128], "dtype": "float32"}, {"name": "StatefulPartitionedCall/functional_8_1/moe_block_0_1/pool_ffn_0_1/dense_17_1/mul_1/x", "shape": [], "dtype": "float32"}, {"name": "StatefulPartitionedCall/functional_8_1/moe_block_0_1/pool_ffn_0_1/dense_17_1/mul/x", "shape": [], "dtype": "float32"}, {"name": "StatefulPartitionedCall/functional_8_1/moe_block_0_1/pool_ffn_0_1/layer_normalization_18_1/moments/mean/reduction_indices", "shape": [1], "dtype": "int32"}, {"name": "StatefulPartitionedCall/functional_8_1/moe_block_0_1/pool_ffn_0_1/layer_normalization_18_1/moments/variance/reduction_indices", "shape": [1], "dtype": "int32"}, {"name": "StatefulPartitionedCall/functional_8_1/moe_block_0_1/pool_ffn_0_1/layer_normalization_18_1/add/y", "shape": [], "dtype": "float32"}, {"name": "StatefulPartitionedCall/functional_8_1/moe_block_0_1/pool_ffn_0_1/layer_normalization_18_1/Reshape", "shape": [1, 1, 128], "dtype": "float32"}, {"name": "StatefulPartitionedCall/functional_8_1/moe_block_0_1/pool_ffn_0_1/layer_normalization_18_1/Reshape_1", "shape": [1, 1, 128], "dtype": "float32"}, {"name": "StatefulPartitionedCall/functional_8_1/moe_block_0_1/pool_ffn_0_1/dense_17_1/Cast/ReadVariableOp", "shape": [128, 512], "dtype": "float32"}, {"name": "StatefulPartitionedCall/functional_8_1/moe_block_0_1/pool_ffn_0_1/dense_17_1/BiasAdd/ReadVariableOp", "shape": [512], "dtype": "float32"}, {"name": "StatefulPartitionedCall/functional_8_1/moe_block_0_1/pool_ffn_0_1/dense_17_1/Pow/y", "shape": [], "dtype": "float32"}, {"name": "StatefulPartitionedCall/functional_8_1/moe_block_0_1/pool_ffn_0_1/dense_18_1/Cast/ReadVariableOp", "shape": [512, 128], "dtype": "float32"}, {"name": "StatefulPartitionedCall/functional_8_1/moe_block_0_1/pool_ffn_0_1/dense_18_1/BiasAdd/ReadVariableOp", "shape": [128], "dtype": "float32"}, {"name": "StatefulPartitionedCall/functional_8_1/moe_block_0_1/pool_ffn_1_1/dense_19_1/mul_1/x", "shape": [], "dtype": "float32"}, {"name": "StatefulPartitionedCall/functional_8_1/moe_block_0_1/pool_ffn_1_1/dense_19_1/mul/x", "shape": [], "dtype": "float32"}, {"name": "StatefulPartitionedCall/functional_8_1/moe_block_0_1/pool_ffn_1_1/layer_normalization_19_1/moments/mean/reduction_indices", "shape": [1], "dtype": "int32"}, {"name": "StatefulPartitionedCall/functional_8_1/moe_block_0_1/pool_ffn_1_1/layer_normalization_19_1/moments/variance/reduction_indices", "shape": [1], "dtype": "int32"}, {"name": "StatefulPartitionedCall/functional_8_1/moe_block_0_1/pool_ffn_1_1/layer_normalization_19_1/add/y", "shape": [], "dtype": "float32"}, {"name": "StatefulPartitionedCall/functional_8_1/moe_block_0_1/pool_ffn_1_1/layer_normalization_19_1/Reshape", "shape": [1, 1, 128], "dtype": "float32"}, {"name": "StatefulPartitionedCall/functional_8_1/moe_block_0_1/pool_ffn_1_1/layer_normalization_19_1/Reshape_1", "shape": [1, 1, 128], "dtype": "float32"}, {"name": "StatefulPartitionedCall/functional_8_1/moe_block_0_1/pool_ffn_1_1/dense_19_1/Cast/ReadVariableOp", "shape": [128, 512], "dtype": "float32"}, {"name": "StatefulPartitionedCall/functional_8_1/moe_block_0_1/pool_ffn_1_1/dense_19_1/BiasAdd/ReadVariableOp", "shape": [512], "dtype": "float32"}, {"name": "StatefulPartitionedCall/functional_8_1/moe_block_0_1/pool_ffn_1_1/dense_19_1/Pow/y", "shape": [], "dtype": "float32"}, {"name": "StatefulPartitionedCall/functional_8_1/moe_block_0_1/pool_ffn_1_1/dense_20_1/Cast/ReadVariableOp", "shape": [512, 128], "dtype": "float32"}, {"name": "StatefulPartitionedCall/functional_8_1/moe_block_0_1/pool_ffn_1_1/dense_20_1/BiasAdd/ReadVariableOp", "shape": [128], "dtype": "float32"}, {"name": "StatefulPartitionedCall/functional_8_1/reshape_1/strided_slice/stack", "shape": [1], "dtype": "int32"}, {"name": "StatefulPartitionedCall/functional_8_1/reshape_1/strided_slice/stack_1", "shape": [1], "dtype": "int32"}, {"name": "StatefulPartitionedCall/functional_8_1/reshape_1/strided_slice/stack_2", "shape": [1], "dtype": "int32"}, {"name": "StatefulPartitionedCall/functional_8_1/reshape_1/Reshape/shape/1", "shape": [], "dtype": "int32"}, {"name": "StatefulPartitionedCall/functional_8_1/reshape_1/Reshape/shape/2", "shape": [], "dtype": "int32"}, {"name": "StatefulPartitionedCall/functional_8_1/dense_16_1/Cast/ReadVariableOp", "shape": [2, 128], "dtype": "float32"}, {"name": "StatefulPartitionedCall/functional_8_1/dense_16_1/BiasAdd/ReadVariableOp", "shape": [128], "dtype": "float32"}, {"name": "StatefulPartitionedCall/functional_8_1/token_and_position_embedding_1/add", "shape": [64, 128], "dtype": "float32"}, {"name": "StatefulPartitionedCall/functional_8_1/token_and_position_embedding_1/time_emb_1/GatherV2/ReadVariableOp", "shape": [65, 128], "dtype": "float32"}, {"name": "StatefulPartitionedCall/functional_8_1/token_and_position_embedding_1/time_emb_1/Less/y", "shape": [], "dtype": "int32"}, {"name": "StatefulPartitionedCall/functional_8_1/token_and_position_embedding_1/time_emb_1/strided_slice", "shape": [], "dtype": "int32"}, {"name": "StatefulPartitionedCall/functional_8_1/token_and_position_embedding_1/Sum/reduction_indices", "shape": [3], "dtype": "int32"}, {"name": "StatefulPartitionedCall/functional_8_1/token_and_position_embedding_1/sub/y", "shape": [], "dtype": "int32"}, {"name": "StatefulPartitionedCall/functional_8_1/token_and_position_embedding_1/Maximum/y", "shape": [], "dtype": "int32"}, {"name": "StatefulPartitionedCall/functional_8_1/token_and_position_embedding_1/time_emb_1/GatherV2/axis", "shape": [], "dtype": "int32"}, {"name": "StatefulPartitionedCall/functional_8_1/token_and_position_embedding_1/ExpandDims/dim", "shape": [], "dtype": "int32"}, {"name": "StatefulPartitionedCall/functional_8_1/moe_block_0_1/Mean/reduction_indices", "shape": [], "dtype": "int32"}, {"name": "StatefulPartitionedCall/functional_8_1/moe_block_0_1/embedding_4_1/GatherV2", "shape": [1, 128], "dtype": "float32"}, {"name": "StatefulPartitionedCall/functional_8_1/moe_block_0_1/router_1/Cast/ReadVariableOp", "shape": [128, 4], "dtype": "float32"}, {"name": "StatefulPartitionedCall/functional_8_1/moe_block_0_1/router_1/BiasAdd/ReadVariableOp", "shape": [4], "dtype": "float32"}, {"name": "StatefulPartitionedCall/functional_8_1/moe_block_0_1/Reshape/shape", "shape": [4], "dtype": "int32"}, {"name": "StatefulPartitionedCall/functional_8_1/moe_block_0_1/Sum/reduction_indices", "shape": [], "dtype": "int32"}, {"name": "StatefulPartitionedCall/functional_8_1/moe_block_0_1/Mean_1/reduction_indices", "shape": [], "dtype": "int32"}, {"name": "StatefulPartitionedCall/functional_8_1/moe_block_0_1/embedding_4_3/GatherV2", "shape": [1, 128], "dtype": "float32"}, {"name": "StatefulPartitionedCall/functional_8_1/moe_block_0_1/router_3/Cast/ReadVariableOp", "shape": [128, 4], "dtype": "float32"}, {"name": "StatefulPartitionedCall/functional_8_1/moe_block_0_1/router_3/BiasAdd/ReadVariableOp", "shape": [4], "dtype": "float32"}, {"name": "StatefulPartitionedCall/functional_8_1/moe_block_0_1/Reshape_1/shape", "shape": [4], "dtype": "int32"}, {"name": "StatefulPartitionedCall/functional_8_1/moe_block_0_1/Sum_1/reduction_indices", "shape": [], "dtype": "int32"}, {"name": "StatefulPartitionedCall/functional_8_1/moe_block_1_1/Mean/reduction_indices", "shape": [], "dtype": "int32"}, {"name": "StatefulPartitionedCall/functional_8_1/moe_block_1_1/embedding_5_1/GatherV2", "shape": [1, 128], "dtype": "float32"}, {"name": "StatefulPartitionedCall/functional_8_1/moe_block_1_1/router_1/Cast/ReadVariableOp", "shape": [128, 4], "dtype": "float32"}, {"name": "StatefulPartitionedCall/functional_8_1/moe_block_1_1/router_1/BiasAdd/ReadVariableOp", "shape": [4], "dtype": "float32"}, {"name": "StatefulPartitionedCall/functional_8_1/moe_block_1_1/Reshape/shape", "shape": [4], "dtype": "int32"}, {"name": "StatefulPartitionedCall/functional_8_1/moe_block_1_1/Sum/reduction_indices", "shape": [], "dtype": "int32"}, {"name": "StatefulPartitionedCall/functional_8_1/moe_block_1_1/Mean_1/reduction_indices", "shape": [], "dtype": "int32"}, {"name": "StatefulPartitionedCall/functional_8_1/moe_block_1_1/embedding_5_3/GatherV2", "shape": [1, 128], "dtype": "float32"}, {"name": "StatefulPartitionedCall/functional_8_1/moe_block_1_1/router_3/Cast/ReadVariableOp", "shape": [128, 4], "dtype": "float32"}, {"name": "StatefulPartitionedCall/functional_8_1/moe_block_1_1/router_3/BiasAdd/ReadVariableOp", "shape": [4], "dtype": "float32"}, {"name": "StatefulPartitionedCall/functional_8_1/moe_block_1_1/Reshape_1/shape", "shape": [4], "dtype": "int32"}, {"name": "StatefulPartitionedCall/functional_8_1/moe_block_1_1/Sum_1/reduction_indices", "shape": [], "dtype": "int32"}, {"name": "StatefulPartitionedCall/functional_8_1/moe_block_2_1/Mean/reduction_indices", "shape": [], "dtype": "int32"}, {"name": "StatefulPartitionedCall/functional_8_1/moe_block_2_1/embedding_6_1/GatherV2", "shape": [1, 128], "dtype": "float32"}, {"name": "StatefulPartitionedCall/functional_8_1/moe_block_2_1/router_1/Cast/ReadVariableOp", "shape": [128, 4], "dtype": "float32"}, {"name": "StatefulPartitionedCall/functional_8_1/moe_block_2_1/router_1/BiasAdd/ReadVariableOp", "shape": [4], "dtype": "float32"}, {"name": "StatefulPartitionedCall/functional_8_1/moe_block_2_1/Reshape/shape", "shape": [4], "dtype": "int32"}, {"name": "StatefulPartitionedCall/functional_8_1/moe_block_2_1/Sum/reduction_indices", "shape": [], "dtype": "int32"}, {"name": "StatefulPartitionedCall/functional_8_1/moe_block_2_1/Mean_1/reduction_indices", "shape": [], "dtype": "int32"}, {"name": "StatefulPartitionedCall/functional_8_1/moe_block_2_1/embedding_6_3/GatherV2", "shape": [1, 128], "dtype": "float32"}, {"name": "StatefulPartitionedCall/functional_8_1/moe_block_2_1/router_3/Cast/ReadVariableOp", "shape": [128, 4], "dtype": "float32"}, {"name": "StatefulPartitionedCall/functional_8_1/moe_block_2_1/router_3/BiasAdd/ReadVariableOp", "shape": [4], "dtype": "float32"}, {"name": "StatefulPartitionedCall/functional_8_1/moe_block_2_1/Reshape_1/shape", "shape": [4], "dtype": "int32"}, {"name": "StatefulPartitionedCall/functional_8_1/moe_block_2_1/Sum_1/reduction_indices", "shape": [], "dtype": "int32"}, {"name": "StatefulPartitionedCall/functional_8_1/moe_block_3_1/Mean/reduction_indices", "shape": [], "dtype": "int32"}, {"name": "StatefulPartitionedCall/functional_8_1/moe_block_3_1/embedding_7_1/GatherV2", "shape": [1, 128], "dtype": "float32"}, {"name": "StatefulPartitionedCall/functional_8_1/moe_block_3_1/router_1/Cast/ReadVariableOp", "shape": [128, 4], "dtype": "float32"}, {"name": "StatefulPartitionedCall/functional_8_1/moe_block_3_1/router_1/BiasAdd/ReadVariableOp", "shape": [4], "dtype": "float32"}, {"name": "StatefulPartitionedCall/functional_8_1/moe_block_3_1/Reshape/shape", "shape": [4], "dtype": "int32"}, {"name": "StatefulPartitionedCall/functional_8_1/moe_block_3_1/Sum/reduction_indices", "shape": [], "dtype": "int32"}, {"name": "StatefulPartitionedCall/functional_8_1/moe_block_3_1/Mean_1/reduction_indices", "shape": [], "dtype": "int32"}, {"name": "StatefulPartitionedCall/functional_8_1/moe_block_3_1/embedding_7_3/GatherV2", "shape": [1, 128], "dtype": "float32"}, {"name": "StatefulPartitionedCall/functional_8_1/moe_block_3_1/router_3/Cast/ReadVariableOp", "shape": [128, 4], "dtype": "float32"}, {"name": "StatefulPartitionedCall/functional_8_1/moe_block_3_1/router_3/BiasAdd/ReadVariableOp", "shape": [4], "dtype": "float32"}, {"name": "StatefulPartitionedCall/functional_8_1/moe_block_3_1/Reshape_1/shape", "shape": [4], "dtype": "int32"}, {"name": "StatefulPartitionedCall/functional_8_1/moe_block_3_1/Sum_1/reduction_indices", "shape": [], "dtype": "int32"}, {"name": "StatefulPartitionedCall/functional_8_1/conv1d_1/convolution/ExpandDims/dim", "shape": [], "dtype": "int32"}, {"name": "StatefulPartitionedCall/functional_8_1/conv1d_1/convolution/ExpandDims_1", "shape": [1, 1, 128, 8], "dtype": "float32"}, {"name": "StatefulPartitionedCall/functional_8_1/conv1d_1/Squeeze", "shape": [8], "dtype": "float32"}, {"name": "StatefulPartitionedCall/functional_8_1/conv1d_1/Pow/y", "shape": [], "dtype": "float32"}, {"name": "StatefulPartitionedCall/functional_8_1/flatten_1/Reshape/shape", "shape": [2], "dtype": "int32"}, {"name": "StatefulPartitionedCall/functional_8_1/value_hidden_1/Cast/ReadVariableOp", "shape": [512, 128], "dtype": "float32"}, {"name": "StatefulPartitionedCall/functional_8_1/value_hidden_1/BiasAdd/ReadVariableOp", "shape": [128], "dtype": "float32"}, {"name": "StatefulPartitionedCall/functional_8_1/value_hidden_1/Pow/y", "shape": [], "dtype": "float32"}, {"name": "StatefulPartitionedCall/functional_8_1/value_1/Cast/ReadVariableOp", "shape": [128, 1], "dtype": "float32"}, {"name": "StatefulPartitionedCall/functional_8_1/value_1/Add/ReadVariableOp", "shape": [1], "dtype": "float32"}, {"name": "StatefulPartitionedCall/functional_8_1/value_1/sub/y", "shape": [], "dtype": "float32"}]}]}